…
[02/24 03:10:52] cifar100-global-slim-2.0-mobilenetv2 INFO: Epoch 98/100, Acc=0.6835, Val Loss=1.2433, lr=0.0001
[02/24 03:11:28] cifar100-global-slim-2.0-mobilenetv2 INFO: Epoch 99/100, Acc=0.6846, Val Loss=1.2457, lr=0.0001
[02/24 03:11:28] cifar100-global-slim-2.0-mobilenetv2 INFO: Best Acc=0.6849
[02/24 03:11:28] cifar100-global-slim-2.0-mobilenetv2 INFO: Loading the sparse model from run/cifar100/prune/cifar100-global-slim-2.0-mobilenetv2/reg_cifar100_mobilenetv2_slim_1e-05.pth...
[02/24 03:11:32] cifar100-global-slim-2.0-mobilenetv2 INFO: Pruning...
[02/24 03:11:53] cifar100-global-slim-2.0-mobilenetv2 INFO: MobileNetV2(
  (pre): Sequential(
    (0): Conv2d(3, 9, kernel_size=(1, 1), stride=(1, 1), padding=(1, 1))
    (1): BatchNorm2d(9, eps=1e-05, momentum=0.1, affine=True, track_running_stats=True)
    (2): ReLU6(inplace=True)
  )
  (stage1): LinearBottleNeck(
    (residual): Sequential(
      (0): Conv2d(9, 15, kernel_size=(1, 1), stride=(1, 1))
      (1): BatchNorm2d(15, eps=1e-05, momentum=0.1, affine=True, track_running_stats=True)
      (2): ReLU6(inplace=True)
      (3): Conv2d(15, 15, kernel_size=(3, 3), stride=(1, 1), padding=(1, 1), groups=15)
      (4): BatchNorm2d(15, eps=1e-05, momentum=0.1, affine=True, track_running_stats=True)
      (5): ReLU6(inplace=True)
      (6): Conv2d(15, 16, kernel_size=(1, 1), stride=(1, 1))
      (7): BatchNorm2d(16, eps=1e-05, momentum=0.1, affine=True, track_running_stats=True)
    )
  )
  (stage2): Sequential(
    (0): LinearBottleNeck(
      (residual): Sequential(
        (0): Conv2d(16, 72, kernel_size=(1, 1), stride=(1, 1))
        (1): BatchNorm2d(72, eps=1e-05, momentum=0.1, affine=True, track_running_stats=True)
        (2): ReLU6(inplace=True)
        (3): Conv2d(72, 72, kernel_size=(3, 3), stride=(2, 2), padding=(1, 1), groups=72)
        (4): BatchNorm2d(72, eps=1e-05, momentum=0.1, affine=True, track_running_stats=True)
        (5): ReLU6(inplace=True)
        (6): Conv2d(72, 24, kernel_size=(1, 1), stride=(1, 1))
        (7): BatchNorm2d(24, eps=1e-05, momentum=0.1, affine=True, track_running_stats=True)
      )
    )
    (1): LinearBottleNeck(
      (residual): Sequential(
        (0): Conv2d(24, 69, kernel_size=(1, 1), stride=(1, 1))
        (1): BatchNorm2d(69, eps=1e-05, momentum=0.1, affine=True, track_running_stats=True)
        (2): ReLU6(inplace=True)
        (3): Conv2d(69, 69, kernel_size=(3, 3), stride=(1, 1), padding=(1, 1), groups=69)
        (4): BatchNorm2d(69, eps=1e-05, momentum=0.1, affine=True, track_running_stats=True)
        (5): ReLU6(inplace=True)
        (6): Conv2d(69, 24, kernel_size=(1, 1), stride=(1, 1))
        (7): BatchNorm2d(24, eps=1e-05, momentum=0.1, affine=True, track_running_stats=True)
      )
    )
  )
  (stage3): Sequential(
    (0): LinearBottleNeck(
      (residual): Sequential(
        (0): Conv2d(24, 64, kernel_size=(1, 1), stride=(1, 1))
        (1): BatchNorm2d(64, eps=1e-05, momentum=0.1, affine=True, track_running_stats=True)
        (2): ReLU6(inplace=True)
        (3): Conv2d(64, 64, kernel_size=(3, 3), stride=(2, 2), padding=(1, 1), groups=64)
        (4): BatchNorm2d(64, eps=1e-05, momentum=0.1, affine=True, track_running_stats=True)
        (5): ReLU6(inplace=True)
        (6): Conv2d(64, 32, kernel_size=(1, 1), stride=(1, 1))
        (7): BatchNorm2d(32, eps=1e-05, momentum=0.1, affine=True, track_running_stats=True)
      )
    )
    (1): LinearBottleNeck(
      (residual): Sequential(
        (0): Conv2d(32, 78, kernel_size=(1, 1), stride=(1, 1))
        (1): BatchNorm2d(78, eps=1e-05, momentum=0.1, affine=True, track_running_stats=True)
        (2): ReLU6(inplace=True)
        (3): Conv2d(78, 78, kernel_size=(3, 3), stride=(1, 1), padding=(1, 1), groups=78)
        (4): BatchNorm2d(78, eps=1e-05, momentum=0.1, affine=True, track_running_stats=True)
        (5): ReLU6(inplace=True)
        (6): Conv2d(78, 32, kernel_size=(1, 1), stride=(1, 1))
        (7): BatchNorm2d(32, eps=1e-05, momentum=0.1, affine=True, track_running_stats=True)
      )
    )
    (2): LinearBottleNeck(
      (residual): Sequential(
        (0): Conv2d(32, 47, kernel_size=(1, 1), stride=(1, 1))
        (1): BatchNorm2d(47, eps=1e-05, momentum=0.1, affine=True, track_running_stats=True)
        (2): ReLU6(inplace=True)
        (3): Conv2d(47, 47, kernel_size=(3, 3), stride=(1, 1), padding=(1, 1), groups=47)
        (4): BatchNorm2d(47, eps=1e-05, momentum=0.1, affine=True, track_running_stats=True)
        (5): ReLU6(inplace=True)
        (6): Conv2d(47, 32, kernel_size=(1, 1), stride=(1, 1))
        (7): BatchNorm2d(32, eps=1e-05, momentum=0.1, affine=True, track_running_stats=True)
      )
    )
  )
  (stage4): Sequential(
    (0): LinearBottleNeck(
      (residual): Sequential(
        (0): Conv2d(32, 78, kernel_size=(1, 1), stride=(1, 1))
        (1): BatchNorm2d(78, eps=1e-05, momentum=0.1, affine=True, track_running_stats=True)
        (2): ReLU6(inplace=True)
        (3): Conv2d(78, 78, kernel_size=(3, 3), stride=(2, 2), padding=(1, 1), groups=78)
        (4): BatchNorm2d(78, eps=1e-05, momentum=0.1, affine=True, track_running_stats=True)
        (5): ReLU6(inplace=True)
        (6): Conv2d(78, 64, kernel_size=(1, 1), stride=(1, 1))
        (7): BatchNorm2d(64, eps=1e-05, momentum=0.1, affine=True, track_running_stats=True)
      )
    )
    (1): LinearBottleNeck(
      (residual): Sequential(
        (0): Conv2d(64, 121, kernel_size=(1, 1), stride=(1, 1))
        (1): BatchNorm2d(121, eps=1e-05, momentum=0.1, affine=True, track_running_stats=True)
        (2): ReLU6(inplace=True)
        (3): Conv2d(121, 121, kernel_size=(3, 3), stride=(1, 1), padding=(1, 1), groups=121)
        (4): BatchNorm2d(121, eps=1e-05, momentum=0.1, affine=True, track_running_stats=True)
        (5): ReLU6(inplace=True)
        (6): Conv2d(121, 64, kernel_size=(1, 1), stride=(1, 1))
        (7): BatchNorm2d(64, eps=1e-05, momentum=0.1, affine=True, track_running_stats=True)
      )
    )
    (2): LinearBottleNeck(
      (residual): Sequential(
        (0): Conv2d(64, 372, kernel_size=(1, 1), stride=(1, 1))
        (1): BatchNorm2d(372, eps=1e-05, momentum=0.1, affine=True, track_running_stats=True)
        (2): ReLU6(inplace=True)
        (3): Conv2d(372, 372, kernel_size=(3, 3), stride=(1, 1), padding=(1, 1), groups=372)
        (4): BatchNorm2d(372, eps=1e-05, momentum=0.1, affine=True, track_running_stats=True)
        (5): ReLU6(inplace=True)
        (6): Conv2d(372, 64, kernel_size=(1, 1), stride=(1, 1))
        (7): BatchNorm2d(64, eps=1e-05, momentum=0.1, affine=True, track_running_stats=True)
      )
    )
    (3): LinearBottleNeck(
      (residual): Sequential(
        (0): Conv2d(64, 353, kernel_size=(1, 1), stride=(1, 1))
        (1): BatchNorm2d(353, eps=1e-05, momentum=0.1, affine=True, track_running_stats=True)
        (2): ReLU6(inplace=True)
        (3): Conv2d(353, 353, kernel_size=(3, 3), stride=(1, 1), padding=(1, 1), groups=353)
        (4): BatchNorm2d(353, eps=1e-05, momentum=0.1, affine=True, track_running_stats=True)
        (5): ReLU6(inplace=True)
        (6): Conv2d(353, 64, kernel_size=(1, 1), stride=(1, 1))
        (7): BatchNorm2d(64, eps=1e-05, momentum=0.1, affine=True, track_running_stats=True)
      )
    )
  )
  (stage5): Sequential(
    (0): LinearBottleNeck(
      (residual): Sequential(
        (0): Conv2d(64, 164, kernel_size=(1, 1), stride=(1, 1))
        (1): BatchNorm2d(164, eps=1e-05, momentum=0.1, affine=True, track_running_stats=True)
        (2): ReLU6(inplace=True)
        (3): Conv2d(164, 164, kernel_size=(3, 3), stride=(1, 1), padding=(1, 1), groups=164)
        (4): BatchNorm2d(164, eps=1e-05, momentum=0.1, affine=True, track_running_stats=True)
        (5): ReLU6(inplace=True)
        (6): Conv2d(164, 96, kernel_size=(1, 1), stride=(1, 1))
        (7): BatchNorm2d(96, eps=1e-05, momentum=0.1, affine=True, track_running_stats=True)
      )
    )
    (1): LinearBottleNeck(
      (residual): Sequential(
        (0): Conv2d(96, 458, kernel_size=(1, 1), stride=(1, 1))
        (1): BatchNorm2d(458, eps=1e-05, momentum=0.1, affine=True, track_running_stats=True)
        (2): ReLU6(inplace=True)
        (3): Conv2d(458, 458, kernel_size=(3, 3), stride=(1, 1), padding=(1, 1), groups=458)
        (4): BatchNorm2d(458, eps=1e-05, momentum=0.1, affine=True, track_running_stats=True)
        (5): ReLU6(inplace=True)
        (6): Conv2d(458, 96, kernel_size=(1, 1), stride=(1, 1))
        (7): BatchNorm2d(96, eps=1e-05, momentum=0.1, affine=True, track_running_stats=True)
      )
    )
    (2): LinearBottleNeck(
      (residual): Sequential(
        (0): Conv2d(96, 530, kernel_size=(1, 1), stride=(1, 1))
        (1): BatchNorm2d(530, eps=1e-05, momentum=0.1, affine=True, track_running_stats=True)
        (2): ReLU6(inplace=True)
        (3): Conv2d(530, 530, kernel_size=(3, 3), stride=(1, 1), padding=(1, 1), groups=530)
        (4): BatchNorm2d(530, eps=1e-05, momentum=0.1, affine=True, track_running_stats=True)
        (5): ReLU6(inplace=True)
        (6): Conv2d(530, 96, kernel_size=(1, 1), stride=(1, 1))
        (7): BatchNorm2d(96, eps=1e-05, momentum=0.1, affine=True, track_running_stats=True)
      )
    )
  )
  (stage6): Sequential(
    (0): LinearBottleNeck(
      (residual): Sequential(
        (0): Conv2d(96, 151, kernel_size=(1, 1), stride=(1, 1))
        (1): BatchNorm2d(151, eps=1e-05, momentum=0.1, affine=True, track_running_stats=True)
        (2): ReLU6(inplace=True)
        (3): Conv2d(151, 151, kernel_size=(3, 3), stride=(1, 1), padding=(1, 1), groups=151)
        (4): BatchNorm2d(151, eps=1e-05, momentum=0.1, affine=True, track_running_stats=True)
        (5): ReLU6(inplace=True)
        (6): Conv2d(151, 160, kernel_size=(1, 1), stride=(1, 1))
        (7): BatchNorm2d(160, eps=1e-05, momentum=0.1, affine=True, track_running_stats=True)
      )
    )
    (1): LinearBottleNeck(
      (residual): Sequential(
        (0): Conv2d(160, 74, kernel_size=(1, 1), stride=(1, 1))
        (1): BatchNorm2d(74, eps=1e-05, momentum=0.1, affine=True, track_running_stats=True)
        (2): ReLU6(inplace=True)
        (3): Conv2d(74, 74, kernel_size=(3, 3), stride=(1, 1), padding=(1, 1), groups=74)
        (4): BatchNorm2d(74, eps=1e-05, momentum=0.1, affine=True, track_running_stats=True)
        (5): ReLU6(inplace=True)
        (6): Conv2d(74, 160, kernel_size=(1, 1), stride=(1, 1))
        (7): BatchNorm2d(160, eps=1e-05, momentum=0.1, affine=True, track_running_stats=True)
      )
    )
    (2): LinearBottleNeck(
      (residual): Sequential(
        (0): Conv2d(160, 613, kernel_size=(1, 1), stride=(1, 1))
        (1): BatchNorm2d(613, eps=1e-05, momentum=0.1, affine=True, track_running_stats=True)
        (2): ReLU6(inplace=True)
        (3): Conv2d(613, 613, kernel_size=(3, 3), stride=(1, 1), padding=(1, 1), groups=613)
        (4): BatchNorm2d(613, eps=1e-05, momentum=0.1, affine=True, track_running_stats=True)
        (5): ReLU6(inplace=True)
        (6): Conv2d(613, 160, kernel_size=(1, 1), stride=(1, 1))
        (7): BatchNorm2d(160, eps=1e-05, momentum=0.1, affine=True, track_running_stats=True)
      )
    )
  )
  (stage7): LinearBottleNeck(
    (residual): Sequential(
      (0): Conv2d(160, 98, kernel_size=(1, 1), stride=(1, 1))
      (1): BatchNorm2d(98, eps=1e-05, momentum=0.1, affine=True, track_running_stats=True)
      (2): ReLU6(inplace=True)
      (3): Conv2d(98, 98, kernel_size=(3, 3), stride=(1, 1), padding=(1, 1), groups=98)
      (4): BatchNorm2d(98, eps=1e-05, momentum=0.1, affine=True, track_running_stats=True)
      (5): ReLU6(inplace=True)
      (6): Conv2d(98, 320, kernel_size=(1, 1), stride=(1, 1))
      (7): BatchNorm2d(320, eps=1e-05, momentum=0.1, affine=True, track_running_stats=True)
    )
  )
  (conv1): Sequential(
    (0): Conv2d(320, 1280, kernel_size=(1, 1), stride=(1, 1))
    (1): BatchNorm2d(1280, eps=1e-05, momentum=0.1, affine=True, track_running_stats=True)
    (2): ReLU6(inplace=True)
  )
  (conv2): Conv2d(1280, 100, kernel_size=(1, 1), stride=(1, 1))
)
[02/24 03:11:56] cifar100-global-slim-2.0-mobilenetv2 INFO: Params: 2.37 M => 1.25 M (52.83%)
[02/24 03:11:56] cifar100-global-slim-2.0-mobilenetv2 INFO: FLOPs: 68.40 M => 34.19 M (49.98%, 2.00X )
[02/24 03:11:56] cifar100-global-slim-2.0-mobilenetv2 INFO: Acc: 0.6849 => 0.6843
[02/24 03:11:56] cifar100-global-slim-2.0-mobilenetv2 INFO: Val Loss: 1.2403 => 1.2403
…
