…
[02/23 03:17:26] modelnet40-global-group_norm-3.0-pointnet INFO: iterative_steps: 400
[02/23 03:17:26] modelnet40-global-group_norm-3.0-pointnet INFO: logger: <Logger modelnet40-global-group_norm-3.0-pointnet (DEBUG)>
[02/23 03:17:26] modelnet40-global-group_norm-3.0-pointnet INFO: device: cuda
[02/23 03:17:26] modelnet40-global-group_norm-3.0-pointnet INFO: num_classes: 40
[02/23 03:17:26] modelnet40-global-group_norm-3.0-pointnet INFO: Loading model from run/modelnet40/pretrain/modelnet40_pointnet.pth
[02/23 03:17:27] modelnet40-global-group_norm-3.0-pointnet INFO: Pruning...
[02/23 03:17:31] modelnet40-global-group_norm-3.0-pointnet INFO: PointNet(
  (conv1): Conv1d(3, 44, kernel_size=(1,), stride=(1,), bias=False)
  (conv2): Conv1d(44, 53, kernel_size=(1,), stride=(1,), bias=False)
  (conv3): Conv1d(53, 40, kernel_size=(1,), stride=(1,), bias=False)
  (conv4): Conv1d(40, 100, kernel_size=(1,), stride=(1,), bias=False)
  (conv5): Conv1d(100, 822, kernel_size=(1,), stride=(1,), bias=False)
  (bn1): BatchNorm1d(44, eps=1e-05, momentum=0.1, affine=True, track_running_stats=True)
  (bn2): BatchNorm1d(53, eps=1e-05, momentum=0.1, affine=True, track_running_stats=True)
  (bn3): BatchNorm1d(40, eps=1e-05, momentum=0.1, affine=True, track_running_stats=True)
  (bn4): BatchNorm1d(100, eps=1e-05, momentum=0.1, affine=True, track_running_stats=True)
  (bn5): BatchNorm1d(822, eps=1e-05, momentum=0.1, affine=True, track_running_stats=True)
  (linear1): Linear(in_features=822, out_features=186, bias=False)
  (bn6): BatchNorm1d(186, eps=1e-05, momentum=0.1, affine=True, track_running_stats=True)
  (dp1): Dropout(p=0.5, inplace=False)
  (linear2): Linear(in_features=186, out_features=40, bias=True)
)
[02/23 03:17:32] modelnet40-global-group_norm-3.0-pointnet INFO: Params: 1.35 M => 0.25 M (18.74%)
[02/23 03:17:32] modelnet40-global-group_norm-3.0-pointnet INFO: FLOPs: 291.33 M => 95.29 M (32.71%, 3.06X )
[02/23 03:17:32] modelnet40-global-group_norm-3.0-pointnet INFO: Acc: 0.8861 => 0.2338
[02/23 03:17:32] modelnet40-global-group_norm-3.0-pointnet INFO: Val Loss: 0.3951 => 4.6835
…
