…
[02/26 05:38:30] cifar10-global-obdc-3.0-mobilenetv2 INFO: iterative_steps: 400
[02/26 05:38:30] cifar10-global-obdc-3.0-mobilenetv2 INFO: logger: <Logger cifar10-global-obdc-3.0-mobilenetv2 (DEBUG)>
[02/26 05:38:30] cifar10-global-obdc-3.0-mobilenetv2 INFO: device: cuda
[02/26 05:38:30] cifar10-global-obdc-3.0-mobilenetv2 INFO: num_classes: 10
[02/26 05:38:30] cifar10-global-obdc-3.0-mobilenetv2 INFO: Loading model from run/cifar10/pretrain/cifar10_mobilenetv2.pth
[02/26 05:38:33] cifar10-global-obdc-3.0-mobilenetv2 INFO: Pruning...
[02/26 05:39:14] cifar10-global-obdc-3.0-mobilenetv2 INFO: MobileNetV2(
  (pre): Sequential(
    (0): Conv2d(3, 7, kernel_size=(1, 1), stride=(1, 1), padding=(1, 1))
    (1): BatchNorm2d(7, eps=1e-05, momentum=0.1, affine=True, track_running_stats=True)
    (2): ReLU6(inplace=True)
  )
  (stage1): LinearBottleNeck(
    (residual): Sequential(
      (0): Conv2d(7, 17, kernel_size=(1, 1), stride=(1, 1))
      (1): BatchNorm2d(17, eps=1e-05, momentum=0.1, affine=True, track_running_stats=True)
      (2): ReLU6(inplace=True)
      (3): Conv2d(17, 17, kernel_size=(3, 3), stride=(1, 1), padding=(1, 1), groups=17)
      (4): BatchNorm2d(17, eps=1e-05, momentum=0.1, affine=True, track_running_stats=True)
      (5): ReLU6(inplace=True)
      (6): Conv2d(17, 16, kernel_size=(1, 1), stride=(1, 1))
      (7): BatchNorm2d(16, eps=1e-05, momentum=0.1, affine=True, track_running_stats=True)
    )
  )
  (stage2): Sequential(
    (0): LinearBottleNeck(
      (residual): Sequential(
        (0): Conv2d(16, 68, kernel_size=(1, 1), stride=(1, 1))
        (1): BatchNorm2d(68, eps=1e-05, momentum=0.1, affine=True, track_running_stats=True)
        (2): ReLU6(inplace=True)
        (3): Conv2d(68, 68, kernel_size=(3, 3), stride=(2, 2), padding=(1, 1), groups=68)
        (4): BatchNorm2d(68, eps=1e-05, momentum=0.1, affine=True, track_running_stats=True)
        (5): ReLU6(inplace=True)
        (6): Conv2d(68, 24, kernel_size=(1, 1), stride=(1, 1))
        (7): BatchNorm2d(24, eps=1e-05, momentum=0.1, affine=True, track_running_stats=True)
      )
    )
    (1): LinearBottleNeck(
      (residual): Sequential(
        (0): Conv2d(24, 73, kernel_size=(1, 1), stride=(1, 1))
        (1): BatchNorm2d(73, eps=1e-05, momentum=0.1, affine=True, track_running_stats=True)
        (2): ReLU6(inplace=True)
        (3): Conv2d(73, 73, kernel_size=(3, 3), stride=(1, 1), padding=(1, 1), groups=73)
        (4): BatchNorm2d(73, eps=1e-05, momentum=0.1, affine=True, track_running_stats=True)
        (5): ReLU6(inplace=True)
        (6): Conv2d(73, 24, kernel_size=(1, 1), stride=(1, 1))
        (7): BatchNorm2d(24, eps=1e-05, momentum=0.1, affine=True, track_running_stats=True)
      )
    )
  )
  (stage3): Sequential(
    (0): LinearBottleNeck(
      (residual): Sequential(
        (0): Conv2d(24, 50, kernel_size=(1, 1), stride=(1, 1))
        (1): BatchNorm2d(50, eps=1e-05, momentum=0.1, affine=True, track_running_stats=True)
        (2): ReLU6(inplace=True)
        (3): Conv2d(50, 50, kernel_size=(3, 3), stride=(2, 2), padding=(1, 1), groups=50)
        (4): BatchNorm2d(50, eps=1e-05, momentum=0.1, affine=True, track_running_stats=True)
        (5): ReLU6(inplace=True)
        (6): Conv2d(50, 32, kernel_size=(1, 1), stride=(1, 1))
        (7): BatchNorm2d(32, eps=1e-05, momentum=0.1, affine=True, track_running_stats=True)
      )
    )
    (1): LinearBottleNeck(
      (residual): Sequential(
        (0): Conv2d(32, 70, kernel_size=(1, 1), stride=(1, 1))
        (1): BatchNorm2d(70, eps=1e-05, momentum=0.1, affine=True, track_running_stats=True)
        (2): ReLU6(inplace=True)
        (3): Conv2d(70, 70, kernel_size=(3, 3), stride=(1, 1), padding=(1, 1), groups=70)
        (4): BatchNorm2d(70, eps=1e-05, momentum=0.1, affine=True, track_running_stats=True)
        (5): ReLU6(inplace=True)
        (6): Conv2d(70, 32, kernel_size=(1, 1), stride=(1, 1))
        (7): BatchNorm2d(32, eps=1e-05, momentum=0.1, affine=True, track_running_stats=True)
      )
    )
    (2): LinearBottleNeck(
      (residual): Sequential(
        (0): Conv2d(32, 33, kernel_size=(1, 1), stride=(1, 1))
        (1): BatchNorm2d(33, eps=1e-05, momentum=0.1, affine=True, track_running_stats=True)
        (2): ReLU6(inplace=True)
        (3): Conv2d(33, 33, kernel_size=(3, 3), stride=(1, 1), padding=(1, 1), groups=33)
        (4): BatchNorm2d(33, eps=1e-05, momentum=0.1, affine=True, track_running_stats=True)
        (5): ReLU6(inplace=True)
        (6): Conv2d(33, 32, kernel_size=(1, 1), stride=(1, 1))
        (7): BatchNorm2d(32, eps=1e-05, momentum=0.1, affine=True, track_running_stats=True)
      )
    )
  )
  (stage4): Sequential(
    (0): LinearBottleNeck(
      (residual): Sequential(
        (0): Conv2d(32, 40, kernel_size=(1, 1), stride=(1, 1))
        (1): BatchNorm2d(40, eps=1e-05, momentum=0.1, affine=True, track_running_stats=True)
        (2): ReLU6(inplace=True)
        (3): Conv2d(40, 40, kernel_size=(3, 3), stride=(2, 2), padding=(1, 1), groups=40)
        (4): BatchNorm2d(40, eps=1e-05, momentum=0.1, affine=True, track_running_stats=True)
        (5): ReLU6(inplace=True)
        (6): Conv2d(40, 64, kernel_size=(1, 1), stride=(1, 1))
        (7): BatchNorm2d(64, eps=1e-05, momentum=0.1, affine=True, track_running_stats=True)
      )
    )
    (1): LinearBottleNeck(
      (residual): Sequential(
        (0): Conv2d(64, 51, kernel_size=(1, 1), stride=(1, 1))
        (1): BatchNorm2d(51, eps=1e-05, momentum=0.1, affine=True, track_running_stats=True)
        (2): ReLU6(inplace=True)
        (3): Conv2d(51, 51, kernel_size=(3, 3), stride=(1, 1), padding=(1, 1), groups=51)
        (4): BatchNorm2d(51, eps=1e-05, momentum=0.1, affine=True, track_running_stats=True)
        (5): ReLU6(inplace=True)
        (6): Conv2d(51, 64, kernel_size=(1, 1), stride=(1, 1))
        (7): BatchNorm2d(64, eps=1e-05, momentum=0.1, affine=True, track_running_stats=True)
      )
    )
    (2): LinearBottleNeck(
      (residual): Sequential(
        (0): Conv2d(64, 33, kernel_size=(1, 1), stride=(1, 1))
        (1): BatchNorm2d(33, eps=1e-05, momentum=0.1, affine=True, track_running_stats=True)
        (2): ReLU6(inplace=True)
        (3): Conv2d(33, 33, kernel_size=(3, 3), stride=(1, 1), padding=(1, 1), groups=33)
        (4): BatchNorm2d(33, eps=1e-05, momentum=0.1, affine=True, track_running_stats=True)
        (5): ReLU6(inplace=True)
        (6): Conv2d(33, 64, kernel_size=(1, 1), stride=(1, 1))
        (7): BatchNorm2d(64, eps=1e-05, momentum=0.1, affine=True, track_running_stats=True)
      )
    )
    (3): LinearBottleNeck(
      (residual): Sequential(
        (0): Conv2d(64, 14, kernel_size=(1, 1), stride=(1, 1))
        (1): BatchNorm2d(14, eps=1e-05, momentum=0.1, affine=True, track_running_stats=True)
        (2): ReLU6(inplace=True)
        (3): Conv2d(14, 14, kernel_size=(3, 3), stride=(1, 1), padding=(1, 1), groups=14)
        (4): BatchNorm2d(14, eps=1e-05, momentum=0.1, affine=True, track_running_stats=True)
        (5): ReLU6(inplace=True)
        (6): Conv2d(14, 64, kernel_size=(1, 1), stride=(1, 1))
        (7): BatchNorm2d(64, eps=1e-05, momentum=0.1, affine=True, track_running_stats=True)
      )
    )
  )
  (stage5): Sequential(
    (0): LinearBottleNeck(
      (residual): Sequential(
        (0): Conv2d(64, 73, kernel_size=(1, 1), stride=(1, 1))
        (1): BatchNorm2d(73, eps=1e-05, momentum=0.1, affine=True, track_running_stats=True)
        (2): ReLU6(inplace=True)
        (3): Conv2d(73, 73, kernel_size=(3, 3), stride=(1, 1), padding=(1, 1), groups=73)
        (4): BatchNorm2d(73, eps=1e-05, momentum=0.1, affine=True, track_running_stats=True)
        (5): ReLU6(inplace=True)
        (6): Conv2d(73, 96, kernel_size=(1, 1), stride=(1, 1))
        (7): BatchNorm2d(96, eps=1e-05, momentum=0.1, affine=True, track_running_stats=True)
      )
    )
    (1): LinearBottleNeck(
      (residual): Sequential(
        (0): Conv2d(96, 17, kernel_size=(1, 1), stride=(1, 1))
        (1): BatchNorm2d(17, eps=1e-05, momentum=0.1, affine=True, track_running_stats=True)
        (2): ReLU6(inplace=True)
        (3): Conv2d(17, 17, kernel_size=(3, 3), stride=(1, 1), padding=(1, 1), groups=17)
        (4): BatchNorm2d(17, eps=1e-05, momentum=0.1, affine=True, track_running_stats=True)
        (5): ReLU6(inplace=True)
        (6): Conv2d(17, 96, kernel_size=(1, 1), stride=(1, 1))
        (7): BatchNorm2d(96, eps=1e-05, momentum=0.1, affine=True, track_running_stats=True)
      )
    )
    (2): LinearBottleNeck(
      (residual): Sequential(
        (0): Conv2d(96, 3, kernel_size=(1, 1), stride=(1, 1))
        (1): BatchNorm2d(3, eps=1e-05, momentum=0.1, affine=True, track_running_stats=True)
        (2): ReLU6(inplace=True)
        (3): Conv2d(3, 3, kernel_size=(3, 3), stride=(1, 1), padding=(1, 1), groups=3)
        (4): BatchNorm2d(3, eps=1e-05, momentum=0.1, affine=True, track_running_stats=True)
        (5): ReLU6(inplace=True)
        (6): Conv2d(3, 96, kernel_size=(1, 1), stride=(1, 1))
        (7): BatchNorm2d(96, eps=1e-05, momentum=0.1, affine=True, track_running_stats=True)
      )
    )
  )
  (stage6): Sequential(
    (0): LinearBottleNeck(
      (residual): Sequential(
        (0): Conv2d(96, 142, kernel_size=(1, 1), stride=(1, 1))
        (1): BatchNorm2d(142, eps=1e-05, momentum=0.1, affine=True, track_running_stats=True)
        (2): ReLU6(inplace=True)
        (3): Conv2d(142, 142, kernel_size=(3, 3), stride=(1, 1), padding=(1, 1), groups=142)
        (4): BatchNorm2d(142, eps=1e-05, momentum=0.1, affine=True, track_running_stats=True)
        (5): ReLU6(inplace=True)
        (6): Conv2d(142, 160, kernel_size=(1, 1), stride=(1, 1))
        (7): BatchNorm2d(160, eps=1e-05, momentum=0.1, affine=True, track_running_stats=True)
      )
    )
    (1): LinearBottleNeck(
      (residual): Sequential(
        (0): Conv2d(160, 7, kernel_size=(1, 1), stride=(1, 1))
        (1): BatchNorm2d(7, eps=1e-05, momentum=0.1, affine=True, track_running_stats=True)
        (2): ReLU6(inplace=True)
        (3): Conv2d(7, 7, kernel_size=(3, 3), stride=(1, 1), padding=(1, 1), groups=7)
        (4): BatchNorm2d(7, eps=1e-05, momentum=0.1, affine=True, track_running_stats=True)
        (5): ReLU6(inplace=True)
        (6): Conv2d(7, 160, kernel_size=(1, 1), stride=(1, 1))
        (7): BatchNorm2d(160, eps=1e-05, momentum=0.1, affine=True, track_running_stats=True)
      )
    )
    (2): LinearBottleNeck(
      (residual): Sequential(
        (0): Conv2d(160, 4, kernel_size=(1, 1), stride=(1, 1))
        (1): BatchNorm2d(4, eps=1e-05, momentum=0.1, affine=True, track_running_stats=True)
        (2): ReLU6(inplace=True)
        (3): Conv2d(4, 4, kernel_size=(3, 3), stride=(1, 1), padding=(1, 1), groups=4)
        (4): BatchNorm2d(4, eps=1e-05, momentum=0.1, affine=True, track_running_stats=True)
        (5): ReLU6(inplace=True)
        (6): Conv2d(4, 160, kernel_size=(1, 1), stride=(1, 1))
        (7): BatchNorm2d(160, eps=1e-05, momentum=0.1, affine=True, track_running_stats=True)
      )
    )
  )
  (stage7): LinearBottleNeck(
    (residual): Sequential(
      (0): Conv2d(160, 404, kernel_size=(1, 1), stride=(1, 1))
      (1): BatchNorm2d(404, eps=1e-05, momentum=0.1, affine=True, track_running_stats=True)
      (2): ReLU6(inplace=True)
      (3): Conv2d(404, 404, kernel_size=(3, 3), stride=(1, 1), padding=(1, 1), groups=404)
      (4): BatchNorm2d(404, eps=1e-05, momentum=0.1, affine=True, track_running_stats=True)
      (5): ReLU6(inplace=True)
      (6): Conv2d(404, 320, kernel_size=(1, 1), stride=(1, 1))
      (7): BatchNorm2d(320, eps=1e-05, momentum=0.1, affine=True, track_running_stats=True)
    )
  )
  (conv1): Sequential(
    (0): Conv2d(320, 1181, kernel_size=(1, 1), stride=(1, 1))
    (1): BatchNorm2d(1181, eps=1e-05, momentum=0.1, affine=True, track_running_stats=True)
    (2): ReLU6(inplace=True)
  )
  (conv2): Conv2d(1181, 10, kernel_size=(1, 1), stride=(1, 1))
)
[02/26 05:39:17] cifar10-global-obdc-3.0-mobilenetv2 INFO: Params: 2.25 M => 0.70 M (30.88%)
[02/26 05:39:17] cifar10-global-obdc-3.0-mobilenetv2 INFO: FLOPs: 68.29 M => 22.63 M (33.14%, 3.02X )
[02/26 05:39:17] cifar10-global-obdc-3.0-mobilenetv2 INFO: Acc: 0.8936 => 0.8321
[02/26 05:39:17] cifar10-global-obdc-3.0-mobilenetv2 INFO: Val Loss: 0.3202 => 0.3144
…
