…
[02/23 02:01:43] modelnet40-global-fpgm-3.0-pointnet INFO: iterative_steps: 400
[02/23 02:01:43] modelnet40-global-fpgm-3.0-pointnet INFO: logger: <Logger modelnet40-global-fpgm-3.0-pointnet (DEBUG)>
[02/23 02:01:43] modelnet40-global-fpgm-3.0-pointnet INFO: device: cuda
[02/23 02:01:43] modelnet40-global-fpgm-3.0-pointnet INFO: num_classes: 40
[02/23 02:01:43] modelnet40-global-fpgm-3.0-pointnet INFO: Loading model from run/modelnet40/pretrain/modelnet40_pointnet.pth
[02/23 02:01:43] modelnet40-global-fpgm-3.0-pointnet INFO: Pruning...
[02/23 02:01:48] modelnet40-global-fpgm-3.0-pointnet INFO: PointNet(
  (conv1): Conv1d(3, 64, kernel_size=(1,), stride=(1,), bias=False)
  (conv2): Conv1d(64, 64, kernel_size=(1,), stride=(1,), bias=False)
  (conv3): Conv1d(64, 54, kernel_size=(1,), stride=(1,), bias=False)
  (conv4): Conv1d(54, 94, kernel_size=(1,), stride=(1,), bias=False)
  (conv5): Conv1d(94, 833, kernel_size=(1,), stride=(1,), bias=False)
  (bn1): BatchNorm1d(64, eps=1e-05, momentum=0.1, affine=True, track_running_stats=True)
  (bn2): BatchNorm1d(64, eps=1e-05, momentum=0.1, affine=True, track_running_stats=True)
  (bn3): BatchNorm1d(54, eps=1e-05, momentum=0.1, affine=True, track_running_stats=True)
  (bn4): BatchNorm1d(94, eps=1e-05, momentum=0.1, affine=True, track_running_stats=True)
  (bn5): BatchNorm1d(833, eps=1e-05, momentum=0.1, affine=True, track_running_stats=True)
  (linear1): Linear(in_features=833, out_features=230, bias=False)
  (bn6): BatchNorm1d(230, eps=1e-05, momentum=0.1, affine=True, track_running_stats=True)
  (dp1): Dropout(p=0.5, inplace=False)
  (linear2): Linear(in_features=230, out_features=40, bias=True)
)
[02/23 02:01:49] modelnet40-global-fpgm-3.0-pointnet INFO: Params: 1.35 M => 0.29 M (21.77%)
[02/23 02:01:49] modelnet40-global-fpgm-3.0-pointnet INFO: FLOPs: 291.33 M => 95.78 M (32.88%, 3.04X )
[02/23 02:01:49] modelnet40-global-fpgm-3.0-pointnet INFO: Acc: 0.8861 => 0.2322
[02/23 02:01:49] modelnet40-global-fpgm-3.0-pointnet INFO: Val Loss: 0.3951 => 5.9093
…
