…
[02/23 22:34:31] cifar100-global-random-2.0-mobilenetv2 INFO: iterative_steps: 400
[02/23 22:34:31] cifar100-global-random-2.0-mobilenetv2 INFO: logger: <Logger cifar100-global-random-2.0-mobilenetv2 (DEBUG)>
[02/23 22:34:31] cifar100-global-random-2.0-mobilenetv2 INFO: device: cuda
[02/23 22:34:31] cifar100-global-random-2.0-mobilenetv2 INFO: num_classes: 100
[02/23 22:34:31] cifar100-global-random-2.0-mobilenetv2 INFO: Loading model from run/cifar100/pretrain/cifar100_mobilenetv2.pth
[02/23 22:34:35] cifar100-global-random-2.0-mobilenetv2 INFO: Pruning...
[02/23 22:34:43] cifar100-global-random-2.0-mobilenetv2 INFO: MobileNetV2(
  (pre): Sequential(
    (0): Conv2d(3, 1, kernel_size=(1, 1), stride=(1, 1), padding=(1, 1))
    (1): BatchNorm2d(1, eps=1e-05, momentum=0.1, affine=True, track_running_stats=True)
    (2): ReLU6(inplace=True)
  )
  (stage1): LinearBottleNeck(
    (residual): Sequential(
      (0): Conv2d(1, 1, kernel_size=(1, 1), stride=(1, 1))
      (1): BatchNorm2d(1, eps=1e-05, momentum=0.1, affine=True, track_running_stats=True)
      (2): ReLU6(inplace=True)
      (3): Conv2d(1, 1, kernel_size=(3, 3), stride=(1, 1), padding=(1, 1))
      (4): BatchNorm2d(1, eps=1e-05, momentum=0.1, affine=True, track_running_stats=True)
      (5): ReLU6(inplace=True)
      (6): Conv2d(1, 1, kernel_size=(1, 1), stride=(1, 1))
      (7): BatchNorm2d(1, eps=1e-05, momentum=0.1, affine=True, track_running_stats=True)
    )
  )
  (stage2): Sequential(
    (0): LinearBottleNeck(
      (residual): Sequential(
        (0): Conv2d(1, 38, kernel_size=(1, 1), stride=(1, 1))
        (1): BatchNorm2d(38, eps=1e-05, momentum=0.1, affine=True, track_running_stats=True)
        (2): ReLU6(inplace=True)
        (3): Conv2d(38, 38, kernel_size=(3, 3), stride=(2, 2), padding=(1, 1), groups=38)
        (4): BatchNorm2d(38, eps=1e-05, momentum=0.1, affine=True, track_running_stats=True)
        (5): ReLU6(inplace=True)
        (6): Conv2d(38, 1, kernel_size=(1, 1), stride=(1, 1))
        (7): BatchNorm2d(1, eps=1e-05, momentum=0.1, affine=True, track_running_stats=True)
      )
    )
    (1): LinearBottleNeck(
      (residual): Sequential(
        (0): Conv2d(1, 86, kernel_size=(1, 1), stride=(1, 1))
        (1): BatchNorm2d(86, eps=1e-05, momentum=0.1, affine=True, track_running_stats=True)
        (2): ReLU6(inplace=True)
        (3): Conv2d(86, 86, kernel_size=(3, 3), stride=(1, 1), padding=(1, 1), groups=86)
        (4): BatchNorm2d(86, eps=1e-05, momentum=0.1, affine=True, track_running_stats=True)
        (5): ReLU6(inplace=True)
        (6): Conv2d(86, 1, kernel_size=(1, 1), stride=(1, 1))
        (7): BatchNorm2d(1, eps=1e-05, momentum=0.1, affine=True, track_running_stats=True)
      )
    )
  )
  (stage3): Sequential(
    (0): LinearBottleNeck(
      (residual): Sequential(
        (0): Conv2d(1, 86, kernel_size=(1, 1), stride=(1, 1))
        (1): BatchNorm2d(86, eps=1e-05, momentum=0.1, affine=True, track_running_stats=True)
        (2): ReLU6(inplace=True)
        (3): Conv2d(86, 86, kernel_size=(3, 3), stride=(2, 2), padding=(1, 1), groups=86)
        (4): BatchNorm2d(86, eps=1e-05, momentum=0.1, affine=True, track_running_stats=True)
        (5): ReLU6(inplace=True)
        (6): Conv2d(86, 1, kernel_size=(1, 1), stride=(1, 1))
        (7): BatchNorm2d(1, eps=1e-05, momentum=0.1, affine=True, track_running_stats=True)
      )
    )
    (1): LinearBottleNeck(
      (residual): Sequential(
        (0): Conv2d(1, 134, kernel_size=(1, 1), stride=(1, 1))
        (1): BatchNorm2d(134, eps=1e-05, momentum=0.1, affine=True, track_running_stats=True)
        (2): ReLU6(inplace=True)
        (3): Conv2d(134, 134, kernel_size=(3, 3), stride=(1, 1), padding=(1, 1), groups=134)
        (4): BatchNorm2d(134, eps=1e-05, momentum=0.1, affine=True, track_running_stats=True)
        (5): ReLU6(inplace=True)
        (6): Conv2d(134, 1, kernel_size=(1, 1), stride=(1, 1))
        (7): BatchNorm2d(1, eps=1e-05, momentum=0.1, affine=True, track_running_stats=True)
      )
    )
    (2): LinearBottleNeck(
      (residual): Sequential(
        (0): Conv2d(1, 134, kernel_size=(1, 1), stride=(1, 1))
        (1): BatchNorm2d(134, eps=1e-05, momentum=0.1, affine=True, track_running_stats=True)
        (2): ReLU6(inplace=True)
        (3): Conv2d(134, 134, kernel_size=(3, 3), stride=(1, 1), padding=(1, 1), groups=134)
        (4): BatchNorm2d(134, eps=1e-05, momentum=0.1, affine=True, track_running_stats=True)
        (5): ReLU6(inplace=True)
        (6): Conv2d(134, 1, kernel_size=(1, 1), stride=(1, 1))
        (7): BatchNorm2d(1, eps=1e-05, momentum=0.1, affine=True, track_running_stats=True)
      )
    )
  )
  (stage4): Sequential(
    (0): LinearBottleNeck(
      (residual): Sequential(
        (0): Conv2d(1, 134, kernel_size=(1, 1), stride=(1, 1))
        (1): BatchNorm2d(134, eps=1e-05, momentum=0.1, affine=True, track_running_stats=True)
        (2): ReLU6(inplace=True)
        (3): Conv2d(134, 134, kernel_size=(3, 3), stride=(2, 2), padding=(1, 1), groups=134)
        (4): BatchNorm2d(134, eps=1e-05, momentum=0.1, affine=True, track_running_stats=True)
        (5): ReLU6(inplace=True)
        (6): Conv2d(134, 6, kernel_size=(1, 1), stride=(1, 1))
        (7): BatchNorm2d(6, eps=1e-05, momentum=0.1, affine=True, track_running_stats=True)
      )
    )
    (1): LinearBottleNeck(
      (residual): Sequential(
        (0): Conv2d(6, 326, kernel_size=(1, 1), stride=(1, 1))
        (1): BatchNorm2d(326, eps=1e-05, momentum=0.1, affine=True, track_running_stats=True)
        (2): ReLU6(inplace=True)
        (3): Conv2d(326, 326, kernel_size=(3, 3), stride=(1, 1), padding=(1, 1), groups=326)
        (4): BatchNorm2d(326, eps=1e-05, momentum=0.1, affine=True, track_running_stats=True)
        (5): ReLU6(inplace=True)
        (6): Conv2d(326, 6, kernel_size=(1, 1), stride=(1, 1))
        (7): BatchNorm2d(6, eps=1e-05, momentum=0.1, affine=True, track_running_stats=True)
      )
    )
    (2): LinearBottleNeck(
      (residual): Sequential(
        (0): Conv2d(6, 326, kernel_size=(1, 1), stride=(1, 1))
        (1): BatchNorm2d(326, eps=1e-05, momentum=0.1, affine=True, track_running_stats=True)
        (2): ReLU6(inplace=True)
        (3): Conv2d(326, 326, kernel_size=(3, 3), stride=(1, 1), padding=(1, 1), groups=326)
        (4): BatchNorm2d(326, eps=1e-05, momentum=0.1, affine=True, track_running_stats=True)
        (5): ReLU6(inplace=True)
        (6): Conv2d(326, 6, kernel_size=(1, 1), stride=(1, 1))
        (7): BatchNorm2d(6, eps=1e-05, momentum=0.1, affine=True, track_running_stats=True)
      )
    )
    (3): LinearBottleNeck(
      (residual): Sequential(
        (0): Conv2d(6, 326, kernel_size=(1, 1), stride=(1, 1))
        (1): BatchNorm2d(326, eps=1e-05, momentum=0.1, affine=True, track_running_stats=True)
        (2): ReLU6(inplace=True)
        (3): Conv2d(326, 326, kernel_size=(3, 3), stride=(1, 1), padding=(1, 1), groups=326)
        (4): BatchNorm2d(326, eps=1e-05, momentum=0.1, affine=True, track_running_stats=True)
        (5): ReLU6(inplace=True)
        (6): Conv2d(326, 6, kernel_size=(1, 1), stride=(1, 1))
        (7): BatchNorm2d(6, eps=1e-05, momentum=0.1, affine=True, track_running_stats=True)
      )
    )
  )
  (stage5): Sequential(
    (0): LinearBottleNeck(
      (residual): Sequential(
        (0): Conv2d(6, 326, kernel_size=(1, 1), stride=(1, 1))
        (1): BatchNorm2d(326, eps=1e-05, momentum=0.1, affine=True, track_running_stats=True)
        (2): ReLU6(inplace=True)
        (3): Conv2d(326, 326, kernel_size=(3, 3), stride=(1, 1), padding=(1, 1), groups=326)
        (4): BatchNorm2d(326, eps=1e-05, momentum=0.1, affine=True, track_running_stats=True)
        (5): ReLU6(inplace=True)
        (6): Conv2d(326, 38, kernel_size=(1, 1), stride=(1, 1))
        (7): BatchNorm2d(38, eps=1e-05, momentum=0.1, affine=True, track_running_stats=True)
      )
    )
    (1): LinearBottleNeck(
      (residual): Sequential(
        (0): Conv2d(38, 518, kernel_size=(1, 1), stride=(1, 1))
        (1): BatchNorm2d(518, eps=1e-05, momentum=0.1, affine=True, track_running_stats=True)
        (2): ReLU6(inplace=True)
        (3): Conv2d(518, 518, kernel_size=(3, 3), stride=(1, 1), padding=(1, 1), groups=518)
        (4): BatchNorm2d(518, eps=1e-05, momentum=0.1, affine=True, track_running_stats=True)
        (5): ReLU6(inplace=True)
        (6): Conv2d(518, 38, kernel_size=(1, 1), stride=(1, 1))
        (7): BatchNorm2d(38, eps=1e-05, momentum=0.1, affine=True, track_running_stats=True)
      )
    )
    (2): LinearBottleNeck(
      (residual): Sequential(
        (0): Conv2d(38, 518, kernel_size=(1, 1), stride=(1, 1))
        (1): BatchNorm2d(518, eps=1e-05, momentum=0.1, affine=True, track_running_stats=True)
        (2): ReLU6(inplace=True)
        (3): Conv2d(518, 518, kernel_size=(3, 3), stride=(1, 1), padding=(1, 1), groups=518)
        (4): BatchNorm2d(518, eps=1e-05, momentum=0.1, affine=True, track_running_stats=True)
        (5): ReLU6(inplace=True)
        (6): Conv2d(518, 38, kernel_size=(1, 1), stride=(1, 1))
        (7): BatchNorm2d(38, eps=1e-05, momentum=0.1, affine=True, track_running_stats=True)
      )
    )
  )
  (stage6): Sequential(
    (0): LinearBottleNeck(
      (residual): Sequential(
        (0): Conv2d(38, 518, kernel_size=(1, 1), stride=(1, 1))
        (1): BatchNorm2d(518, eps=1e-05, momentum=0.1, affine=True, track_running_stats=True)
        (2): ReLU6(inplace=True)
        (3): Conv2d(518, 518, kernel_size=(3, 3), stride=(1, 1), padding=(1, 1), groups=518)
        (4): BatchNorm2d(518, eps=1e-05, momentum=0.1, affine=True, track_running_stats=True)
        (5): ReLU6(inplace=True)
        (6): Conv2d(518, 102, kernel_size=(1, 1), stride=(1, 1))
        (7): BatchNorm2d(102, eps=1e-05, momentum=0.1, affine=True, track_running_stats=True)
      )
    )
    (1): LinearBottleNeck(
      (residual): Sequential(
        (0): Conv2d(102, 902, kernel_size=(1, 1), stride=(1, 1))
        (1): BatchNorm2d(902, eps=1e-05, momentum=0.1, affine=True, track_running_stats=True)
        (2): ReLU6(inplace=True)
        (3): Conv2d(902, 902, kernel_size=(3, 3), stride=(1, 1), padding=(1, 1), groups=902)
        (4): BatchNorm2d(902, eps=1e-05, momentum=0.1, affine=True, track_running_stats=True)
        (5): ReLU6(inplace=True)
        (6): Conv2d(902, 102, kernel_size=(1, 1), stride=(1, 1))
        (7): BatchNorm2d(102, eps=1e-05, momentum=0.1, affine=True, track_running_stats=True)
      )
    )
    (2): LinearBottleNeck(
      (residual): Sequential(
        (0): Conv2d(102, 902, kernel_size=(1, 1), stride=(1, 1))
        (1): BatchNorm2d(902, eps=1e-05, momentum=0.1, affine=True, track_running_stats=True)
        (2): ReLU6(inplace=True)
        (3): Conv2d(902, 902, kernel_size=(3, 3), stride=(1, 1), padding=(1, 1), groups=902)
        (4): BatchNorm2d(902, eps=1e-05, momentum=0.1, affine=True, track_running_stats=True)
        (5): ReLU6(inplace=True)
        (6): Conv2d(902, 102, kernel_size=(1, 1), stride=(1, 1))
        (7): BatchNorm2d(102, eps=1e-05, momentum=0.1, affine=True, track_running_stats=True)
      )
    )
  )
  (stage7): LinearBottleNeck(
    (residual): Sequential(
      (0): Conv2d(102, 902, kernel_size=(1, 1), stride=(1, 1))
      (1): BatchNorm2d(902, eps=1e-05, momentum=0.1, affine=True, track_running_stats=True)
      (2): ReLU6(inplace=True)
      (3): Conv2d(902, 902, kernel_size=(3, 3), stride=(1, 1), padding=(1, 1), groups=902)
      (4): BatchNorm2d(902, eps=1e-05, momentum=0.1, affine=True, track_running_stats=True)
      (5): ReLU6(inplace=True)
      (6): Conv2d(902, 262, kernel_size=(1, 1), stride=(1, 1))
      (7): BatchNorm2d(262, eps=1e-05, momentum=0.1, affine=True, track_running_stats=True)
    )
  )
  (conv1): Sequential(
    (0): Conv2d(262, 1222, kernel_size=(1, 1), stride=(1, 1))
    (1): BatchNorm2d(1222, eps=1e-05, momentum=0.1, affine=True, track_running_stats=True)
    (2): ReLU6(inplace=True)
  )
  (conv2): Conv2d(1222, 100, kernel_size=(1, 1), stride=(1, 1))
)
[02/23 22:34:46] cifar100-global-random-2.0-mobilenetv2 INFO: Params: 2.37 M => 1.42 M (59.78%)
[02/23 22:34:46] cifar100-global-random-2.0-mobilenetv2 INFO: FLOPs: 68.40 M => 34.14 M (49.91%, 2.00X )
[02/23 22:34:46] cifar100-global-random-2.0-mobilenetv2 INFO: Acc: 0.6699 => 0.0100
[02/23 22:34:46] cifar100-global-random-2.0-mobilenetv2 INFO: Val Loss: 1.1637 => 4.8679
…
