…
[02/22 15:00:36] modelnet40-global-group_sl-2.0-pointnet INFO: Epoch 98/100, Acc=0.8926, Val Loss=0.3682, lr=0.0001
[02/22 15:00:58] modelnet40-global-group_sl-2.0-pointnet INFO: Epoch 99/100, Acc=0.8910, Val Loss=0.3672, lr=0.0001
[02/22 15:00:58] modelnet40-global-group_sl-2.0-pointnet INFO: Best Acc=0.8938
[02/22 15:00:58] modelnet40-global-group_sl-2.0-pointnet INFO: Loading the sparse model from run/modelnet40/prune/modelnet40-global-group_sl-2.0-pointnet/reg_modelnet40_pointnet_group_sl_1e-05.pth...
[02/22 15:00:59] modelnet40-global-group_sl-2.0-pointnet INFO: Pruning...
[02/22 15:01:03] modelnet40-global-group_sl-2.0-pointnet INFO: PointNet(
  (conv1): Conv1d(3, 50, kernel_size=(1,), stride=(1,), bias=False)
  (conv2): Conv1d(50, 59, kernel_size=(1,), stride=(1,), bias=False)
  (conv3): Conv1d(59, 47, kernel_size=(1,), stride=(1,), bias=False)
  (conv4): Conv1d(47, 117, kernel_size=(1,), stride=(1,), bias=False)
  (conv5): Conv1d(117, 1087, kernel_size=(1,), stride=(1,), bias=False)
  (bn1): BatchNorm1d(50, eps=1e-05, momentum=0.1, affine=True, track_running_stats=True)
  (bn2): BatchNorm1d(59, eps=1e-05, momentum=0.1, affine=True, track_running_stats=True)
  (bn3): BatchNorm1d(47, eps=1e-05, momentum=0.1, affine=True, track_running_stats=True)
  (bn4): BatchNorm1d(117, eps=1e-05, momentum=0.1, affine=True, track_running_stats=True)
  (bn5): BatchNorm1d(1087, eps=1e-05, momentum=0.1, affine=True, track_running_stats=True)
  (linear1): Linear(in_features=1087, out_features=188, bias=False)
  (bn6): BatchNorm1d(188, eps=1e-05, momentum=0.1, affine=True, track_running_stats=True)
  (dp1): Dropout(p=0.5, inplace=False)
  (linear2): Linear(in_features=188, out_features=40, bias=True)
)
[02/22 15:01:03] modelnet40-global-group_sl-2.0-pointnet INFO: Params: 1.35 M => 0.35 M (26.12%)
[02/22 15:01:03] modelnet40-global-group_sl-2.0-pointnet INFO: FLOPs: 291.33 M => 144.87 M (49.73%, 2.01X )
[02/22 15:01:03] modelnet40-global-group_sl-2.0-pointnet INFO: Acc: 0.8938 => 0.5397
[02/22 15:01:03] modelnet40-global-group_sl-2.0-pointnet INFO: Val Loss: 0.3674 => 1.9965
…
