…
[02/22 12:58:46] modelnet40-global-lamp-2.0-pointnet INFO: iterative_steps: 400
[02/22 12:58:46] modelnet40-global-lamp-2.0-pointnet INFO: logger: <Logger modelnet40-global-lamp-2.0-pointnet (DEBUG)>
[02/22 12:58:46] modelnet40-global-lamp-2.0-pointnet INFO: device: cuda
[02/22 12:58:46] modelnet40-global-lamp-2.0-pointnet INFO: num_classes: 40
[02/22 12:58:46] modelnet40-global-lamp-2.0-pointnet INFO: Loading model from run/modelnet40/pretrain/modelnet40_pointnet.pth
[02/22 12:58:48] modelnet40-global-lamp-2.0-pointnet INFO: Pruning...
[02/22 12:58:52] modelnet40-global-lamp-2.0-pointnet INFO: PointNet(
  (conv1): Conv1d(3, 59, kernel_size=(1,), stride=(1,), bias=False)
  (conv2): Conv1d(59, 64, kernel_size=(1,), stride=(1,), bias=False)
  (conv3): Conv1d(64, 60, kernel_size=(1,), stride=(1,), bias=False)
  (conv4): Conv1d(60, 127, kernel_size=(1,), stride=(1,), bias=False)
  (conv5): Conv1d(127, 974, kernel_size=(1,), stride=(1,), bias=False)
  (bn1): BatchNorm1d(59, eps=1e-05, momentum=0.1, affine=True, track_running_stats=True)
  (bn2): BatchNorm1d(64, eps=1e-05, momentum=0.1, affine=True, track_running_stats=True)
  (bn3): BatchNorm1d(60, eps=1e-05, momentum=0.1, affine=True, track_running_stats=True)
  (bn4): BatchNorm1d(127, eps=1e-05, momentum=0.1, affine=True, track_running_stats=True)
  (bn5): BatchNorm1d(974, eps=1e-05, momentum=0.1, affine=True, track_running_stats=True)
  (linear1): Linear(in_features=974, out_features=191, bias=False)
  (bn6): BatchNorm1d(191, eps=1e-05, momentum=0.1, affine=True, track_running_stats=True)
  (dp1): Dropout(p=0.5, inplace=False)
  (linear2): Linear(in_features=191, out_features=40, bias=True)
)
[02/22 12:58:52] modelnet40-global-lamp-2.0-pointnet INFO: Params: 1.35 M => 0.34 M (24.81%)
[02/22 12:58:52] modelnet40-global-lamp-2.0-pointnet INFO: FLOPs: 291.33 M => 145.27 M (49.87%, 2.01X )
[02/22 12:58:52] modelnet40-global-lamp-2.0-pointnet INFO: Acc: 0.8861 => 0.3302
[02/22 12:58:52] modelnet40-global-lamp-2.0-pointnet INFO: Val Loss: 0.3951 => 3.4192
…
