…
[02/24 01:23:17] cifar10-global-group_sl-2.0-mobilenetv2 INFO: Epoch 98/100, Acc=0.8987, Val Loss=0.3152, lr=0.0001
[02/24 01:24:20] cifar10-global-group_sl-2.0-mobilenetv2 INFO: Epoch 99/100, Acc=0.8996, Val Loss=0.3145, lr=0.0001
[02/24 01:24:20] cifar10-global-group_sl-2.0-mobilenetv2 INFO: Best Acc=0.9018
[02/24 01:24:20] cifar10-global-group_sl-2.0-mobilenetv2 INFO: Loading the sparse model from run/cifar10/prune/cifar10-global-group_sl-2.0-mobilenetv2/reg_cifar10_mobilenetv2_group_sl_1e-05.pth...
[02/24 01:24:23] cifar10-global-group_sl-2.0-mobilenetv2 INFO: Pruning...
[02/24 01:24:48] cifar10-global-group_sl-2.0-mobilenetv2 INFO: MobileNetV2(
  (pre): Sequential(
    (0): Conv2d(3, 8, kernel_size=(1, 1), stride=(1, 1), padding=(1, 1))
    (1): BatchNorm2d(8, eps=1e-05, momentum=0.1, affine=True, track_running_stats=True)
    (2): ReLU6(inplace=True)
  )
  (stage1): LinearBottleNeck(
    (residual): Sequential(
      (0): Conv2d(8, 17, kernel_size=(1, 1), stride=(1, 1))
      (1): BatchNorm2d(17, eps=1e-05, momentum=0.1, affine=True, track_running_stats=True)
      (2): ReLU6(inplace=True)
      (3): Conv2d(17, 17, kernel_size=(3, 3), stride=(1, 1), padding=(1, 1), groups=17)
      (4): BatchNorm2d(17, eps=1e-05, momentum=0.1, affine=True, track_running_stats=True)
      (5): ReLU6(inplace=True)
      (6): Conv2d(17, 16, kernel_size=(1, 1), stride=(1, 1))
      (7): BatchNorm2d(16, eps=1e-05, momentum=0.1, affine=True, track_running_stats=True)
    )
  )
  (stage2): Sequential(
    (0): LinearBottleNeck(
      (residual): Sequential(
        (0): Conv2d(16, 73, kernel_size=(1, 1), stride=(1, 1))
        (1): BatchNorm2d(73, eps=1e-05, momentum=0.1, affine=True, track_running_stats=True)
        (2): ReLU6(inplace=True)
        (3): Conv2d(73, 73, kernel_size=(3, 3), stride=(2, 2), padding=(1, 1), groups=73)
        (4): BatchNorm2d(73, eps=1e-05, momentum=0.1, affine=True, track_running_stats=True)
        (5): ReLU6(inplace=True)
        (6): Conv2d(73, 24, kernel_size=(1, 1), stride=(1, 1))
        (7): BatchNorm2d(24, eps=1e-05, momentum=0.1, affine=True, track_running_stats=True)
      )
    )
    (1): LinearBottleNeck(
      (residual): Sequential(
        (0): Conv2d(24, 88, kernel_size=(1, 1), stride=(1, 1))
        (1): BatchNorm2d(88, eps=1e-05, momentum=0.1, affine=True, track_running_stats=True)
        (2): ReLU6(inplace=True)
        (3): Conv2d(88, 88, kernel_size=(3, 3), stride=(1, 1), padding=(1, 1), groups=88)
        (4): BatchNorm2d(88, eps=1e-05, momentum=0.1, affine=True, track_running_stats=True)
        (5): ReLU6(inplace=True)
        (6): Conv2d(88, 24, kernel_size=(1, 1), stride=(1, 1))
        (7): BatchNorm2d(24, eps=1e-05, momentum=0.1, affine=True, track_running_stats=True)
      )
    )
  )
  (stage3): Sequential(
    (0): LinearBottleNeck(
      (residual): Sequential(
        (0): Conv2d(24, 65, kernel_size=(1, 1), stride=(1, 1))
        (1): BatchNorm2d(65, eps=1e-05, momentum=0.1, affine=True, track_running_stats=True)
        (2): ReLU6(inplace=True)
        (3): Conv2d(65, 65, kernel_size=(3, 3), stride=(2, 2), padding=(1, 1), groups=65)
        (4): BatchNorm2d(65, eps=1e-05, momentum=0.1, affine=True, track_running_stats=True)
        (5): ReLU6(inplace=True)
        (6): Conv2d(65, 32, kernel_size=(1, 1), stride=(1, 1))
        (7): BatchNorm2d(32, eps=1e-05, momentum=0.1, affine=True, track_running_stats=True)
      )
    )
    (1): LinearBottleNeck(
      (residual): Sequential(
        (0): Conv2d(32, 88, kernel_size=(1, 1), stride=(1, 1))
        (1): BatchNorm2d(88, eps=1e-05, momentum=0.1, affine=True, track_running_stats=True)
        (2): ReLU6(inplace=True)
        (3): Conv2d(88, 88, kernel_size=(3, 3), stride=(1, 1), padding=(1, 1), groups=88)
        (4): BatchNorm2d(88, eps=1e-05, momentum=0.1, affine=True, track_running_stats=True)
        (5): ReLU6(inplace=True)
        (6): Conv2d(88, 32, kernel_size=(1, 1), stride=(1, 1))
        (7): BatchNorm2d(32, eps=1e-05, momentum=0.1, affine=True, track_running_stats=True)
      )
    )
    (2): LinearBottleNeck(
      (residual): Sequential(
        (0): Conv2d(32, 57, kernel_size=(1, 1), stride=(1, 1))
        (1): BatchNorm2d(57, eps=1e-05, momentum=0.1, affine=True, track_running_stats=True)
        (2): ReLU6(inplace=True)
        (3): Conv2d(57, 57, kernel_size=(3, 3), stride=(1, 1), padding=(1, 1), groups=57)
        (4): BatchNorm2d(57, eps=1e-05, momentum=0.1, affine=True, track_running_stats=True)
        (5): ReLU6(inplace=True)
        (6): Conv2d(57, 32, kernel_size=(1, 1), stride=(1, 1))
        (7): BatchNorm2d(32, eps=1e-05, momentum=0.1, affine=True, track_running_stats=True)
      )
    )
  )
  (stage4): Sequential(
    (0): LinearBottleNeck(
      (residual): Sequential(
        (0): Conv2d(32, 51, kernel_size=(1, 1), stride=(1, 1))
        (1): BatchNorm2d(51, eps=1e-05, momentum=0.1, affine=True, track_running_stats=True)
        (2): ReLU6(inplace=True)
        (3): Conv2d(51, 51, kernel_size=(3, 3), stride=(2, 2), padding=(1, 1), groups=51)
        (4): BatchNorm2d(51, eps=1e-05, momentum=0.1, affine=True, track_running_stats=True)
        (5): ReLU6(inplace=True)
        (6): Conv2d(51, 64, kernel_size=(1, 1), stride=(1, 1))
        (7): BatchNorm2d(64, eps=1e-05, momentum=0.1, affine=True, track_running_stats=True)
      )
    )
    (1): LinearBottleNeck(
      (residual): Sequential(
        (0): Conv2d(64, 101, kernel_size=(1, 1), stride=(1, 1))
        (1): BatchNorm2d(101, eps=1e-05, momentum=0.1, affine=True, track_running_stats=True)
        (2): ReLU6(inplace=True)
        (3): Conv2d(101, 101, kernel_size=(3, 3), stride=(1, 1), padding=(1, 1), groups=101)
        (4): BatchNorm2d(101, eps=1e-05, momentum=0.1, affine=True, track_running_stats=True)
        (5): ReLU6(inplace=True)
        (6): Conv2d(101, 64, kernel_size=(1, 1), stride=(1, 1))
        (7): BatchNorm2d(64, eps=1e-05, momentum=0.1, affine=True, track_running_stats=True)
      )
    )
    (2): LinearBottleNeck(
      (residual): Sequential(
        (0): Conv2d(64, 64, kernel_size=(1, 1), stride=(1, 1))
        (1): BatchNorm2d(64, eps=1e-05, momentum=0.1, affine=True, track_running_stats=True)
        (2): ReLU6(inplace=True)
        (3): Conv2d(64, 64, kernel_size=(3, 3), stride=(1, 1), padding=(1, 1), groups=64)
        (4): BatchNorm2d(64, eps=1e-05, momentum=0.1, affine=True, track_running_stats=True)
        (5): ReLU6(inplace=True)
        (6): Conv2d(64, 64, kernel_size=(1, 1), stride=(1, 1))
        (7): BatchNorm2d(64, eps=1e-05, momentum=0.1, affine=True, track_running_stats=True)
      )
    )
    (3): LinearBottleNeck(
      (residual): Sequential(
        (0): Conv2d(64, 39, kernel_size=(1, 1), stride=(1, 1))
        (1): BatchNorm2d(39, eps=1e-05, momentum=0.1, affine=True, track_running_stats=True)
        (2): ReLU6(inplace=True)
        (3): Conv2d(39, 39, kernel_size=(3, 3), stride=(1, 1), padding=(1, 1), groups=39)
        (4): BatchNorm2d(39, eps=1e-05, momentum=0.1, affine=True, track_running_stats=True)
        (5): ReLU6(inplace=True)
        (6): Conv2d(39, 64, kernel_size=(1, 1), stride=(1, 1))
        (7): BatchNorm2d(64, eps=1e-05, momentum=0.1, affine=True, track_running_stats=True)
      )
    )
  )
  (stage5): Sequential(
    (0): LinearBottleNeck(
      (residual): Sequential(
        (0): Conv2d(64, 104, kernel_size=(1, 1), stride=(1, 1))
        (1): BatchNorm2d(104, eps=1e-05, momentum=0.1, affine=True, track_running_stats=True)
        (2): ReLU6(inplace=True)
        (3): Conv2d(104, 104, kernel_size=(3, 3), stride=(1, 1), padding=(1, 1), groups=104)
        (4): BatchNorm2d(104, eps=1e-05, momentum=0.1, affine=True, track_running_stats=True)
        (5): ReLU6(inplace=True)
        (6): Conv2d(104, 96, kernel_size=(1, 1), stride=(1, 1))
        (7): BatchNorm2d(96, eps=1e-05, momentum=0.1, affine=True, track_running_stats=True)
      )
    )
    (1): LinearBottleNeck(
      (residual): Sequential(
        (0): Conv2d(96, 576, kernel_size=(1, 1), stride=(1, 1))
        (1): BatchNorm2d(576, eps=1e-05, momentum=0.1, affine=True, track_running_stats=True)
        (2): ReLU6(inplace=True)
        (3): Conv2d(576, 576, kernel_size=(3, 3), stride=(1, 1), padding=(1, 1), groups=576)
        (4): BatchNorm2d(576, eps=1e-05, momentum=0.1, affine=True, track_running_stats=True)
        (5): ReLU6(inplace=True)
        (6): Conv2d(576, 96, kernel_size=(1, 1), stride=(1, 1))
        (7): BatchNorm2d(96, eps=1e-05, momentum=0.1, affine=True, track_running_stats=True)
      )
    )
    (2): LinearBottleNeck(
      (residual): Sequential(
        (0): Conv2d(96, 458, kernel_size=(1, 1), stride=(1, 1))
        (1): BatchNorm2d(458, eps=1e-05, momentum=0.1, affine=True, track_running_stats=True)
        (2): ReLU6(inplace=True)
        (3): Conv2d(458, 458, kernel_size=(3, 3), stride=(1, 1), padding=(1, 1), groups=458)
        (4): BatchNorm2d(458, eps=1e-05, momentum=0.1, affine=True, track_running_stats=True)
        (5): ReLU6(inplace=True)
        (6): Conv2d(458, 96, kernel_size=(1, 1), stride=(1, 1))
        (7): BatchNorm2d(96, eps=1e-05, momentum=0.1, affine=True, track_running_stats=True)
      )
    )
  )
  (stage6): Sequential(
    (0): LinearBottleNeck(
      (residual): Sequential(
        (0): Conv2d(96, 250, kernel_size=(1, 1), stride=(1, 1))
        (1): BatchNorm2d(250, eps=1e-05, momentum=0.1, affine=True, track_running_stats=True)
        (2): ReLU6(inplace=True)
        (3): Conv2d(250, 250, kernel_size=(3, 3), stride=(1, 1), padding=(1, 1), groups=250)
        (4): BatchNorm2d(250, eps=1e-05, momentum=0.1, affine=True, track_running_stats=True)
        (5): ReLU6(inplace=True)
        (6): Conv2d(250, 160, kernel_size=(1, 1), stride=(1, 1))
        (7): BatchNorm2d(160, eps=1e-05, momentum=0.1, affine=True, track_running_stats=True)
      )
    )
    (1): LinearBottleNeck(
      (residual): Sequential(
        (0): Conv2d(160, 16, kernel_size=(1, 1), stride=(1, 1))
        (1): BatchNorm2d(16, eps=1e-05, momentum=0.1, affine=True, track_running_stats=True)
        (2): ReLU6(inplace=True)
        (3): Conv2d(16, 16, kernel_size=(3, 3), stride=(1, 1), padding=(1, 1), groups=16)
        (4): BatchNorm2d(16, eps=1e-05, momentum=0.1, affine=True, track_running_stats=True)
        (5): ReLU6(inplace=True)
        (6): Conv2d(16, 160, kernel_size=(1, 1), stride=(1, 1))
        (7): BatchNorm2d(160, eps=1e-05, momentum=0.1, affine=True, track_running_stats=True)
      )
    )
    (2): LinearBottleNeck(
      (residual): Sequential(
        (0): Conv2d(160, 5, kernel_size=(1, 1), stride=(1, 1))
        (1): BatchNorm2d(5, eps=1e-05, momentum=0.1, affine=True, track_running_stats=True)
        (2): ReLU6(inplace=True)
        (3): Conv2d(5, 5, kernel_size=(3, 3), stride=(1, 1), padding=(1, 1), groups=5)
        (4): BatchNorm2d(5, eps=1e-05, momentum=0.1, affine=True, track_running_stats=True)
        (5): ReLU6(inplace=True)
        (6): Conv2d(5, 160, kernel_size=(1, 1), stride=(1, 1))
        (7): BatchNorm2d(160, eps=1e-05, momentum=0.1, affine=True, track_running_stats=True)
      )
    )
  )
  (stage7): LinearBottleNeck(
    (residual): Sequential(
      (0): Conv2d(160, 642, kernel_size=(1, 1), stride=(1, 1))
      (1): BatchNorm2d(642, eps=1e-05, momentum=0.1, affine=True, track_running_stats=True)
      (2): ReLU6(inplace=True)
      (3): Conv2d(642, 642, kernel_size=(3, 3), stride=(1, 1), padding=(1, 1), groups=642)
      (4): BatchNorm2d(642, eps=1e-05, momentum=0.1, affine=True, track_running_stats=True)
      (5): ReLU6(inplace=True)
      (6): Conv2d(642, 320, kernel_size=(1, 1), stride=(1, 1))
      (7): BatchNorm2d(320, eps=1e-05, momentum=0.1, affine=True, track_running_stats=True)
    )
  )
  (conv1): Sequential(
    (0): Conv2d(320, 1280, kernel_size=(1, 1), stride=(1, 1))
    (1): BatchNorm2d(1280, eps=1e-05, momentum=0.1, affine=True, track_running_stats=True)
    (2): ReLU6(inplace=True)
  )
  (conv2): Conv2d(1280, 10, kernel_size=(1, 1), stride=(1, 1))
)
[02/24 01:24:51] cifar10-global-group_sl-2.0-mobilenetv2 INFO: Params: 2.25 M => 1.12 M (49.54%)
[02/24 01:24:51] cifar10-global-group_sl-2.0-mobilenetv2 INFO: FLOPs: 68.29 M => 34.02 M (49.82%, 2.01X )
[02/24 01:24:51] cifar10-global-group_sl-2.0-mobilenetv2 INFO: Acc: 0.9018 => 0.9019
[02/24 01:24:51] cifar10-global-group_sl-2.0-mobilenetv2 INFO: Val Loss: 0.3118 => 0.3118
…
