…
[02/23 10:02:53] modelnet40-global-proj_sl-2.0-pointnet INFO: Epoch 98/100, Acc=0.8922, Val Loss=0.3745, lr=0.0001
[02/23 10:13:54] modelnet40-global-proj_sl-2.0-pointnet INFO: Epoch 99/100, Acc=0.8906, Val Loss=0.3738, lr=0.0001
[02/23 10:13:54] modelnet40-global-proj_sl-2.0-pointnet INFO: Best Acc=0.8966
[02/23 10:13:54] modelnet40-global-proj_sl-2.0-pointnet INFO: Loading the sparse model from run/modelnet40/prune/modelnet40-global-proj_sl-2.0-pointnet/reg_modelnet40_pointnet_proj_sl_1e-05.pth...
[02/23 10:13:55] modelnet40-global-proj_sl-2.0-pointnet INFO: Pruning...
[02/23 10:18:10] modelnet40-global-proj_sl-2.0-pointnet INFO: PointNet(
  (conv1): Conv1d(3, 53, kernel_size=(1,), stride=(1,), bias=False)
  (conv2): Conv1d(53, 60, kernel_size=(1,), stride=(1,), bias=False)
  (conv3): Conv1d(60, 48, kernel_size=(1,), stride=(1,), bias=False)
  (conv4): Conv1d(48, 109, kernel_size=(1,), stride=(1,), bias=False)
  (conv5): Conv1d(109, 1135, kernel_size=(1,), stride=(1,), bias=False)
  (bn1): BatchNorm1d(53, eps=1e-05, momentum=0.1, affine=True, track_running_stats=True)
  (bn2): BatchNorm1d(60, eps=1e-05, momentum=0.1, affine=True, track_running_stats=True)
  (bn3): BatchNorm1d(48, eps=1e-05, momentum=0.1, affine=True, track_running_stats=True)
  (bn4): BatchNorm1d(109, eps=1e-05, momentum=0.1, affine=True, track_running_stats=True)
  (bn5): BatchNorm1d(1135, eps=1e-05, momentum=0.1, affine=True, track_running_stats=True)
  (linear1): Linear(in_features=1135, out_features=186, bias=False)
  (bn6): BatchNorm1d(186, eps=1e-05, momentum=0.1, affine=True, track_running_stats=True)
  (dp1): Dropout(p=0.5, inplace=False)
  (linear2): Linear(in_features=186, out_features=40, bias=True)
)
[02/23 10:18:11] modelnet40-global-proj_sl-2.0-pointnet INFO: Params: 1.35 M => 0.36 M (26.37%)
[02/23 10:18:11] modelnet40-global-proj_sl-2.0-pointnet INFO: FLOPs: 291.33 M => 141.51 M (48.57%, 2.06X )
[02/23 10:18:11] modelnet40-global-proj_sl-2.0-pointnet INFO: Acc: 0.8934 => 0.6313
[02/23 10:18:11] modelnet40-global-proj_sl-2.0-pointnet INFO: Val Loss: 0.3766 => 1.3743
…
