…
[02/23 01:23:59] modelnet40-global-random-3.0-pointnet INFO: iterative_steps: 400
[02/23 01:23:59] modelnet40-global-random-3.0-pointnet INFO: logger: <Logger modelnet40-global-random-3.0-pointnet (DEBUG)>
[02/23 01:23:59] modelnet40-global-random-3.0-pointnet INFO: device: cuda
[02/23 01:23:59] modelnet40-global-random-3.0-pointnet INFO: num_classes: 40
[02/23 01:23:59] modelnet40-global-random-3.0-pointnet INFO: Loading model from run/modelnet40/pretrain/modelnet40_pointnet.pth
[02/23 01:24:00] modelnet40-global-random-3.0-pointnet INFO: Pruning...
[02/23 01:24:01] modelnet40-global-random-3.0-pointnet INFO: PointNet(
  (conv1): Conv1d(3, 1, kernel_size=(1,), stride=(1,), bias=False)
  (conv2): Conv1d(1, 1, kernel_size=(1,), stride=(1,), bias=False)
  (conv3): Conv1d(1, 1, kernel_size=(1,), stride=(1,), bias=False)
  (conv4): Conv1d(1, 45, kernel_size=(1,), stride=(1,), bias=False)
  (conv5): Conv1d(45, 1965, kernel_size=(1,), stride=(1,), bias=False)
  (bn1): BatchNorm1d(1, eps=1e-05, momentum=0.1, affine=True, track_running_stats=True)
  (bn2): BatchNorm1d(1, eps=1e-05, momentum=0.1, affine=True, track_running_stats=True)
  (bn3): BatchNorm1d(1, eps=1e-05, momentum=0.1, affine=True, track_running_stats=True)
  (bn4): BatchNorm1d(45, eps=1e-05, momentum=0.1, affine=True, track_running_stats=True)
  (bn5): BatchNorm1d(1965, eps=1e-05, momentum=0.1, affine=True, track_running_stats=True)
  (linear1): Linear(in_features=1965, out_features=429, bias=False)
  (bn6): BatchNorm1d(429, eps=1e-05, momentum=0.1, affine=True, track_running_stats=True)
  (dp1): Dropout(p=0.5, inplace=False)
  (linear2): Linear(in_features=429, out_features=40, bias=True)
)
[02/23 01:24:02] modelnet40-global-random-3.0-pointnet INFO: Params: 1.35 M => 0.95 M (70.45%)
[02/23 01:24:02] modelnet40-global-random-3.0-pointnet INFO: FLOPs: 291.33 M => 95.58 M (32.81%, 3.05X )
[02/23 01:24:02] modelnet40-global-random-3.0-pointnet INFO: Acc: 0.8861 => 0.0405
[02/23 01:24:02] modelnet40-global-random-3.0-pointnet INFO: Val Loss: 0.3951 => 13.2318
…
