…
[02/22 11:54:08] modelnet40-global-random-2.0-pointnet INFO: iterative_steps: 400
[02/22 11:54:08] modelnet40-global-random-2.0-pointnet INFO: logger: <Logger modelnet40-global-random-2.0-pointnet (DEBUG)>
[02/22 11:54:08] modelnet40-global-random-2.0-pointnet INFO: device: cuda
[02/22 11:54:08] modelnet40-global-random-2.0-pointnet INFO: num_classes: 40
[02/22 11:54:08] modelnet40-global-random-2.0-pointnet INFO: Loading model from run/modelnet40/pretrain/modelnet40_pointnet.pth
[02/22 11:54:09] modelnet40-global-random-2.0-pointnet INFO: Pruning...
[02/22 11:54:11] modelnet40-global-random-2.0-pointnet INFO: PointNet(
  (conv1): Conv1d(3, 4, kernel_size=(1,), stride=(1,), bias=False)
  (conv2): Conv1d(4, 4, kernel_size=(1,), stride=(1,), bias=False)
  (conv3): Conv1d(4, 4, kernel_size=(1,), stride=(1,), bias=False)
  (conv4): Conv1d(4, 68, kernel_size=(1,), stride=(1,), bias=False)
  (conv5): Conv1d(68, 1988, kernel_size=(1,), stride=(1,), bias=False)
  (bn1): BatchNorm1d(4, eps=1e-05, momentum=0.1, affine=True, track_running_stats=True)
  (bn2): BatchNorm1d(4, eps=1e-05, momentum=0.1, affine=True, track_running_stats=True)
  (bn3): BatchNorm1d(4, eps=1e-05, momentum=0.1, affine=True, track_running_stats=True)
  (bn4): BatchNorm1d(68, eps=1e-05, momentum=0.1, affine=True, track_running_stats=True)
  (bn5): BatchNorm1d(1988, eps=1e-05, momentum=0.1, affine=True, track_running_stats=True)
  (linear1): Linear(in_features=1988, out_features=452, bias=False)
  (bn6): BatchNorm1d(452, eps=1e-05, momentum=0.1, affine=True, track_running_stats=True)
  (dp1): Dropout(p=0.5, inplace=False)
  (linear2): Linear(in_features=452, out_features=40, bias=True)
)
[02/22 11:54:12] modelnet40-global-random-2.0-pointnet INFO: Params: 1.35 M => 1.06 M (78.11%)
[02/22 11:54:12] modelnet40-global-random-2.0-pointnet INFO: FLOPs: 291.33 M => 143.90 M (49.40%, 2.02X )
[02/22 11:54:12] modelnet40-global-random-2.0-pointnet INFO: Acc: 0.8861 => 0.0405
[02/22 11:54:12] modelnet40-global-random-2.0-pointnet INFO: Val Loss: 0.3951 => 16.5222
…
