…
[02/22 13:42:12] modelnet40-global-slim-2.0-pointnet INFO: Epoch 98/100, Acc=0.8918, Val Loss=0.3738, lr=0.0001
[02/22 13:42:25] modelnet40-global-slim-2.0-pointnet INFO: Epoch 99/100, Acc=0.8865, Val Loss=0.3728, lr=0.0001
[02/22 13:42:25] modelnet40-global-slim-2.0-pointnet INFO: Best Acc=0.8918
[02/22 13:42:25] modelnet40-global-slim-2.0-pointnet INFO: Loading the sparse model from run/modelnet40/prune/modelnet40-global-slim-2.0-pointnet/reg_modelnet40_pointnet_slim_1e-05.pth...
[02/22 13:42:26] modelnet40-global-slim-2.0-pointnet INFO: Pruning...
[02/22 13:42:29] modelnet40-global-slim-2.0-pointnet INFO: PointNet(
  (conv1): Conv1d(3, 45, kernel_size=(1,), stride=(1,), bias=False)
  (conv2): Conv1d(45, 55, kernel_size=(1,), stride=(1,), bias=False)
  (conv3): Conv1d(55, 39, kernel_size=(1,), stride=(1,), bias=False)
  (conv4): Conv1d(39, 113, kernel_size=(1,), stride=(1,), bias=False)
  (conv5): Conv1d(113, 1146, kernel_size=(1,), stride=(1,), bias=False)
  (bn1): BatchNorm1d(45, eps=1e-05, momentum=0.1, affine=True, track_running_stats=True)
  (bn2): BatchNorm1d(55, eps=1e-05, momentum=0.1, affine=True, track_running_stats=True)
  (bn3): BatchNorm1d(39, eps=1e-05, momentum=0.1, affine=True, track_running_stats=True)
  (bn4): BatchNorm1d(113, eps=1e-05, momentum=0.1, affine=True, track_running_stats=True)
  (bn5): BatchNorm1d(1146, eps=1e-05, momentum=0.1, affine=True, track_running_stats=True)
  (linear1): Linear(in_features=1146, out_features=186, bias=False)
  (bn6): BatchNorm1d(186, eps=1e-05, momentum=0.1, affine=True, track_running_stats=True)
  (dp1): Dropout(p=0.5, inplace=False)
  (linear2): Linear(in_features=186, out_features=40, bias=True)
)
[02/22 13:42:30] modelnet40-global-slim-2.0-pointnet INFO: Params: 1.35 M => 0.36 M (26.78%)
[02/22 13:42:30] modelnet40-global-slim-2.0-pointnet INFO: FLOPs: 291.33 M => 145.07 M (49.80%, 2.01X )
[02/22 13:42:30] modelnet40-global-slim-2.0-pointnet INFO: Acc: 0.8918 => 0.6268
[02/22 13:42:30] modelnet40-global-slim-2.0-pointnet INFO: Val Loss: 0.3738 => 1.3060
…
