…
[02/21 03:59:45] cifar10-global-group_norm-2.0-vgg19 INFO: iterative_steps: 400
[02/21 03:59:45] cifar10-global-group_norm-2.0-vgg19 INFO: logger: <Logger cifar10-global-group_norm-2.0-vgg19 (DEBUG)>
[02/21 03:59:45] cifar10-global-group_norm-2.0-vgg19 INFO: device: cuda
[02/21 03:59:45] cifar10-global-group_norm-2.0-vgg19 INFO: num_classes: 10
[02/21 03:59:45] cifar10-global-group_norm-2.0-vgg19 INFO: Loading model from run/cifar10/pretrain/cifar10_vgg19.pth
[02/21 03:59:48] cifar10-global-group_norm-2.0-vgg19 INFO: Pruning...
[02/21 03:59:56] cifar10-global-group_norm-2.0-vgg19 INFO: VGG(
  (block0): Sequential(
    (0): Conv2d(3, 13, kernel_size=(3, 3), stride=(1, 1), padding=(1, 1))
    (1): BatchNorm2d(13, eps=1e-05, momentum=0.1, affine=True, track_running_stats=True)
    (2): ReLU(inplace=True)
    (3): Conv2d(13, 64, kernel_size=(3, 3), stride=(1, 1), padding=(1, 1))
    (4): BatchNorm2d(64, eps=1e-05, momentum=0.1, affine=True, track_running_stats=True)
  )
  (block1): Sequential(
    (0): Conv2d(64, 128, kernel_size=(3, 3), stride=(1, 1), padding=(1, 1))
    (1): BatchNorm2d(128, eps=1e-05, momentum=0.1, affine=True, track_running_stats=True)
    (2): ReLU(inplace=True)
    (3): Conv2d(128, 128, kernel_size=(3, 3), stride=(1, 1), padding=(1, 1))
    (4): BatchNorm2d(128, eps=1e-05, momentum=0.1, affine=True, track_running_stats=True)
  )
  (block2): Sequential(
    (0): Conv2d(128, 255, kernel_size=(3, 3), stride=(1, 1), padding=(1, 1))
    (1): BatchNorm2d(255, eps=1e-05, momentum=0.1, affine=True, track_running_stats=True)
    (2): ReLU(inplace=True)
    (3): Conv2d(255, 255, kernel_size=(3, 3), stride=(1, 1), padding=(1, 1))
    (4): BatchNorm2d(255, eps=1e-05, momentum=0.1, affine=True, track_running_stats=True)
    (5): ReLU(inplace=True)
    (6): Conv2d(255, 253, kernel_size=(3, 3), stride=(1, 1), padding=(1, 1))
    (7): BatchNorm2d(253, eps=1e-05, momentum=0.1, affine=True, track_running_stats=True)
    (8): ReLU(inplace=True)
    (9): Conv2d(253, 249, kernel_size=(3, 3), stride=(1, 1), padding=(1, 1))
    (10): BatchNorm2d(249, eps=1e-05, momentum=0.1, affine=True, track_running_stats=True)
  )
  (block3): Sequential(
    (0): Conv2d(249, 393, kernel_size=(3, 3), stride=(1, 1), padding=(1, 1))
    (1): BatchNorm2d(393, eps=1e-05, momentum=0.1, affine=True, track_running_stats=True)
    (2): ReLU(inplace=True)
    (3): Conv2d(393, 304, kernel_size=(3, 3), stride=(1, 1), padding=(1, 1))
    (4): BatchNorm2d(304, eps=1e-05, momentum=0.1, affine=True, track_running_stats=True)
    (5): ReLU(inplace=True)
    (6): Conv2d(304, 230, kernel_size=(3, 3), stride=(1, 1), padding=(1, 1))
    (7): BatchNorm2d(230, eps=1e-05, momentum=0.1, affine=True, track_running_stats=True)
    (8): ReLU(inplace=True)
    (9): Conv2d(230, 177, kernel_size=(3, 3), stride=(1, 1), padding=(1, 1))
    (10): BatchNorm2d(177, eps=1e-05, momentum=0.1, affine=True, track_running_stats=True)
  )
  (block4): Sequential(
    (0): Conv2d(177, 199, kernel_size=(3, 3), stride=(1, 1), padding=(1, 1))
    (1): BatchNorm2d(199, eps=1e-05, momentum=0.1, affine=True, track_running_stats=True)
    (2): ReLU(inplace=True)
    (3): Conv2d(199, 146, kernel_size=(3, 3), stride=(1, 1), padding=(1, 1))
    (4): BatchNorm2d(146, eps=1e-05, momentum=0.1, affine=True, track_running_stats=True)
    (5): ReLU(inplace=True)
    (6): Conv2d(146, 70, kernel_size=(3, 3), stride=(1, 1), padding=(1, 1))
    (7): BatchNorm2d(70, eps=1e-05, momentum=0.1, affine=True, track_running_stats=True)
    (8): ReLU(inplace=True)
    (9): Conv2d(70, 259, kernel_size=(3, 3), stride=(1, 1), padding=(1, 1))
    (10): BatchNorm2d(259, eps=1e-05, momentum=0.1, affine=True, track_running_stats=True)
  )
  (pool0): MaxPool2d(kernel_size=2, stride=2, padding=0, dilation=1, ceil_mode=False)
  (pool1): MaxPool2d(kernel_size=2, stride=2, padding=0, dilation=1, ceil_mode=False)
  (pool2): MaxPool2d(kernel_size=2, stride=2, padding=0, dilation=1, ceil_mode=False)
  (pool3): MaxPool2d(kernel_size=2, stride=2, padding=0, dilation=1, ceil_mode=False)
  (pool4): AdaptiveAvgPool2d(output_size=(1, 1))
  (classifier): Linear(in_features=259, out_features=10, bias=True)
)
[02/21 03:59:58] cifar10-global-group_norm-2.0-vgg19 INFO: Params: 20.04 M => 6.05 M (30.20%)
[02/21 03:59:58] cifar10-global-group_norm-2.0-vgg19 INFO: FLOPs: 512.69 M => 255.87 M (49.91%, 2.00X )
[02/21 03:59:58] cifar10-global-group_norm-2.0-vgg19 INFO: Acc: 0.9368 => 0.8889
[02/21 03:59:58] cifar10-global-group_norm-2.0-vgg19 INFO: Val Loss: 0.2814 => 0.6489
…
