…
[02/26 16:29:18] cifar100-global-l2-3.0-mobilenetv2 INFO: iterative_steps: 400
[02/26 16:29:18] cifar100-global-l2-3.0-mobilenetv2 INFO: logger: <Logger cifar100-global-l2-3.0-mobilenetv2 (DEBUG)>
[02/26 16:29:18] cifar100-global-l2-3.0-mobilenetv2 INFO: device: cuda
[02/26 16:29:18] cifar100-global-l2-3.0-mobilenetv2 INFO: num_classes: 100
[02/26 16:29:18] cifar100-global-l2-3.0-mobilenetv2 INFO: Loading model from run/cifar100/pretrain/cifar100_mobilenetv2.pth
[02/26 16:29:21] cifar100-global-l2-3.0-mobilenetv2 INFO: Pruning...
[02/26 16:29:54] cifar100-global-l2-3.0-mobilenetv2 INFO: MobileNetV2(
  (pre): Sequential(
    (0): Conv2d(3, 9, kernel_size=(1, 1), stride=(1, 1), padding=(1, 1))
    (1): BatchNorm2d(9, eps=1e-05, momentum=0.1, affine=True, track_running_stats=True)
    (2): ReLU6(inplace=True)
  )
  (stage1): LinearBottleNeck(
    (residual): Sequential(
      (0): Conv2d(9, 15, kernel_size=(1, 1), stride=(1, 1))
      (1): BatchNorm2d(15, eps=1e-05, momentum=0.1, affine=True, track_running_stats=True)
      (2): ReLU6(inplace=True)
      (3): Conv2d(15, 15, kernel_size=(3, 3), stride=(1, 1), padding=(1, 1), groups=15)
      (4): BatchNorm2d(15, eps=1e-05, momentum=0.1, affine=True, track_running_stats=True)
      (5): ReLU6(inplace=True)
      (6): Conv2d(15, 16, kernel_size=(1, 1), stride=(1, 1))
      (7): BatchNorm2d(16, eps=1e-05, momentum=0.1, affine=True, track_running_stats=True)
    )
  )
  (stage2): Sequential(
    (0): LinearBottleNeck(
      (residual): Sequential(
        (0): Conv2d(16, 72, kernel_size=(1, 1), stride=(1, 1))
        (1): BatchNorm2d(72, eps=1e-05, momentum=0.1, affine=True, track_running_stats=True)
        (2): ReLU6(inplace=True)
        (3): Conv2d(72, 72, kernel_size=(3, 3), stride=(2, 2), padding=(1, 1), groups=72)
        (4): BatchNorm2d(72, eps=1e-05, momentum=0.1, affine=True, track_running_stats=True)
        (5): ReLU6(inplace=True)
        (6): Conv2d(72, 24, kernel_size=(1, 1), stride=(1, 1))
        (7): BatchNorm2d(24, eps=1e-05, momentum=0.1, affine=True, track_running_stats=True)
      )
    )
    (1): LinearBottleNeck(
      (residual): Sequential(
        (0): Conv2d(24, 78, kernel_size=(1, 1), stride=(1, 1))
        (1): BatchNorm2d(78, eps=1e-05, momentum=0.1, affine=True, track_running_stats=True)
        (2): ReLU6(inplace=True)
        (3): Conv2d(78, 78, kernel_size=(3, 3), stride=(1, 1), padding=(1, 1), groups=78)
        (4): BatchNorm2d(78, eps=1e-05, momentum=0.1, affine=True, track_running_stats=True)
        (5): ReLU6(inplace=True)
        (6): Conv2d(78, 24, kernel_size=(1, 1), stride=(1, 1))
        (7): BatchNorm2d(24, eps=1e-05, momentum=0.1, affine=True, track_running_stats=True)
      )
    )
  )
  (stage3): Sequential(
    (0): LinearBottleNeck(
      (residual): Sequential(
        (0): Conv2d(24, 71, kernel_size=(1, 1), stride=(1, 1))
        (1): BatchNorm2d(71, eps=1e-05, momentum=0.1, affine=True, track_running_stats=True)
        (2): ReLU6(inplace=True)
        (3): Conv2d(71, 71, kernel_size=(3, 3), stride=(2, 2), padding=(1, 1), groups=71)
        (4): BatchNorm2d(71, eps=1e-05, momentum=0.1, affine=True, track_running_stats=True)
        (5): ReLU6(inplace=True)
        (6): Conv2d(71, 32, kernel_size=(1, 1), stride=(1, 1))
        (7): BatchNorm2d(32, eps=1e-05, momentum=0.1, affine=True, track_running_stats=True)
      )
    )
    (1): LinearBottleNeck(
      (residual): Sequential(
        (0): Conv2d(32, 82, kernel_size=(1, 1), stride=(1, 1))
        (1): BatchNorm2d(82, eps=1e-05, momentum=0.1, affine=True, track_running_stats=True)
        (2): ReLU6(inplace=True)
        (3): Conv2d(82, 82, kernel_size=(3, 3), stride=(1, 1), padding=(1, 1), groups=82)
        (4): BatchNorm2d(82, eps=1e-05, momentum=0.1, affine=True, track_running_stats=True)
        (5): ReLU6(inplace=True)
        (6): Conv2d(82, 32, kernel_size=(1, 1), stride=(1, 1))
        (7): BatchNorm2d(32, eps=1e-05, momentum=0.1, affine=True, track_running_stats=True)
      )
    )
    (2): LinearBottleNeck(
      (residual): Sequential(
        (0): Conv2d(32, 55, kernel_size=(1, 1), stride=(1, 1))
        (1): BatchNorm2d(55, eps=1e-05, momentum=0.1, affine=True, track_running_stats=True)
        (2): ReLU6(inplace=True)
        (3): Conv2d(55, 55, kernel_size=(3, 3), stride=(1, 1), padding=(1, 1), groups=55)
        (4): BatchNorm2d(55, eps=1e-05, momentum=0.1, affine=True, track_running_stats=True)
        (5): ReLU6(inplace=True)
        (6): Conv2d(55, 32, kernel_size=(1, 1), stride=(1, 1))
        (7): BatchNorm2d(32, eps=1e-05, momentum=0.1, affine=True, track_running_stats=True)
      )
    )
  )
  (stage4): Sequential(
    (0): LinearBottleNeck(
      (residual): Sequential(
        (0): Conv2d(32, 81, kernel_size=(1, 1), stride=(1, 1))
        (1): BatchNorm2d(81, eps=1e-05, momentum=0.1, affine=True, track_running_stats=True)
        (2): ReLU6(inplace=True)
        (3): Conv2d(81, 81, kernel_size=(3, 3), stride=(2, 2), padding=(1, 1), groups=81)
        (4): BatchNorm2d(81, eps=1e-05, momentum=0.1, affine=True, track_running_stats=True)
        (5): ReLU6(inplace=True)
        (6): Conv2d(81, 64, kernel_size=(1, 1), stride=(1, 1))
        (7): BatchNorm2d(64, eps=1e-05, momentum=0.1, affine=True, track_running_stats=True)
      )
    )
    (1): LinearBottleNeck(
      (residual): Sequential(
        (0): Conv2d(64, 33, kernel_size=(1, 1), stride=(1, 1))
        (1): BatchNorm2d(33, eps=1e-05, momentum=0.1, affine=True, track_running_stats=True)
        (2): ReLU6(inplace=True)
        (3): Conv2d(33, 33, kernel_size=(3, 3), stride=(1, 1), padding=(1, 1), groups=33)
        (4): BatchNorm2d(33, eps=1e-05, momentum=0.1, affine=True, track_running_stats=True)
        (5): ReLU6(inplace=True)
        (6): Conv2d(33, 64, kernel_size=(1, 1), stride=(1, 1))
        (7): BatchNorm2d(64, eps=1e-05, momentum=0.1, affine=True, track_running_stats=True)
      )
    )
    (2): LinearBottleNeck(
      (residual): Sequential(
        (0): Conv2d(64, 14, kernel_size=(1, 1), stride=(1, 1))
        (1): BatchNorm2d(14, eps=1e-05, momentum=0.1, affine=True, track_running_stats=True)
        (2): ReLU6(inplace=True)
        (3): Conv2d(14, 14, kernel_size=(3, 3), stride=(1, 1), padding=(1, 1), groups=14)
        (4): BatchNorm2d(14, eps=1e-05, momentum=0.1, affine=True, track_running_stats=True)
        (5): ReLU6(inplace=True)
        (6): Conv2d(14, 64, kernel_size=(1, 1), stride=(1, 1))
        (7): BatchNorm2d(64, eps=1e-05, momentum=0.1, affine=True, track_running_stats=True)
      )
    )
    (3): LinearBottleNeck(
      (residual): Sequential(
        (0): Conv2d(64, 20, kernel_size=(1, 1), stride=(1, 1))
        (1): BatchNorm2d(20, eps=1e-05, momentum=0.1, affine=True, track_running_stats=True)
        (2): ReLU6(inplace=True)
        (3): Conv2d(20, 20, kernel_size=(3, 3), stride=(1, 1), padding=(1, 1), groups=20)
        (4): BatchNorm2d(20, eps=1e-05, momentum=0.1, affine=True, track_running_stats=True)
        (5): ReLU6(inplace=True)
        (6): Conv2d(20, 64, kernel_size=(1, 1), stride=(1, 1))
        (7): BatchNorm2d(64, eps=1e-05, momentum=0.1, affine=True, track_running_stats=True)
      )
    )
  )
  (stage5): Sequential(
    (0): LinearBottleNeck(
      (residual): Sequential(
        (0): Conv2d(64, 175, kernel_size=(1, 1), stride=(1, 1))
        (1): BatchNorm2d(175, eps=1e-05, momentum=0.1, affine=True, track_running_stats=True)
        (2): ReLU6(inplace=True)
        (3): Conv2d(175, 175, kernel_size=(3, 3), stride=(1, 1), padding=(1, 1), groups=175)
        (4): BatchNorm2d(175, eps=1e-05, momentum=0.1, affine=True, track_running_stats=True)
        (5): ReLU6(inplace=True)
        (6): Conv2d(175, 96, kernel_size=(1, 1), stride=(1, 1))
        (7): BatchNorm2d(96, eps=1e-05, momentum=0.1, affine=True, track_running_stats=True)
      )
    )
    (1): LinearBottleNeck(
      (residual): Sequential(
        (0): Conv2d(96, 43, kernel_size=(1, 1), stride=(1, 1))
        (1): BatchNorm2d(43, eps=1e-05, momentum=0.1, affine=True, track_running_stats=True)
        (2): ReLU6(inplace=True)
        (3): Conv2d(43, 43, kernel_size=(3, 3), stride=(1, 1), padding=(1, 1), groups=43)
        (4): BatchNorm2d(43, eps=1e-05, momentum=0.1, affine=True, track_running_stats=True)
        (5): ReLU6(inplace=True)
        (6): Conv2d(43, 96, kernel_size=(1, 1), stride=(1, 1))
        (7): BatchNorm2d(96, eps=1e-05, momentum=0.1, affine=True, track_running_stats=True)
      )
    )
    (2): LinearBottleNeck(
      (residual): Sequential(
        (0): Conv2d(96, 29, kernel_size=(1, 1), stride=(1, 1))
        (1): BatchNorm2d(29, eps=1e-05, momentum=0.1, affine=True, track_running_stats=True)
        (2): ReLU6(inplace=True)
        (3): Conv2d(29, 29, kernel_size=(3, 3), stride=(1, 1), padding=(1, 1), groups=29)
        (4): BatchNorm2d(29, eps=1e-05, momentum=0.1, affine=True, track_running_stats=True)
        (5): ReLU6(inplace=True)
        (6): Conv2d(29, 96, kernel_size=(1, 1), stride=(1, 1))
        (7): BatchNorm2d(96, eps=1e-05, momentum=0.1, affine=True, track_running_stats=True)
      )
    )
  )
  (stage6): Sequential(
    (0): LinearBottleNeck(
      (residual): Sequential(
        (0): Conv2d(96, 172, kernel_size=(1, 1), stride=(1, 1))
        (1): BatchNorm2d(172, eps=1e-05, momentum=0.1, affine=True, track_running_stats=True)
        (2): ReLU6(inplace=True)
        (3): Conv2d(172, 172, kernel_size=(3, 3), stride=(1, 1), padding=(1, 1), groups=172)
        (4): BatchNorm2d(172, eps=1e-05, momentum=0.1, affine=True, track_running_stats=True)
        (5): ReLU6(inplace=True)
        (6): Conv2d(172, 160, kernel_size=(1, 1), stride=(1, 1))
        (7): BatchNorm2d(160, eps=1e-05, momentum=0.1, affine=True, track_running_stats=True)
      )
    )
    (1): LinearBottleNeck(
      (residual): Sequential(
        (0): Conv2d(160, 94, kernel_size=(1, 1), stride=(1, 1))
        (1): BatchNorm2d(94, eps=1e-05, momentum=0.1, affine=True, track_running_stats=True)
        (2): ReLU6(inplace=True)
        (3): Conv2d(94, 94, kernel_size=(3, 3), stride=(1, 1), padding=(1, 1), groups=94)
        (4): BatchNorm2d(94, eps=1e-05, momentum=0.1, affine=True, track_running_stats=True)
        (5): ReLU6(inplace=True)
        (6): Conv2d(94, 160, kernel_size=(1, 1), stride=(1, 1))
        (7): BatchNorm2d(160, eps=1e-05, momentum=0.1, affine=True, track_running_stats=True)
      )
    )
    (2): LinearBottleNeck(
      (residual): Sequential(
        (0): Conv2d(160, 69, kernel_size=(1, 1), stride=(1, 1))
        (1): BatchNorm2d(69, eps=1e-05, momentum=0.1, affine=True, track_running_stats=True)
        (2): ReLU6(inplace=True)
        (3): Conv2d(69, 69, kernel_size=(3, 3), stride=(1, 1), padding=(1, 1), groups=69)
        (4): BatchNorm2d(69, eps=1e-05, momentum=0.1, affine=True, track_running_stats=True)
        (5): ReLU6(inplace=True)
        (6): Conv2d(69, 160, kernel_size=(1, 1), stride=(1, 1))
        (7): BatchNorm2d(160, eps=1e-05, momentum=0.1, affine=True, track_running_stats=True)
      )
    )
  )
  (stage7): LinearBottleNeck(
    (residual): Sequential(
      (0): Conv2d(160, 102, kernel_size=(1, 1), stride=(1, 1))
      (1): BatchNorm2d(102, eps=1e-05, momentum=0.1, affine=True, track_running_stats=True)
      (2): ReLU6(inplace=True)
      (3): Conv2d(102, 102, kernel_size=(3, 3), stride=(1, 1), padding=(1, 1), groups=102)
      (4): BatchNorm2d(102, eps=1e-05, momentum=0.1, affine=True, track_running_stats=True)
      (5): ReLU6(inplace=True)
      (6): Conv2d(102, 320, kernel_size=(1, 1), stride=(1, 1))
      (7): BatchNorm2d(320, eps=1e-05, momentum=0.1, affine=True, track_running_stats=True)
    )
  )
  (conv1): Sequential(
    (0): Conv2d(320, 1280, kernel_size=(1, 1), stride=(1, 1))
    (1): BatchNorm2d(1280, eps=1e-05, momentum=0.1, affine=True, track_running_stats=True)
    (2): ReLU6(inplace=True)
  )
  (conv2): Conv2d(1280, 100, kernel_size=(1, 1), stride=(1, 1))
)
[02/26 16:29:58] cifar100-global-l2-3.0-mobilenetv2 INFO: Params: 2.37 M => 0.79 M (33.23%)
[02/26 16:29:58] cifar100-global-l2-3.0-mobilenetv2 INFO: FLOPs: 68.40 M => 22.75 M (33.26%, 3.01X )
[02/26 16:29:58] cifar100-global-l2-3.0-mobilenetv2 INFO: Acc: 0.6699 => 0.6699
[02/26 16:29:58] cifar100-global-l2-3.0-mobilenetv2 INFO: Val Loss: 1.1637 => 1.1637
…
