…
[02/26 07:10:24] cifar10-global-slim-3.0-mobilenetv2 INFO: Epoch 98/100, Acc=0.8992, Val Loss=0.3194, lr=0.0001
[02/26 07:10:52] cifar10-global-slim-3.0-mobilenetv2 INFO: Epoch 99/100, Acc=0.8989, Val Loss=0.3196, lr=0.0001
[02/26 07:10:52] cifar10-global-slim-3.0-mobilenetv2 INFO: Best Acc=0.9005
[02/26 07:10:52] cifar10-global-slim-3.0-mobilenetv2 INFO: Loading the sparse model from run/cifar10/prune/cifar10-global-slim-3.0-mobilenetv2/reg_cifar10_mobilenetv2_slim_1e-05.pth...
[02/26 07:10:55] cifar10-global-slim-3.0-mobilenetv2 INFO: Pruning...
[02/26 07:11:18] cifar10-global-slim-3.0-mobilenetv2 INFO: MobileNetV2(
  (pre): Sequential(
    (0): Conv2d(3, 7, kernel_size=(1, 1), stride=(1, 1), padding=(1, 1))
    (1): BatchNorm2d(7, eps=1e-05, momentum=0.1, affine=True, track_running_stats=True)
    (2): ReLU6(inplace=True)
  )
  (stage1): LinearBottleNeck(
    (residual): Sequential(
      (0): Conv2d(7, 16, kernel_size=(1, 1), stride=(1, 1))
      (1): BatchNorm2d(16, eps=1e-05, momentum=0.1, affine=True, track_running_stats=True)
      (2): ReLU6(inplace=True)
      (3): Conv2d(16, 16, kernel_size=(3, 3), stride=(1, 1), padding=(1, 1), groups=16)
      (4): BatchNorm2d(16, eps=1e-05, momentum=0.1, affine=True, track_running_stats=True)
      (5): ReLU6(inplace=True)
      (6): Conv2d(16, 16, kernel_size=(1, 1), stride=(1, 1))
      (7): BatchNorm2d(16, eps=1e-05, momentum=0.1, affine=True, track_running_stats=True)
    )
  )
  (stage2): Sequential(
    (0): LinearBottleNeck(
      (residual): Sequential(
        (0): Conv2d(16, 67, kernel_size=(1, 1), stride=(1, 1))
        (1): BatchNorm2d(67, eps=1e-05, momentum=0.1, affine=True, track_running_stats=True)
        (2): ReLU6(inplace=True)
        (3): Conv2d(67, 67, kernel_size=(3, 3), stride=(2, 2), padding=(1, 1), groups=67)
        (4): BatchNorm2d(67, eps=1e-05, momentum=0.1, affine=True, track_running_stats=True)
        (5): ReLU6(inplace=True)
        (6): Conv2d(67, 24, kernel_size=(1, 1), stride=(1, 1))
        (7): BatchNorm2d(24, eps=1e-05, momentum=0.1, affine=True, track_running_stats=True)
      )
    )
    (1): LinearBottleNeck(
      (residual): Sequential(
        (0): Conv2d(24, 72, kernel_size=(1, 1), stride=(1, 1))
        (1): BatchNorm2d(72, eps=1e-05, momentum=0.1, affine=True, track_running_stats=True)
        (2): ReLU6(inplace=True)
        (3): Conv2d(72, 72, kernel_size=(3, 3), stride=(1, 1), padding=(1, 1), groups=72)
        (4): BatchNorm2d(72, eps=1e-05, momentum=0.1, affine=True, track_running_stats=True)
        (5): ReLU6(inplace=True)
        (6): Conv2d(72, 24, kernel_size=(1, 1), stride=(1, 1))
        (7): BatchNorm2d(24, eps=1e-05, momentum=0.1, affine=True, track_running_stats=True)
      )
    )
  )
  (stage3): Sequential(
    (0): LinearBottleNeck(
      (residual): Sequential(
        (0): Conv2d(24, 50, kernel_size=(1, 1), stride=(1, 1))
        (1): BatchNorm2d(50, eps=1e-05, momentum=0.1, affine=True, track_running_stats=True)
        (2): ReLU6(inplace=True)
        (3): Conv2d(50, 50, kernel_size=(3, 3), stride=(2, 2), padding=(1, 1), groups=50)
        (4): BatchNorm2d(50, eps=1e-05, momentum=0.1, affine=True, track_running_stats=True)
        (5): ReLU6(inplace=True)
        (6): Conv2d(50, 32, kernel_size=(1, 1), stride=(1, 1))
        (7): BatchNorm2d(32, eps=1e-05, momentum=0.1, affine=True, track_running_stats=True)
      )
    )
    (1): LinearBottleNeck(
      (residual): Sequential(
        (0): Conv2d(32, 65, kernel_size=(1, 1), stride=(1, 1))
        (1): BatchNorm2d(65, eps=1e-05, momentum=0.1, affine=True, track_running_stats=True)
        (2): ReLU6(inplace=True)
        (3): Conv2d(65, 65, kernel_size=(3, 3), stride=(1, 1), padding=(1, 1), groups=65)
        (4): BatchNorm2d(65, eps=1e-05, momentum=0.1, affine=True, track_running_stats=True)
        (5): ReLU6(inplace=True)
        (6): Conv2d(65, 32, kernel_size=(1, 1), stride=(1, 1))
        (7): BatchNorm2d(32, eps=1e-05, momentum=0.1, affine=True, track_running_stats=True)
      )
    )
    (2): LinearBottleNeck(
      (residual): Sequential(
        (0): Conv2d(32, 31, kernel_size=(1, 1), stride=(1, 1))
        (1): BatchNorm2d(31, eps=1e-05, momentum=0.1, affine=True, track_running_stats=True)
        (2): ReLU6(inplace=True)
        (3): Conv2d(31, 31, kernel_size=(3, 3), stride=(1, 1), padding=(1, 1), groups=31)
        (4): BatchNorm2d(31, eps=1e-05, momentum=0.1, affine=True, track_running_stats=True)
        (5): ReLU6(inplace=True)
        (6): Conv2d(31, 32, kernel_size=(1, 1), stride=(1, 1))
        (7): BatchNorm2d(32, eps=1e-05, momentum=0.1, affine=True, track_running_stats=True)
      )
    )
  )
  (stage4): Sequential(
    (0): LinearBottleNeck(
      (residual): Sequential(
        (0): Conv2d(32, 39, kernel_size=(1, 1), stride=(1, 1))
        (1): BatchNorm2d(39, eps=1e-05, momentum=0.1, affine=True, track_running_stats=True)
        (2): ReLU6(inplace=True)
        (3): Conv2d(39, 39, kernel_size=(3, 3), stride=(2, 2), padding=(1, 1), groups=39)
        (4): BatchNorm2d(39, eps=1e-05, momentum=0.1, affine=True, track_running_stats=True)
        (5): ReLU6(inplace=True)
        (6): Conv2d(39, 62, kernel_size=(1, 1), stride=(1, 1))
        (7): BatchNorm2d(62, eps=1e-05, momentum=0.1, affine=True, track_running_stats=True)
      )
    )
    (1): LinearBottleNeck(
      (residual): Sequential(
        (0): Conv2d(62, 47, kernel_size=(1, 1), stride=(1, 1))
        (1): BatchNorm2d(47, eps=1e-05, momentum=0.1, affine=True, track_running_stats=True)
        (2): ReLU6(inplace=True)
        (3): Conv2d(47, 47, kernel_size=(3, 3), stride=(1, 1), padding=(1, 1), groups=47)
        (4): BatchNorm2d(47, eps=1e-05, momentum=0.1, affine=True, track_running_stats=True)
        (5): ReLU6(inplace=True)
        (6): Conv2d(47, 62, kernel_size=(1, 1), stride=(1, 1))
        (7): BatchNorm2d(62, eps=1e-05, momentum=0.1, affine=True, track_running_stats=True)
      )
    )
    (2): LinearBottleNeck(
      (residual): Sequential(
        (0): Conv2d(62, 31, kernel_size=(1, 1), stride=(1, 1))
        (1): BatchNorm2d(31, eps=1e-05, momentum=0.1, affine=True, track_running_stats=True)
        (2): ReLU6(inplace=True)
        (3): Conv2d(31, 31, kernel_size=(3, 3), stride=(1, 1), padding=(1, 1), groups=31)
        (4): BatchNorm2d(31, eps=1e-05, momentum=0.1, affine=True, track_running_stats=True)
        (5): ReLU6(inplace=True)
        (6): Conv2d(31, 62, kernel_size=(1, 1), stride=(1, 1))
        (7): BatchNorm2d(62, eps=1e-05, momentum=0.1, affine=True, track_running_stats=True)
      )
    )
    (3): LinearBottleNeck(
      (residual): Sequential(
        (0): Conv2d(62, 11, kernel_size=(1, 1), stride=(1, 1))
        (1): BatchNorm2d(11, eps=1e-05, momentum=0.1, affine=True, track_running_stats=True)
        (2): ReLU6(inplace=True)
        (3): Conv2d(11, 11, kernel_size=(3, 3), stride=(1, 1), padding=(1, 1), groups=11)
        (4): BatchNorm2d(11, eps=1e-05, momentum=0.1, affine=True, track_running_stats=True)
        (5): ReLU6(inplace=True)
        (6): Conv2d(11, 62, kernel_size=(1, 1), stride=(1, 1))
        (7): BatchNorm2d(62, eps=1e-05, momentum=0.1, affine=True, track_running_stats=True)
      )
    )
  )
  (stage5): Sequential(
    (0): LinearBottleNeck(
      (residual): Sequential(
        (0): Conv2d(62, 71, kernel_size=(1, 1), stride=(1, 1))
        (1): BatchNorm2d(71, eps=1e-05, momentum=0.1, affine=True, track_running_stats=True)
        (2): ReLU6(inplace=True)
        (3): Conv2d(71, 71, kernel_size=(3, 3), stride=(1, 1), padding=(1, 1), groups=71)
        (4): BatchNorm2d(71, eps=1e-05, momentum=0.1, affine=True, track_running_stats=True)
        (5): ReLU6(inplace=True)
        (6): Conv2d(71, 89, kernel_size=(1, 1), stride=(1, 1))
        (7): BatchNorm2d(89, eps=1e-05, momentum=0.1, affine=True, track_running_stats=True)
      )
    )
    (1): LinearBottleNeck(
      (residual): Sequential(
        (0): Conv2d(89, 428, kernel_size=(1, 1), stride=(1, 1))
        (1): BatchNorm2d(428, eps=1e-05, momentum=0.1, affine=True, track_running_stats=True)
        (2): ReLU6(inplace=True)
        (3): Conv2d(428, 428, kernel_size=(3, 3), stride=(1, 1), padding=(1, 1), groups=428)
        (4): BatchNorm2d(428, eps=1e-05, momentum=0.1, affine=True, track_running_stats=True)
        (5): ReLU6(inplace=True)
        (6): Conv2d(428, 89, kernel_size=(1, 1), stride=(1, 1))
        (7): BatchNorm2d(89, eps=1e-05, momentum=0.1, affine=True, track_running_stats=True)
      )
    )
    (2): LinearBottleNeck(
      (residual): Sequential(
        (0): Conv2d(89, 550, kernel_size=(1, 1), stride=(1, 1))
        (1): BatchNorm2d(550, eps=1e-05, momentum=0.1, affine=True, track_running_stats=True)
        (2): ReLU6(inplace=True)
        (3): Conv2d(550, 550, kernel_size=(3, 3), stride=(1, 1), padding=(1, 1), groups=550)
        (4): BatchNorm2d(550, eps=1e-05, momentum=0.1, affine=True, track_running_stats=True)
        (5): ReLU6(inplace=True)
        (6): Conv2d(550, 89, kernel_size=(1, 1), stride=(1, 1))
        (7): BatchNorm2d(89, eps=1e-05, momentum=0.1, affine=True, track_running_stats=True)
      )
    )
  )
  (stage6): Sequential(
    (0): LinearBottleNeck(
      (residual): Sequential(
        (0): Conv2d(89, 119, kernel_size=(1, 1), stride=(1, 1))
        (1): BatchNorm2d(119, eps=1e-05, momentum=0.1, affine=True, track_running_stats=True)
        (2): ReLU6(inplace=True)
        (3): Conv2d(119, 119, kernel_size=(3, 3), stride=(1, 1), padding=(1, 1), groups=119)
        (4): BatchNorm2d(119, eps=1e-05, momentum=0.1, affine=True, track_running_stats=True)
        (5): ReLU6(inplace=True)
        (6): Conv2d(119, 130, kernel_size=(1, 1), stride=(1, 1))
        (7): BatchNorm2d(130, eps=1e-05, momentum=0.1, affine=True, track_running_stats=True)
      )
    )
    (1): LinearBottleNeck(
      (residual): Sequential(
        (0): Conv2d(130, 7, kernel_size=(1, 1), stride=(1, 1))
        (1): BatchNorm2d(7, eps=1e-05, momentum=0.1, affine=True, track_running_stats=True)
        (2): ReLU6(inplace=True)
        (3): Conv2d(7, 7, kernel_size=(3, 3), stride=(1, 1), padding=(1, 1), groups=7)
        (4): BatchNorm2d(7, eps=1e-05, momentum=0.1, affine=True, track_running_stats=True)
        (5): ReLU6(inplace=True)
        (6): Conv2d(7, 130, kernel_size=(1, 1), stride=(1, 1))
        (7): BatchNorm2d(130, eps=1e-05, momentum=0.1, affine=True, track_running_stats=True)
      )
    )
    (2): LinearBottleNeck(
      (residual): Sequential(
        (0): Conv2d(130, 1, kernel_size=(1, 1), stride=(1, 1))
        (1): BatchNorm2d(1, eps=1e-05, momentum=0.1, affine=True, track_running_stats=True)
        (2): ReLU6(inplace=True)
        (3): Conv2d(1, 1, kernel_size=(3, 3), stride=(1, 1), padding=(1, 1))
        (4): BatchNorm2d(1, eps=1e-05, momentum=0.1, affine=True, track_running_stats=True)
        (5): ReLU6(inplace=True)
        (6): Conv2d(1, 130, kernel_size=(1, 1), stride=(1, 1))
        (7): BatchNorm2d(130, eps=1e-05, momentum=0.1, affine=True, track_running_stats=True)
      )
    )
  )
  (stage7): LinearBottleNeck(
    (residual): Sequential(
      (0): Conv2d(130, 295, kernel_size=(1, 1), stride=(1, 1))
      (1): BatchNorm2d(295, eps=1e-05, momentum=0.1, affine=True, track_running_stats=True)
      (2): ReLU6(inplace=True)
      (3): Conv2d(295, 295, kernel_size=(3, 3), stride=(1, 1), padding=(1, 1), groups=295)
      (4): BatchNorm2d(295, eps=1e-05, momentum=0.1, affine=True, track_running_stats=True)
      (5): ReLU6(inplace=True)
      (6): Conv2d(295, 281, kernel_size=(1, 1), stride=(1, 1))
      (7): BatchNorm2d(281, eps=1e-05, momentum=0.1, affine=True, track_running_stats=True)
    )
  )
  (conv1): Sequential(
    (0): Conv2d(281, 1032, kernel_size=(1, 1), stride=(1, 1))
    (1): BatchNorm2d(1032, eps=1e-05, momentum=0.1, affine=True, track_running_stats=True)
    (2): ReLU6(inplace=True)
  )
  (conv2): Conv2d(1032, 10, kernel_size=(1, 1), stride=(1, 1))
)
[02/26 07:11:21] cifar10-global-slim-3.0-mobilenetv2 INFO: Params: 2.25 M => 0.70 M (31.07%)
[02/26 07:11:21] cifar10-global-slim-3.0-mobilenetv2 INFO: FLOPs: 68.29 M => 22.68 M (33.22%, 3.01X )
[02/26 07:11:21] cifar10-global-slim-3.0-mobilenetv2 INFO: Acc: 0.9005 => 0.8499
[02/26 07:11:21] cifar10-global-slim-3.0-mobilenetv2 INFO: Val Loss: 0.3179 => 0.4730
…
