…
[02/23 19:23:04] cifar100-global-fpgm-2.0-vgg19 INFO: sl_restore: None
[02/23 19:23:04] cifar100-global-fpgm-2.0-vgg19 INFO: iterative_steps: 400
[02/23 19:23:04] cifar100-global-fpgm-2.0-vgg19 INFO: logger: <Logger cifar100-global-fpgm-2.0-vgg19 (DEBUG)>
[02/23 19:23:04] cifar100-global-fpgm-2.0-vgg19 INFO: device: cuda
[02/23 19:23:04] cifar100-global-fpgm-2.0-vgg19 INFO: num_classes: 100
[02/23 19:23:04] cifar100-global-fpgm-2.0-vgg19 INFO: Loading model from run/cifar100/pretrain/cifar100_vgg19.pth
[02/23 19:23:09] cifar100-global-fpgm-2.0-vgg19 INFO: Pruning...
[02/23 19:23:23] cifar100-global-fpgm-2.0-vgg19 INFO: VGG(
  (block0): Sequential(
    (0): Conv2d(3, 11, kernel_size=(3, 3), stride=(1, 1), padding=(1, 1))
    (1): BatchNorm2d(11, eps=1e-05, momentum=0.1, affine=True, track_running_stats=True)
    (2): ReLU(inplace=True)
    (3): Conv2d(11, 40, kernel_size=(3, 3), stride=(1, 1), padding=(1, 1))
    (4): BatchNorm2d(40, eps=1e-05, momentum=0.1, affine=True, track_running_stats=True)
  )
  (block1): Sequential(
    (0): Conv2d(40, 115, kernel_size=(3, 3), stride=(1, 1), padding=(1, 1))
    (1): BatchNorm2d(115, eps=1e-05, momentum=0.1, affine=True, track_running_stats=True)
    (2): ReLU(inplace=True)
    (3): Conv2d(115, 128, kernel_size=(3, 3), stride=(1, 1), padding=(1, 1))
    (4): BatchNorm2d(128, eps=1e-05, momentum=0.1, affine=True, track_running_stats=True)
  )
  (block2): Sequential(
    (0): Conv2d(128, 255, kernel_size=(3, 3), stride=(1, 1), padding=(1, 1))
    (1): BatchNorm2d(255, eps=1e-05, momentum=0.1, affine=True, track_running_stats=True)
    (2): ReLU(inplace=True)
    (3): Conv2d(255, 256, kernel_size=(3, 3), stride=(1, 1), padding=(1, 1))
    (4): BatchNorm2d(256, eps=1e-05, momentum=0.1, affine=True, track_running_stats=True)
    (5): ReLU(inplace=True)
    (6): Conv2d(256, 256, kernel_size=(3, 3), stride=(1, 1), padding=(1, 1))
    (7): BatchNorm2d(256, eps=1e-05, momentum=0.1, affine=True, track_running_stats=True)
    (8): ReLU(inplace=True)
    (9): Conv2d(256, 256, kernel_size=(3, 3), stride=(1, 1), padding=(1, 1))
    (10): BatchNorm2d(256, eps=1e-05, momentum=0.1, affine=True, track_running_stats=True)
  )
  (block3): Sequential(
    (0): Conv2d(256, 505, kernel_size=(3, 3), stride=(1, 1), padding=(1, 1))
    (1): BatchNorm2d(505, eps=1e-05, momentum=0.1, affine=True, track_running_stats=True)
    (2): ReLU(inplace=True)
    (3): Conv2d(505, 477, kernel_size=(3, 3), stride=(1, 1), padding=(1, 1))
    (4): BatchNorm2d(477, eps=1e-05, momentum=0.1, affine=True, track_running_stats=True)
    (5): ReLU(inplace=True)
    (6): Conv2d(477, 153, kernel_size=(3, 3), stride=(1, 1), padding=(1, 1))
    (7): BatchNorm2d(153, eps=1e-05, momentum=0.1, affine=True, track_running_stats=True)
    (8): ReLU(inplace=True)
    (9): Conv2d(153, 34, kernel_size=(3, 3), stride=(1, 1), padding=(1, 1))
    (10): BatchNorm2d(34, eps=1e-05, momentum=0.1, affine=True, track_running_stats=True)
  )
  (block4): Sequential(
    (0): Conv2d(34, 29, kernel_size=(3, 3), stride=(1, 1), padding=(1, 1))
    (1): BatchNorm2d(29, eps=1e-05, momentum=0.1, affine=True, track_running_stats=True)
    (2): ReLU(inplace=True)
    (3): Conv2d(29, 35, kernel_size=(3, 3), stride=(1, 1), padding=(1, 1))
    (4): BatchNorm2d(35, eps=1e-05, momentum=0.1, affine=True, track_running_stats=True)
    (5): ReLU(inplace=True)
    (6): Conv2d(35, 192, kernel_size=(3, 3), stride=(1, 1), padding=(1, 1))
    (7): BatchNorm2d(192, eps=1e-05, momentum=0.1, affine=True, track_running_stats=True)
    (8): ReLU(inplace=True)
    (9): Conv2d(192, 312, kernel_size=(3, 3), stride=(1, 1), padding=(1, 1))
    (10): BatchNorm2d(312, eps=1e-05, momentum=0.1, affine=True, track_running_stats=True)
  )
  (pool0): MaxPool2d(kernel_size=2, stride=2, padding=0, dilation=1, ceil_mode=False)
  (pool1): MaxPool2d(kernel_size=2, stride=2, padding=0, dilation=1, ceil_mode=False)
  (pool2): MaxPool2d(kernel_size=2, stride=2, padding=0, dilation=1, ceil_mode=False)
  (pool3): MaxPool2d(kernel_size=2, stride=2, padding=0, dilation=1, ceil_mode=False)
  (pool4): AdaptiveAvgPool2d(output_size=(1, 1))
  (classifier): Linear(in_features=312, out_features=100, bias=True)
)
[02/23 19:23:27] cifar100-global-fpgm-2.0-vgg19 INFO: Params: 20.09 M => 6.93 M (34.51%)
[02/23 19:23:27] cifar100-global-fpgm-2.0-vgg19 INFO: FLOPs: 512.73 M => 256.08 M (49.94%, 2.00X )
[02/23 19:23:27] cifar100-global-fpgm-2.0-vgg19 INFO: Acc: 0.7376 => 0.0100
[02/23 19:23:27] cifar100-global-fpgm-2.0-vgg19 INFO: Val Loss: 1.2744 => 5.5126
[02/23 19:23:27] cifar100-global-fpgm-2.0-vgg19 INFO: Finetuning...
…
