…
[02/23 02:20:36] modelnet40-global-obdc-3.0-pointnet INFO: iterative_steps: 400
[02/23 02:20:36] modelnet40-global-obdc-3.0-pointnet INFO: logger: <Logger modelnet40-global-obdc-3.0-pointnet (DEBUG)>
[02/23 02:20:36] modelnet40-global-obdc-3.0-pointnet INFO: device: cuda
[02/23 02:20:36] modelnet40-global-obdc-3.0-pointnet INFO: num_classes: 40
[02/23 02:20:36] modelnet40-global-obdc-3.0-pointnet INFO: Loading model from run/modelnet40/pretrain/modelnet40_pointnet.pth
[02/23 02:20:36] modelnet40-global-obdc-3.0-pointnet INFO: Pruning...
[02/23 02:20:48] modelnet40-global-obdc-3.0-pointnet INFO: PointNet(
  (conv1): Conv1d(3, 58, kernel_size=(1,), stride=(1,), bias=False)
  (conv2): Conv1d(58, 64, kernel_size=(1,), stride=(1,), bias=False)
  (conv3): Conv1d(64, 59, kernel_size=(1,), stride=(1,), bias=False)
  (conv4): Conv1d(59, 126, kernel_size=(1,), stride=(1,), bias=False)
  (conv5): Conv1d(126, 613, kernel_size=(1,), stride=(1,), bias=False)
  (bn1): BatchNorm1d(58, eps=1e-05, momentum=0.1, affine=True, track_running_stats=True)
  (bn2): BatchNorm1d(64, eps=1e-05, momentum=0.1, affine=True, track_running_stats=True)
  (bn3): BatchNorm1d(59, eps=1e-05, momentum=0.1, affine=True, track_running_stats=True)
  (bn4): BatchNorm1d(126, eps=1e-05, momentum=0.1, affine=True, track_running_stats=True)
  (bn5): BatchNorm1d(613, eps=1e-05, momentum=0.1, affine=True, track_running_stats=True)
  (linear1): Linear(in_features=613, out_features=188, bias=False)
  (bn6): BatchNorm1d(188, eps=1e-05, momentum=0.1, affine=True, track_running_stats=True)
  (dp1): Dropout(p=0.5, inplace=False)
  (linear2): Linear(in_features=188, out_features=40, bias=True)
)
[02/23 02:21:50] modelnet40-global-obdc-3.0-pointnet INFO: Params: 1.35 M => 0.22 M (16.06%)
[02/23 02:21:50] modelnet40-global-obdc-3.0-pointnet INFO: FLOPs: 291.33 M => 96.56 M (33.14%, 3.02X )
[02/23 02:21:50] modelnet40-global-obdc-3.0-pointnet INFO: Acc: 0.8861 => 0.1609
[02/23 02:21:50] modelnet40-global-obdc-3.0-pointnet INFO: Val Loss: 0.3951 => 9.1020
…
