…
[02/26 03:20:55] cifar10-global-random-3.0-mobilenetv2 INFO: iterative_steps: 400
[02/26 03:20:55] cifar10-global-random-3.0-mobilenetv2 INFO: logger: <Logger cifar10-global-random-3.0-mobilenetv2 (DEBUG)>
[02/26 03:20:55] cifar10-global-random-3.0-mobilenetv2 INFO: device: cuda
[02/26 03:20:55] cifar10-global-random-3.0-mobilenetv2 INFO: num_classes: 10
[02/26 03:20:55] cifar10-global-random-3.0-mobilenetv2 INFO: Loading model from run/cifar10/pretrain/cifar10_mobilenetv2.pth
[02/26 03:20:59] cifar10-global-random-3.0-mobilenetv2 INFO: Pruning...
[02/26 03:21:10] cifar10-global-random-3.0-mobilenetv2 INFO: MobileNetV2(
  (pre): Sequential(
    (0): Conv2d(3, 1, kernel_size=(1, 1), stride=(1, 1), padding=(1, 1))
    (1): BatchNorm2d(1, eps=1e-05, momentum=0.1, affine=True, track_running_stats=True)
    (2): ReLU6(inplace=True)
  )
  (stage1): LinearBottleNeck(
    (residual): Sequential(
      (0): Conv2d(1, 1, kernel_size=(1, 1), stride=(1, 1))
      (1): BatchNorm2d(1, eps=1e-05, momentum=0.1, affine=True, track_running_stats=True)
      (2): ReLU6(inplace=True)
      (3): Conv2d(1, 1, kernel_size=(3, 3), stride=(1, 1), padding=(1, 1))
      (4): BatchNorm2d(1, eps=1e-05, momentum=0.1, affine=True, track_running_stats=True)
      (5): ReLU6(inplace=True)
      (6): Conv2d(1, 1, kernel_size=(1, 1), stride=(1, 1))
      (7): BatchNorm2d(1, eps=1e-05, momentum=0.1, affine=True, track_running_stats=True)
    )
  )
  (stage2): Sequential(
    (0): LinearBottleNeck(
      (residual): Sequential(
        (0): Conv2d(1, 1, kernel_size=(1, 1), stride=(1, 1))
        (1): BatchNorm2d(1, eps=1e-05, momentum=0.1, affine=True, track_running_stats=True)
        (2): ReLU6(inplace=True)
        (3): Conv2d(1, 1, kernel_size=(3, 3), stride=(2, 2), padding=(1, 1))
        (4): BatchNorm2d(1, eps=1e-05, momentum=0.1, affine=True, track_running_stats=True)
        (5): ReLU6(inplace=True)
        (6): Conv2d(1, 1, kernel_size=(1, 1), stride=(1, 1))
        (7): BatchNorm2d(1, eps=1e-05, momentum=0.1, affine=True, track_running_stats=True)
      )
    )
    (1): LinearBottleNeck(
      (residual): Sequential(
        (0): Conv2d(1, 49, kernel_size=(1, 1), stride=(1, 1))
        (1): BatchNorm2d(49, eps=1e-05, momentum=0.1, affine=True, track_running_stats=True)
        (2): ReLU6(inplace=True)
        (3): Conv2d(49, 49, kernel_size=(3, 3), stride=(1, 1), padding=(1, 1), groups=49)
        (4): BatchNorm2d(49, eps=1e-05, momentum=0.1, affine=True, track_running_stats=True)
        (5): ReLU6(inplace=True)
        (6): Conv2d(49, 1, kernel_size=(1, 1), stride=(1, 1))
        (7): BatchNorm2d(1, eps=1e-05, momentum=0.1, affine=True, track_running_stats=True)
      )
    )
  )
  (stage3): Sequential(
    (0): LinearBottleNeck(
      (residual): Sequential(
        (0): Conv2d(1, 49, kernel_size=(1, 1), stride=(1, 1))
        (1): BatchNorm2d(49, eps=1e-05, momentum=0.1, affine=True, track_running_stats=True)
        (2): ReLU6(inplace=True)
        (3): Conv2d(49, 49, kernel_size=(3, 3), stride=(2, 2), padding=(1, 1), groups=49)
        (4): BatchNorm2d(49, eps=1e-05, momentum=0.1, affine=True, track_running_stats=True)
        (5): ReLU6(inplace=True)
        (6): Conv2d(49, 1, kernel_size=(1, 1), stride=(1, 1))
        (7): BatchNorm2d(1, eps=1e-05, momentum=0.1, affine=True, track_running_stats=True)
      )
    )
    (1): LinearBottleNeck(
      (residual): Sequential(
        (0): Conv2d(1, 97, kernel_size=(1, 1), stride=(1, 1))
        (1): BatchNorm2d(97, eps=1e-05, momentum=0.1, affine=True, track_running_stats=True)
        (2): ReLU6(inplace=True)
        (3): Conv2d(97, 97, kernel_size=(3, 3), stride=(1, 1), padding=(1, 1), groups=97)
        (4): BatchNorm2d(97, eps=1e-05, momentum=0.1, affine=True, track_running_stats=True)
        (5): ReLU6(inplace=True)
        (6): Conv2d(97, 1, kernel_size=(1, 1), stride=(1, 1))
        (7): BatchNorm2d(1, eps=1e-05, momentum=0.1, affine=True, track_running_stats=True)
      )
    )
    (2): LinearBottleNeck(
      (residual): Sequential(
        (0): Conv2d(1, 97, kernel_size=(1, 1), stride=(1, 1))
        (1): BatchNorm2d(97, eps=1e-05, momentum=0.1, affine=True, track_running_stats=True)
        (2): ReLU6(inplace=True)
        (3): Conv2d(97, 97, kernel_size=(3, 3), stride=(1, 1), padding=(1, 1), groups=97)
        (4): BatchNorm2d(97, eps=1e-05, momentum=0.1, affine=True, track_running_stats=True)
        (5): ReLU6(inplace=True)
        (6): Conv2d(97, 1, kernel_size=(1, 1), stride=(1, 1))
        (7): BatchNorm2d(1, eps=1e-05, momentum=0.1, affine=True, track_running_stats=True)
      )
    )
  )
  (stage4): Sequential(
    (0): LinearBottleNeck(
      (residual): Sequential(
        (0): Conv2d(1, 97, kernel_size=(1, 1), stride=(1, 1))
        (1): BatchNorm2d(97, eps=1e-05, momentum=0.1, affine=True, track_running_stats=True)
        (2): ReLU6(inplace=True)
        (3): Conv2d(97, 97, kernel_size=(3, 3), stride=(2, 2), padding=(1, 1), groups=97)
        (4): BatchNorm2d(97, eps=1e-05, momentum=0.1, affine=True, track_running_stats=True)
        (5): ReLU6(inplace=True)
        (6): Conv2d(97, 1, kernel_size=(1, 1), stride=(1, 1))
        (7): BatchNorm2d(1, eps=1e-05, momentum=0.1, affine=True, track_running_stats=True)
      )
    )
    (1): LinearBottleNeck(
      (residual): Sequential(
        (0): Conv2d(1, 289, kernel_size=(1, 1), stride=(1, 1))
        (1): BatchNorm2d(289, eps=1e-05, momentum=0.1, affine=True, track_running_stats=True)
        (2): ReLU6(inplace=True)
        (3): Conv2d(289, 289, kernel_size=(3, 3), stride=(1, 1), padding=(1, 1), groups=289)
        (4): BatchNorm2d(289, eps=1e-05, momentum=0.1, affine=True, track_running_stats=True)
        (5): ReLU6(inplace=True)
        (6): Conv2d(289, 1, kernel_size=(1, 1), stride=(1, 1))
        (7): BatchNorm2d(1, eps=1e-05, momentum=0.1, affine=True, track_running_stats=True)
      )
    )
    (2): LinearBottleNeck(
      (residual): Sequential(
        (0): Conv2d(1, 289, kernel_size=(1, 1), stride=(1, 1))
        (1): BatchNorm2d(289, eps=1e-05, momentum=0.1, affine=True, track_running_stats=True)
        (2): ReLU6(inplace=True)
        (3): Conv2d(289, 289, kernel_size=(3, 3), stride=(1, 1), padding=(1, 1), groups=289)
        (4): BatchNorm2d(289, eps=1e-05, momentum=0.1, affine=True, track_running_stats=True)
        (5): ReLU6(inplace=True)
        (6): Conv2d(289, 1, kernel_size=(1, 1), stride=(1, 1))
        (7): BatchNorm2d(1, eps=1e-05, momentum=0.1, affine=True, track_running_stats=True)
      )
    )
    (3): LinearBottleNeck(
      (residual): Sequential(
        (0): Conv2d(1, 289, kernel_size=(1, 1), stride=(1, 1))
        (1): BatchNorm2d(289, eps=1e-05, momentum=0.1, affine=True, track_running_stats=True)
        (2): ReLU6(inplace=True)
        (3): Conv2d(289, 289, kernel_size=(3, 3), stride=(1, 1), padding=(1, 1), groups=289)
        (4): BatchNorm2d(289, eps=1e-05, momentum=0.1, affine=True, track_running_stats=True)
        (5): ReLU6(inplace=True)
        (6): Conv2d(289, 1, kernel_size=(1, 1), stride=(1, 1))
        (7): BatchNorm2d(1, eps=1e-05, momentum=0.1, affine=True, track_running_stats=True)
      )
    )
  )
  (stage5): Sequential(
    (0): LinearBottleNeck(
      (residual): Sequential(
        (0): Conv2d(1, 289, kernel_size=(1, 1), stride=(1, 1))
        (1): BatchNorm2d(289, eps=1e-05, momentum=0.1, affine=True, track_running_stats=True)
        (2): ReLU6(inplace=True)
        (3): Conv2d(289, 289, kernel_size=(3, 3), stride=(1, 1), padding=(1, 1), groups=289)
        (4): BatchNorm2d(289, eps=1e-05, momentum=0.1, affine=True, track_running_stats=True)
        (5): ReLU6(inplace=True)
        (6): Conv2d(289, 1, kernel_size=(1, 1), stride=(1, 1))
        (7): BatchNorm2d(1, eps=1e-05, momentum=0.1, affine=True, track_running_stats=True)
      )
    )
    (1): LinearBottleNeck(
      (residual): Sequential(
        (0): Conv2d(1, 481, kernel_size=(1, 1), stride=(1, 1))
        (1): BatchNorm2d(481, eps=1e-05, momentum=0.1, affine=True, track_running_stats=True)
        (2): ReLU6(inplace=True)
        (3): Conv2d(481, 481, kernel_size=(3, 3), stride=(1, 1), padding=(1, 1), groups=481)
        (4): BatchNorm2d(481, eps=1e-05, momentum=0.1, affine=True, track_running_stats=True)
        (5): ReLU6(inplace=True)
        (6): Conv2d(481, 1, kernel_size=(1, 1), stride=(1, 1))
        (7): BatchNorm2d(1, eps=1e-05, momentum=0.1, affine=True, track_running_stats=True)
      )
    )
    (2): LinearBottleNeck(
      (residual): Sequential(
        (0): Conv2d(1, 481, kernel_size=(1, 1), stride=(1, 1))
        (1): BatchNorm2d(481, eps=1e-05, momentum=0.1, affine=True, track_running_stats=True)
        (2): ReLU6(inplace=True)
        (3): Conv2d(481, 481, kernel_size=(3, 3), stride=(1, 1), padding=(1, 1), groups=481)
        (4): BatchNorm2d(481, eps=1e-05, momentum=0.1, affine=True, track_running_stats=True)
        (5): ReLU6(inplace=True)
        (6): Conv2d(481, 1, kernel_size=(1, 1), stride=(1, 1))
        (7): BatchNorm2d(1, eps=1e-05, momentum=0.1, affine=True, track_running_stats=True)
      )
    )
  )
  (stage6): Sequential(
    (0): LinearBottleNeck(
      (residual): Sequential(
        (0): Conv2d(1, 481, kernel_size=(1, 1), stride=(1, 1))
        (1): BatchNorm2d(481, eps=1e-05, momentum=0.1, affine=True, track_running_stats=True)
        (2): ReLU6(inplace=True)
        (3): Conv2d(481, 481, kernel_size=(3, 3), stride=(1, 1), padding=(1, 1), groups=481)
        (4): BatchNorm2d(481, eps=1e-05, momentum=0.1, affine=True, track_running_stats=True)
        (5): ReLU6(inplace=True)
        (6): Conv2d(481, 65, kernel_size=(1, 1), stride=(1, 1))
        (7): BatchNorm2d(65, eps=1e-05, momentum=0.1, affine=True, track_running_stats=True)
      )
    )
    (1): LinearBottleNeck(
      (residual): Sequential(
        (0): Conv2d(65, 865, kernel_size=(1, 1), stride=(1, 1))
        (1): BatchNorm2d(865, eps=1e-05, momentum=0.1, affine=True, track_running_stats=True)
        (2): ReLU6(inplace=True)
        (3): Conv2d(865, 865, kernel_size=(3, 3), stride=(1, 1), padding=(1, 1), groups=865)
        (4): BatchNorm2d(865, eps=1e-05, momentum=0.1, affine=True, track_running_stats=True)
        (5): ReLU6(inplace=True)
        (6): Conv2d(865, 65, kernel_size=(1, 1), stride=(1, 1))
        (7): BatchNorm2d(65, eps=1e-05, momentum=0.1, affine=True, track_running_stats=True)
      )
    )
    (2): LinearBottleNeck(
      (residual): Sequential(
        (0): Conv2d(65, 865, kernel_size=(1, 1), stride=(1, 1))
        (1): BatchNorm2d(865, eps=1e-05, momentum=0.1, affine=True, track_running_stats=True)
        (2): ReLU6(inplace=True)
        (3): Conv2d(865, 865, kernel_size=(3, 3), stride=(1, 1), padding=(1, 1), groups=865)
        (4): BatchNorm2d(865, eps=1e-05, momentum=0.1, affine=True, track_running_stats=True)
        (5): ReLU6(inplace=True)
        (6): Conv2d(865, 65, kernel_size=(1, 1), stride=(1, 1))
        (7): BatchNorm2d(65, eps=1e-05, momentum=0.1, affine=True, track_running_stats=True)
      )
    )
  )
  (stage7): LinearBottleNeck(
    (residual): Sequential(
      (0): Conv2d(65, 865, kernel_size=(1, 1), stride=(1, 1))
      (1): BatchNorm2d(865, eps=1e-05, momentum=0.1, affine=True, track_running_stats=True)
      (2): ReLU6(inplace=True)
      (3): Conv2d(865, 865, kernel_size=(3, 3), stride=(1, 1), padding=(1, 1), groups=865)
      (4): BatchNorm2d(865, eps=1e-05, momentum=0.1, affine=True, track_running_stats=True)
      (5): ReLU6(inplace=True)
      (6): Conv2d(865, 225, kernel_size=(1, 1), stride=(1, 1))
      (7): BatchNorm2d(225, eps=1e-05, momentum=0.1, affine=True, track_running_stats=True)
    )
  )
  (conv1): Sequential(
    (0): Conv2d(225, 1185, kernel_size=(1, 1), stride=(1, 1))
    (1): BatchNorm2d(1185, eps=1e-05, momentum=0.1, affine=True, track_running_stats=True)
    (2): ReLU6(inplace=True)
  )
  (conv2): Conv2d(1185, 10, kernel_size=(1, 1), stride=(1, 1))
)
[02/26 03:21:13] cifar10-global-random-3.0-mobilenetv2 INFO: Params: 2.25 M => 0.88 M (39.02%)
[02/26 03:21:13] cifar10-global-random-3.0-mobilenetv2 INFO: FLOPs: 68.29 M => 22.64 M (33.16%, 3.02X )
[02/26 03:21:13] cifar10-global-random-3.0-mobilenetv2 INFO: Acc: 0.8936 => 0.1000
[02/26 03:21:13] cifar10-global-random-3.0-mobilenetv2 INFO: Val Loss: 0.3202 => 2.8661
…
