…
[02/23 04:05:36] modelnet40-global-group_sl-3.0-pointnet INFO: Epoch 98/100, Acc=0.8906, Val Loss=0.3724, lr=0.0001
[02/23 04:05:53] modelnet40-global-group_sl-3.0-pointnet INFO: Epoch 99/100, Acc=0.8902, Val Loss=0.3705, lr=0.0001
[02/23 04:05:53] modelnet40-global-group_sl-3.0-pointnet INFO: Best Acc=0.8926
[02/23 04:05:53] modelnet40-global-group_sl-3.0-pointnet INFO: Loading the sparse model from run/modelnet40/prune/modelnet40-global-group_sl-3.0-pointnet/reg_modelnet40_pointnet_group_sl_1e-05.pth...
[02/23 04:05:54] modelnet40-global-group_sl-3.0-pointnet INFO: Pruning...
[02/23 04:05:58] modelnet40-global-group_sl-3.0-pointnet INFO: PointNet(
  (conv1): Conv1d(3, 47, kernel_size=(1,), stride=(1,), bias=False)
  (conv2): Conv1d(47, 57, kernel_size=(1,), stride=(1,), bias=False)
  (conv3): Conv1d(57, 44, kernel_size=(1,), stride=(1,), bias=False)
  (conv4): Conv1d(44, 101, kernel_size=(1,), stride=(1,), bias=False)
  (conv5): Conv1d(101, 810, kernel_size=(1,), stride=(1,), bias=False)
  (bn1): BatchNorm1d(47, eps=1e-05, momentum=0.1, affine=True, track_running_stats=True)
  (bn2): BatchNorm1d(57, eps=1e-05, momentum=0.1, affine=True, track_running_stats=True)
  (bn3): BatchNorm1d(44, eps=1e-05, momentum=0.1, affine=True, track_running_stats=True)
  (bn4): BatchNorm1d(101, eps=1e-05, momentum=0.1, affine=True, track_running_stats=True)
  (bn5): BatchNorm1d(810, eps=1e-05, momentum=0.1, affine=True, track_running_stats=True)
  (linear1): Linear(in_features=810, out_features=186, bias=False)
  (bn6): BatchNorm1d(186, eps=1e-05, momentum=0.1, affine=True, track_running_stats=True)
  (dp1): Dropout(p=0.5, inplace=False)
  (linear2): Linear(in_features=186, out_features=40, bias=True)
)
[02/23 04:05:59] modelnet40-global-group_sl-3.0-pointnet INFO: Params: 1.35 M => 0.25 M (18.63%)
[02/23 04:05:59] modelnet40-global-group_sl-3.0-pointnet INFO: FLOPs: 291.33 M => 96.11 M (32.99%, 3.03X )
[02/23 04:05:59] modelnet40-global-group_sl-3.0-pointnet INFO: Acc: 0.8926 => 0.3132
[02/23 04:05:59] modelnet40-global-group_sl-3.0-pointnet INFO: Val Loss: 0.3672 => 4.7954
…
