…
[02/22 11:54:08 modelnet40-global-random-2.0-pointnet]: iterative_steps: 400
[02/22 11:54:08 modelnet40-global-random-2.0-pointnet]: logger: <Logger modelnet40-global-random-2.0-pointnet (DEBUG)>
[02/22 11:54:08 modelnet40-global-random-2.0-pointnet]: device: cuda
[02/22 11:54:08 modelnet40-global-random-2.0-pointnet]: num_classes: 40
[02/22 11:54:08 modelnet40-global-random-2.0-pointnet]: Loading model from run/modelnet40/pretrain/modelnet40_pointnet.pth
[02/22 11:54:09 modelnet40-global-random-2.0-pointnet]: Pruning...
[02/22 11:54:11 modelnet40-global-random-2.0-pointnet]: PointNet(
  (conv1): Conv1d(3, 4, kernel_size=(1,), stride=(1,), bias=False)
  (conv2): Conv1d(4, 4, kernel_size=(1,), stride=(1,), bias=False)
  (conv3): Conv1d(4, 4, kernel_size=(1,), stride=(1,), bias=False)
  (conv4): Conv1d(4, 68, kernel_size=(1,), stride=(1,), bias=False)
  (conv5): Conv1d(68, 1988, kernel_size=(1,), stride=(1,), bias=False)
  (bn1): BatchNorm1d(4, eps=1e-05, momentum=0.1, affine=True, track_running_stats=True)
  (bn2): BatchNorm1d(4, eps=1e-05, momentum=0.1, affine=True, track_running_stats=True)
  (bn3): BatchNorm1d(4, eps=1e-05, momentum=0.1, affine=True, track_running_stats=True)
  (bn4): BatchNorm1d(68, eps=1e-05, momentum=0.1, affine=True, track_running_stats=True)
  (bn5): BatchNorm1d(1988, eps=1e-05, momentum=0.1, affine=True, track_running_stats=True)
  (linear1): Linear(in_features=1988, out_features=452, bias=False)
  (bn6): BatchNorm1d(452, eps=1e-05, momentum=0.1, affine=True, track_running_stats=True)
  (dp1): Dropout(p=0.5, inplace=False)
  (linear2): Linear(in_features=452, out_features=40, bias=True)
)
[02/22 11:54:12 modelnet40-global-random-2.0-pointnet]: Params: 1.35 M => 1.06 M (78.11%)
[02/22 11:54:12 modelnet40-global-random-2.0-pointnet]: FLOPs: 291.33 M => 143.90 M (49.40%, 2.02X )
[02/22 11:54:12 modelnet40-global-random-2.0-pointnet]: Acc: 0.8861 => 0.0405
[02/22 11:54:12 modelnet40-global-random-2.0-pointnet]: Val Loss: 0.3951 => 16.5222
[02/22 11:54:12 modelnet40-global-random-2.0-pointnet]: Finetuning...
…
[02/22 12:16:25 modelnet40-global-l2-2.0-pointnet]: sl_restore: None
[02/22 12:16:25 modelnet40-global-l2-2.0-pointnet]: iterative_steps: 400
[02/22 12:16:25 modelnet40-global-l2-2.0-pointnet]: logger: <Logger modelnet40-global-l2-2.0-pointnet (DEBUG)>
[02/22 12:16:25 modelnet40-global-l2-2.0-pointnet]: device: cuda
[02/22 12:16:25 modelnet40-global-l2-2.0-pointnet]: num_classes: 40
[02/22 12:16:25 modelnet40-global-l2-2.0-pointnet]: Loading model from run/modelnet40/pretrain/modelnet40_pointnet.pth
[02/22 12:16:26 modelnet40-global-l2-2.0-pointnet]: Pruning...
[02/22 12:16:30 modelnet40-global-l2-2.0-pointnet]: PointNet(
  (conv1): Conv1d(3, 46, kernel_size=(1,), stride=(1,), bias=False)
  (conv2): Conv1d(46, 58, kernel_size=(1,), stride=(1,), bias=False)
  (conv3): Conv1d(58, 44, kernel_size=(1,), stride=(1,), bias=False)
  (conv4): Conv1d(44, 115, kernel_size=(1,), stride=(1,), bias=False)
  (conv5): Conv1d(115, 1120, kernel_size=(1,), stride=(1,), bias=False)
  (bn1): BatchNorm1d(46, eps=1e-05, momentum=0.1, affine=True, track_running_stats=True)
  (bn2): BatchNorm1d(58, eps=1e-05, momentum=0.1, affine=True, track_running_stats=True)
  (bn3): BatchNorm1d(44, eps=1e-05, momentum=0.1, affine=True, track_running_stats=True)
  (bn4): BatchNorm1d(115, eps=1e-05, momentum=0.1, affine=True, track_running_stats=True)
  (bn5): BatchNorm1d(1120, eps=1e-05, momentum=0.1, affine=True, track_running_stats=True)
  (linear1): Linear(in_features=1120, out_features=186, bias=False)
  (bn6): BatchNorm1d(186, eps=1e-05, momentum=0.1, affine=True, track_running_stats=True)
  (dp1): Dropout(p=0.5, inplace=False)
  (linear2): Linear(in_features=186, out_features=40, bias=True)
)
[02/22 12:16:31 modelnet40-global-l2-2.0-pointnet]: Params: 1.35 M => 0.36 M (26.46%)
[02/22 12:16:31 modelnet40-global-l2-2.0-pointnet]: FLOPs: 291.33 M => 145.61 M (49.98%, 2.00X )
[02/22 12:16:31 modelnet40-global-l2-2.0-pointnet]: Acc: 0.8861 => 0.5142
[02/22 12:16:31 modelnet40-global-l2-2.0-pointnet]: Val Loss: 0.3951 => 1.8146
[02/22 12:16:31 modelnet40-global-l2-2.0-pointnet]: Finetuning...
…
[02/22 12:37:32 modelnet40-global-fpgm-2.0-pointnet]: sl_restore: None
[02/22 12:37:32 modelnet40-global-fpgm-2.0-pointnet]: iterative_steps: 400
[02/22 12:37:32 modelnet40-global-fpgm-2.0-pointnet]: logger: <Logger modelnet40-global-fpgm-2.0-pointnet (DEBUG)>
[02/22 12:37:32 modelnet40-global-fpgm-2.0-pointnet]: device: cuda
[02/22 12:37:32 modelnet40-global-fpgm-2.0-pointnet]: num_classes: 40
[02/22 12:37:32 modelnet40-global-fpgm-2.0-pointnet]: Loading model from run/modelnet40/pretrain/modelnet40_pointnet.pth
[02/22 12:37:33 modelnet40-global-fpgm-2.0-pointnet]: Pruning...
[02/22 12:37:37 modelnet40-global-fpgm-2.0-pointnet]: PointNet(
  (conv1): Conv1d(3, 64, kernel_size=(1,), stride=(1,), bias=False)
  (conv2): Conv1d(64, 64, kernel_size=(1,), stride=(1,), bias=False)
  (conv3): Conv1d(64, 61, kernel_size=(1,), stride=(1,), bias=False)
  (conv4): Conv1d(61, 113, kernel_size=(1,), stride=(1,), bias=False)
  (conv5): Conv1d(113, 1088, kernel_size=(1,), stride=(1,), bias=False)
  (bn1): BatchNorm1d(64, eps=1e-05, momentum=0.1, affine=True, track_running_stats=True)
  (bn2): BatchNorm1d(64, eps=1e-05, momentum=0.1, affine=True, track_running_stats=True)
  (bn3): BatchNorm1d(61, eps=1e-05, momentum=0.1, affine=True, track_running_stats=True)
  (bn4): BatchNorm1d(113, eps=1e-05, momentum=0.1, affine=True, track_running_stats=True)
  (bn5): BatchNorm1d(1088, eps=1e-05, momentum=0.1, affine=True, track_running_stats=True)
  (linear1): Linear(in_features=1088, out_features=230, bias=False)
  (bn6): BatchNorm1d(230, eps=1e-05, momentum=0.1, affine=True, track_running_stats=True)
  (dp1): Dropout(p=0.5, inplace=False)
  (linear2): Linear(in_features=230, out_features=40, bias=True)
)
[02/22 12:37:38 modelnet40-global-fpgm-2.0-pointnet]: Params: 1.35 M => 0.40 M (29.61%)
[02/22 12:37:38 modelnet40-global-fpgm-2.0-pointnet]: FLOPs: 291.33 M => 144.45 M (49.58%, 2.02X )
[02/22 12:37:38 modelnet40-global-fpgm-2.0-pointnet]: Acc: 0.8861 => 0.4003
[02/22 12:37:38 modelnet40-global-fpgm-2.0-pointnet]: Val Loss: 0.3951 => 2.9519
[02/22 12:37:38 modelnet40-global-fpgm-2.0-pointnet]: Finetuning...
…
[02/22 12:58:46 modelnet40-global-lamp-2.0-pointnet]: sl_restore: None
[02/22 12:58:46 modelnet40-global-lamp-2.0-pointnet]: iterative_steps: 400
[02/22 12:58:46 modelnet40-global-lamp-2.0-pointnet]: logger: <Logger modelnet40-global-lamp-2.0-pointnet (DEBUG)>
[02/22 12:58:46 modelnet40-global-lamp-2.0-pointnet]: device: cuda
[02/22 12:58:46 modelnet40-global-lamp-2.0-pointnet]: num_classes: 40
[02/22 12:58:46 modelnet40-global-lamp-2.0-pointnet]: Loading model from run/modelnet40/pretrain/modelnet40_pointnet.pth
[02/22 12:58:48 modelnet40-global-lamp-2.0-pointnet]: Pruning...
[02/22 12:58:52 modelnet40-global-lamp-2.0-pointnet]: PointNet(
  (conv1): Conv1d(3, 59, kernel_size=(1,), stride=(1,), bias=False)
  (conv2): Conv1d(59, 64, kernel_size=(1,), stride=(1,), bias=False)
  (conv3): Conv1d(64, 60, kernel_size=(1,), stride=(1,), bias=False)
  (conv4): Conv1d(60, 127, kernel_size=(1,), stride=(1,), bias=False)
  (conv5): Conv1d(127, 974, kernel_size=(1,), stride=(1,), bias=False)
  (bn1): BatchNorm1d(59, eps=1e-05, momentum=0.1, affine=True, track_running_stats=True)
  (bn2): BatchNorm1d(64, eps=1e-05, momentum=0.1, affine=True, track_running_stats=True)
  (bn3): BatchNorm1d(60, eps=1e-05, momentum=0.1, affine=True, track_running_stats=True)
  (bn4): BatchNorm1d(127, eps=1e-05, momentum=0.1, affine=True, track_running_stats=True)
  (bn5): BatchNorm1d(974, eps=1e-05, momentum=0.1, affine=True, track_running_stats=True)
  (linear1): Linear(in_features=974, out_features=191, bias=False)
  (bn6): BatchNorm1d(191, eps=1e-05, momentum=0.1, affine=True, track_running_stats=True)
  (dp1): Dropout(p=0.5, inplace=False)
  (linear2): Linear(in_features=191, out_features=40, bias=True)
)
[02/22 12:58:52 modelnet40-global-lamp-2.0-pointnet]: Params: 1.35 M => 0.34 M (24.81%)
[02/22 12:58:52 modelnet40-global-lamp-2.0-pointnet]: FLOPs: 291.33 M => 145.27 M (49.87%, 2.01X )
[02/22 12:58:52 modelnet40-global-lamp-2.0-pointnet]: Acc: 0.8861 => 0.3302
[02/22 12:58:52 modelnet40-global-lamp-2.0-pointnet]: Val Loss: 0.3951 => 3.4192
[02/22 12:58:52 modelnet40-global-lamp-2.0-pointnet]: Finetuning...
…
[02/22 13:42:12 modelnet40-global-slim-2.0-pointnet]: Epoch 98/100, Acc=0.8918, Val Loss=0.3738, lr=0.0001
[02/22 13:42:25 modelnet40-global-slim-2.0-pointnet]: Epoch 99/100, Acc=0.8865, Val Loss=0.3728, lr=0.0001
[02/22 13:42:25 modelnet40-global-slim-2.0-pointnet]: Best Acc=0.8918
[02/22 13:42:25 modelnet40-global-slim-2.0-pointnet]: Loading the sparse model from run/modelnet40/prune/modelnet40-global-slim-2.0-pointnet/reg_modelnet40_pointnet_slim_1e-05.pth...
[02/22 13:42:26 modelnet40-global-slim-2.0-pointnet]: Pruning...
[02/22 13:42:29 modelnet40-global-slim-2.0-pointnet]: PointNet(
  (conv1): Conv1d(3, 45, kernel_size=(1,), stride=(1,), bias=False)
  (conv2): Conv1d(45, 55, kernel_size=(1,), stride=(1,), bias=False)
  (conv3): Conv1d(55, 39, kernel_size=(1,), stride=(1,), bias=False)
  (conv4): Conv1d(39, 113, kernel_size=(1,), stride=(1,), bias=False)
  (conv5): Conv1d(113, 1146, kernel_size=(1,), stride=(1,), bias=False)
  (bn1): BatchNorm1d(45, eps=1e-05, momentum=0.1, affine=True, track_running_stats=True)
  (bn2): BatchNorm1d(55, eps=1e-05, momentum=0.1, affine=True, track_running_stats=True)
  (bn3): BatchNorm1d(39, eps=1e-05, momentum=0.1, affine=True, track_running_stats=True)
  (bn4): BatchNorm1d(113, eps=1e-05, momentum=0.1, affine=True, track_running_stats=True)
  (bn5): BatchNorm1d(1146, eps=1e-05, momentum=0.1, affine=True, track_running_stats=True)
  (linear1): Linear(in_features=1146, out_features=186, bias=False)
  (bn6): BatchNorm1d(186, eps=1e-05, momentum=0.1, affine=True, track_running_stats=True)
  (dp1): Dropout(p=0.5, inplace=False)
  (linear2): Linear(in_features=186, out_features=40, bias=True)
)
[02/22 13:42:30 modelnet40-global-slim-2.0-pointnet]: Params: 1.35 M => 0.36 M (26.78%)
[02/22 13:42:30 modelnet40-global-slim-2.0-pointnet]: FLOPs: 291.33 M => 145.07 M (49.80%, 2.01X )
[02/22 13:42:30 modelnet40-global-slim-2.0-pointnet]: Acc: 0.8918 => 0.6268
[02/22 13:42:30 modelnet40-global-slim-2.0-pointnet]: Val Loss: 0.3738 => 1.3060
[02/22 13:42:30 modelnet40-global-slim-2.0-pointnet]: Finetuning...
…
[02/22 15:00:36 modelnet40-global-group_sl-2.0-pointnet]: Epoch 98/100, Acc=0.8926, Val Loss=0.3682, lr=0.0001
[02/22 15:00:58 modelnet40-global-group_sl-2.0-pointnet]: Epoch 99/100, Acc=0.8910, Val Loss=0.3672, lr=0.0001
[02/22 15:00:58 modelnet40-global-group_sl-2.0-pointnet]: Best Acc=0.8938
[02/22 15:00:58 modelnet40-global-group_sl-2.0-pointnet]: Loading the sparse model from run/modelnet40/prune/modelnet40-global-group_sl-2.0-pointnet/reg_modelnet40_pointnet_group_sl_1e-05.pth...
[02/22 15:00:59 modelnet40-global-group_sl-2.0-pointnet]: Pruning...
[02/22 15:01:03 modelnet40-global-group_sl-2.0-pointnet]: PointNet(
  (conv1): Conv1d(3, 50, kernel_size=(1,), stride=(1,), bias=False)
  (conv2): Conv1d(50, 59, kernel_size=(1,), stride=(1,), bias=False)
  (conv3): Conv1d(59, 47, kernel_size=(1,), stride=(1,), bias=False)
  (conv4): Conv1d(47, 117, kernel_size=(1,), stride=(1,), bias=False)
  (conv5): Conv1d(117, 1087, kernel_size=(1,), stride=(1,), bias=False)
  (bn1): BatchNorm1d(50, eps=1e-05, momentum=0.1, affine=True, track_running_stats=True)
  (bn2): BatchNorm1d(59, eps=1e-05, momentum=0.1, affine=True, track_running_stats=True)
  (bn3): BatchNorm1d(47, eps=1e-05, momentum=0.1, affine=True, track_running_stats=True)
  (bn4): BatchNorm1d(117, eps=1e-05, momentum=0.1, affine=True, track_running_stats=True)
  (bn5): BatchNorm1d(1087, eps=1e-05, momentum=0.1, affine=True, track_running_stats=True)
  (linear1): Linear(in_features=1087, out_features=188, bias=False)
  (bn6): BatchNorm1d(188, eps=1e-05, momentum=0.1, affine=True, track_running_stats=True)
  (dp1): Dropout(p=0.5, inplace=False)
  (linear2): Linear(in_features=188, out_features=40, bias=True)
)
[02/22 15:01:03 modelnet40-global-group_sl-2.0-pointnet]: Params: 1.35 M => 0.35 M (26.12%)
[02/22 15:01:03 modelnet40-global-group_sl-2.0-pointnet]: FLOPs: 291.33 M => 144.87 M (49.73%, 2.01X )
[02/22 15:01:03 modelnet40-global-group_sl-2.0-pointnet]: Acc: 0.8938 => 0.5397
[02/22 15:01:03 modelnet40-global-group_sl-2.0-pointnet]: Val Loss: 0.3674 => 1.9965
…
[02/22 15:22:43 modelnet40-global-proj-2.0-pointnet]: sl_restore: None
[02/22 15:22:43 modelnet40-global-proj-2.0-pointnet]: iterative_steps: 400
[02/22 15:22:43 modelnet40-global-proj-2.0-pointnet]: logger: <Logger modelnet40-global-proj-2.0-pointnet (DEBUG)>
[02/22 15:22:43 modelnet40-global-proj-2.0-pointnet]: device: cuda
[02/22 15:22:43 modelnet40-global-proj-2.0-pointnet]: num_classes: 40
[02/22 15:22:43 modelnet40-global-proj-2.0-pointnet]: Loading model from run/modelnet40/pretrain/modelnet40_pointnet.pth
[02/22 15:22:45 modelnet40-global-proj-2.0-pointnet]: Pruning...
[02/22 15:26:57 modelnet40-global-proj-2.0-pointnet]: PointNet(
  (conv1): Conv1d(3, 45, kernel_size=(1,), stride=(1,), bias=False)
  (conv2): Conv1d(45, 56, kernel_size=(1,), stride=(1,), bias=False)
  (conv3): Conv1d(56, 40, kernel_size=(1,), stride=(1,), bias=False)
  (conv4): Conv1d(40, 110, kernel_size=(1,), stride=(1,), bias=False)
  (conv5): Conv1d(110, 1161, kernel_size=(1,), stride=(1,), bias=False)
  (bn1): BatchNorm1d(45, eps=1e-05, momentum=0.1, affine=True, track_running_stats=True)
  (bn2): BatchNorm1d(56, eps=1e-05, momentum=0.1, affine=True, track_running_stats=True)
  (bn3): BatchNorm1d(40, eps=1e-05, momentum=0.1, affine=True, track_running_stats=True)
  (bn4): BatchNorm1d(110, eps=1e-05, momentum=0.1, affine=True, track_running_stats=True)
  (bn5): BatchNorm1d(1161, eps=1e-05, momentum=0.1, affine=True, track_running_stats=True)
  (linear1): Linear(in_features=1161, out_features=186, bias=False)
  (bn6): BatchNorm1d(186, eps=1e-05, momentum=0.1, affine=True, track_running_stats=True)
  (dp1): Dropout(p=0.5, inplace=False)
  (linear2): Linear(in_features=186, out_features=40, bias=True)
)
[02/22 15:26:58 modelnet40-global-proj-2.0-pointnet]: Params: 1.35 M => 0.36 M (26.86%)
[02/22 15:26:58 modelnet40-global-proj-2.0-pointnet]: FLOPs: 291.33 M => 143.41 M (49.23%, 2.03X )
[02/22 15:26:58 modelnet40-global-proj-2.0-pointnet]: Acc: 0.8861 => 0.6503
[02/22 15:26:58 modelnet40-global-proj-2.0-pointnet]: Val Loss: 0.3951 => 1.1891
[02/22 15:26:58 modelnet40-global-proj-2.0-pointnet]: Finetuning...
…
[02/23 10:02:53 modelnet40-global-proj_sl-2.0-pointnet]: Epoch 98/100, Acc=0.8922, Val Loss=0.3745, lr=0.0001
[02/23 10:13:54 modelnet40-global-proj_sl-2.0-pointnet]: Epoch 99/100, Acc=0.8906, Val Loss=0.3738, lr=0.0001
[02/23 10:13:54 modelnet40-global-proj_sl-2.0-pointnet]: Best Acc=0.8934
[02/23 10:13:54 modelnet40-global-proj_sl-2.0-pointnet]: Loading the sparse model from run/modelnet40/prune/modelnet40-global-proj_sl-2.0-pointnet/reg_modelnet40_pointnet_proj_sl_1e-05.pth...
[02/23 10:13:55 modelnet40-global-proj_sl-2.0-pointnet]: Pruning...
[02/23 10:18:10 modelnet40-global-proj_sl-2.0-pointnet]: PointNet(
  (conv1): Conv1d(3, 53, kernel_size=(1,), stride=(1,), bias=False)
  (conv2): Conv1d(53, 60, kernel_size=(1,), stride=(1,), bias=False)
  (conv3): Conv1d(60, 48, kernel_size=(1,), stride=(1,), bias=False)
  (conv4): Conv1d(48, 109, kernel_size=(1,), stride=(1,), bias=False)
  (conv5): Conv1d(109, 1135, kernel_size=(1,), stride=(1,), bias=False)
  (bn1): BatchNorm1d(53, eps=1e-05, momentum=0.1, affine=True, track_running_stats=True)
  (bn2): BatchNorm1d(60, eps=1e-05, momentum=0.1, affine=True, track_running_stats=True)
  (bn3): BatchNorm1d(48, eps=1e-05, momentum=0.1, affine=True, track_running_stats=True)
  (bn4): BatchNorm1d(109, eps=1e-05, momentum=0.1, affine=True, track_running_stats=True)
  (bn5): BatchNorm1d(1135, eps=1e-05, momentum=0.1, affine=True, track_running_stats=True)
  (linear1): Linear(in_features=1135, out_features=186, bias=False)
  (bn6): BatchNorm1d(186, eps=1e-05, momentum=0.1, affine=True, track_running_stats=True)
  (dp1): Dropout(p=0.5, inplace=False)
  (linear2): Linear(in_features=186, out_features=40, bias=True)
)
[02/23 10:18:11 modelnet40-global-proj_sl-2.0-pointnet]: Params: 1.35 M => 0.36 M (26.37%)
[02/23 10:18:11 modelnet40-global-proj_sl-2.0-pointnet]: FLOPs: 291.33 M => 141.51 M (48.57%, 2.06X )
[02/23 10:18:11 modelnet40-global-proj_sl-2.0-pointnet]: Acc: 0.8934 => 0.6313
[02/23 10:18:11 modelnet40-global-proj_sl-2.0-pointnet]: Val Loss: 0.3766 => 1.3743
…
