…
[02/23 01:23:59 modelnet40-global-random-3.0-pointnet]: iterative_steps: 400
[02/23 01:23:59 modelnet40-global-random-3.0-pointnet]: logger: <Logger modelnet40-global-random-3.0-pointnet (DEBUG)>
[02/23 01:23:59 modelnet40-global-random-3.0-pointnet]: device: cuda
[02/23 01:23:59 modelnet40-global-random-3.0-pointnet]: num_classes: 40
[02/23 01:23:59 modelnet40-global-random-3.0-pointnet]: Loading model from run/modelnet40/pretrain/modelnet40_pointnet.pth
[02/23 01:24:00 modelnet40-global-random-3.0-pointnet]: Pruning...
[02/23 01:24:01 modelnet40-global-random-3.0-pointnet]: PointNet(
  (conv1): Conv1d(3, 1, kernel_size=(1,), stride=(1,), bias=False)
  (conv2): Conv1d(1, 1, kernel_size=(1,), stride=(1,), bias=False)
  (conv3): Conv1d(1, 1, kernel_size=(1,), stride=(1,), bias=False)
  (conv4): Conv1d(1, 45, kernel_size=(1,), stride=(1,), bias=False)
  (conv5): Conv1d(45, 1965, kernel_size=(1,), stride=(1,), bias=False)
  (bn1): BatchNorm1d(1, eps=1e-05, momentum=0.1, affine=True, track_running_stats=True)
  (bn2): BatchNorm1d(1, eps=1e-05, momentum=0.1, affine=True, track_running_stats=True)
  (bn3): BatchNorm1d(1, eps=1e-05, momentum=0.1, affine=True, track_running_stats=True)
  (bn4): BatchNorm1d(45, eps=1e-05, momentum=0.1, affine=True, track_running_stats=True)
  (bn5): BatchNorm1d(1965, eps=1e-05, momentum=0.1, affine=True, track_running_stats=True)
  (linear1): Linear(in_features=1965, out_features=429, bias=False)
  (bn6): BatchNorm1d(429, eps=1e-05, momentum=0.1, affine=True, track_running_stats=True)
  (dp1): Dropout(p=0.5, inplace=False)
  (linear2): Linear(in_features=429, out_features=40, bias=True)
)
[02/23 01:24:02 modelnet40-global-random-3.0-pointnet]: Params: 1.35 M => 0.95 M (70.45%)
[02/23 01:24:02 modelnet40-global-random-3.0-pointnet]: FLOPs: 291.33 M => 95.58 M (32.81%, 3.05X )
[02/23 01:24:02 modelnet40-global-random-3.0-pointnet]: Acc: 0.8861 => 0.0405
[02/23 01:24:02 modelnet40-global-random-3.0-pointnet]: Val Loss: 0.3951 => 13.2318
[02/23 01:24:02 modelnet40-global-random-3.0-pointnet]: Finetuning...
…
[02/23 01:42:42 modelnet40-global-l2-3.0-pointnet]: sl_restore: None
[02/23 01:42:42 modelnet40-global-l2-3.0-pointnet]: iterative_steps: 400
[02/23 01:42:42 modelnet40-global-l2-3.0-pointnet]: logger: <Logger modelnet40-global-l2-3.0-pointnet (DEBUG)>
[02/23 01:42:42 modelnet40-global-l2-3.0-pointnet]: device: cuda
[02/23 01:42:42 modelnet40-global-l2-3.0-pointnet]: num_classes: 40
[02/23 01:42:42 modelnet40-global-l2-3.0-pointnet]: Loading model from run/modelnet40/pretrain/modelnet40_pointnet.pth
[02/23 01:42:43 modelnet40-global-l2-3.0-pointnet]: Pruning...
[02/23 01:42:46 modelnet40-global-l2-3.0-pointnet]: PointNet(
  (conv1): Conv1d(3, 44, kernel_size=(1,), stride=(1,), bias=False)
  (conv2): Conv1d(44, 53, kernel_size=(1,), stride=(1,), bias=False)
  (conv3): Conv1d(53, 40, kernel_size=(1,), stride=(1,), bias=False)
  (conv4): Conv1d(40, 100, kernel_size=(1,), stride=(1,), bias=False)
  (conv5): Conv1d(100, 822, kernel_size=(1,), stride=(1,), bias=False)
  (bn1): BatchNorm1d(44, eps=1e-05, momentum=0.1, affine=True, track_running_stats=True)
  (bn2): BatchNorm1d(53, eps=1e-05, momentum=0.1, affine=True, track_running_stats=True)
  (bn3): BatchNorm1d(40, eps=1e-05, momentum=0.1, affine=True, track_running_stats=True)
  (bn4): BatchNorm1d(100, eps=1e-05, momentum=0.1, affine=True, track_running_stats=True)
  (bn5): BatchNorm1d(822, eps=1e-05, momentum=0.1, affine=True, track_running_stats=True)
  (linear1): Linear(in_features=822, out_features=186, bias=False)
  (bn6): BatchNorm1d(186, eps=1e-05, momentum=0.1, affine=True, track_running_stats=True)
  (dp1): Dropout(p=0.5, inplace=False)
  (linear2): Linear(in_features=186, out_features=40, bias=True)
)
[02/23 01:42:47 modelnet40-global-l2-3.0-pointnet]: Params: 1.35 M => 0.25 M (18.74%)
[02/23 01:42:47 modelnet40-global-l2-3.0-pointnet]: FLOPs: 291.33 M => 95.29 M (32.71%, 3.06X )
[02/23 01:42:47 modelnet40-global-l2-3.0-pointnet]: Acc: 0.8861 => 0.2338
[02/23 01:42:47 modelnet40-global-l2-3.0-pointnet]: Val Loss: 0.3951 => 4.6835
[02/23 01:42:47 modelnet40-global-l2-3.0-pointnet]: Finetuning...
…
[02/23 02:01:43 modelnet40-global-fpgm-3.0-pointnet]: sl_restore: None
[02/23 02:01:43 modelnet40-global-fpgm-3.0-pointnet]: iterative_steps: 400
[02/23 02:01:43 modelnet40-global-fpgm-3.0-pointnet]: logger: <Logger modelnet40-global-fpgm-3.0-pointnet (DEBUG)>
[02/23 02:01:43 modelnet40-global-fpgm-3.0-pointnet]: device: cuda
[02/23 02:01:43 modelnet40-global-fpgm-3.0-pointnet]: num_classes: 40
[02/23 02:01:43 modelnet40-global-fpgm-3.0-pointnet]: Loading model from run/modelnet40/pretrain/modelnet40_pointnet.pth
[02/23 02:01:43 modelnet40-global-fpgm-3.0-pointnet]: Pruning...
[02/23 02:01:48 modelnet40-global-fpgm-3.0-pointnet]: PointNet(
  (conv1): Conv1d(3, 64, kernel_size=(1,), stride=(1,), bias=False)
  (conv2): Conv1d(64, 64, kernel_size=(1,), stride=(1,), bias=False)
  (conv3): Conv1d(64, 54, kernel_size=(1,), stride=(1,), bias=False)
  (conv4): Conv1d(54, 94, kernel_size=(1,), stride=(1,), bias=False)
  (conv5): Conv1d(94, 833, kernel_size=(1,), stride=(1,), bias=False)
  (bn1): BatchNorm1d(64, eps=1e-05, momentum=0.1, affine=True, track_running_stats=True)
  (bn2): BatchNorm1d(64, eps=1e-05, momentum=0.1, affine=True, track_running_stats=True)
  (bn3): BatchNorm1d(54, eps=1e-05, momentum=0.1, affine=True, track_running_stats=True)
  (bn4): BatchNorm1d(94, eps=1e-05, momentum=0.1, affine=True, track_running_stats=True)
  (bn5): BatchNorm1d(833, eps=1e-05, momentum=0.1, affine=True, track_running_stats=True)
  (linear1): Linear(in_features=833, out_features=230, bias=False)
  (bn6): BatchNorm1d(230, eps=1e-05, momentum=0.1, affine=True, track_running_stats=True)
  (dp1): Dropout(p=0.5, inplace=False)
  (linear2): Linear(in_features=230, out_features=40, bias=True)
)
[02/23 02:01:49 modelnet40-global-fpgm-3.0-pointnet]: Params: 1.35 M => 0.29 M (21.77%)
[02/23 02:01:49 modelnet40-global-fpgm-3.0-pointnet]: FLOPs: 291.33 M => 95.78 M (32.88%, 3.04X )
[02/23 02:01:49 modelnet40-global-fpgm-3.0-pointnet]: Acc: 0.8861 => 0.2322
[02/23 02:01:49 modelnet40-global-fpgm-3.0-pointnet]: Val Loss: 0.3951 => 5.9093
[02/23 02:01:49 modelnet40-global-fpgm-3.0-pointnet]: Finetuning...
…
[02/23 02:20:43 modelnet40-global-lamp-3.0-pointnet]: sl_restore: None
[02/23 02:20:43 modelnet40-global-lamp-3.0-pointnet]: iterative_steps: 400
[02/23 02:20:43 modelnet40-global-lamp-3.0-pointnet]: logger: <Logger modelnet40-global-lamp-3.0-pointnet (DEBUG)>
[02/23 02:20:43 modelnet40-global-lamp-3.0-pointnet]: device: cuda
[02/23 02:20:43 modelnet40-global-lamp-3.0-pointnet]: num_classes: 40
[02/23 02:20:43 modelnet40-global-lamp-3.0-pointnet]: Loading model from run/modelnet40/pretrain/modelnet40_pointnet.pth
[02/23 02:20:44 modelnet40-global-lamp-3.0-pointnet]: Pruning...
[02/23 02:20:49 modelnet40-global-lamp-3.0-pointnet]: PointNet(
  (conv1): Conv1d(3, 58, kernel_size=(1,), stride=(1,), bias=False)
  (conv2): Conv1d(58, 64, kernel_size=(1,), stride=(1,), bias=False)
  (conv3): Conv1d(64, 59, kernel_size=(1,), stride=(1,), bias=False)
  (conv4): Conv1d(59, 126, kernel_size=(1,), stride=(1,), bias=False)
  (conv5): Conv1d(126, 613, kernel_size=(1,), stride=(1,), bias=False)
  (bn1): BatchNorm1d(58, eps=1e-05, momentum=0.1, affine=True, track_running_stats=True)
  (bn2): BatchNorm1d(64, eps=1e-05, momentum=0.1, affine=True, track_running_stats=True)
  (bn3): BatchNorm1d(59, eps=1e-05, momentum=0.1, affine=True, track_running_stats=True)
  (bn4): BatchNorm1d(126, eps=1e-05, momentum=0.1, affine=True, track_running_stats=True)
  (bn5): BatchNorm1d(613, eps=1e-05, momentum=0.1, affine=True, track_running_stats=True)
  (linear1): Linear(in_features=613, out_features=188, bias=False)
  (bn6): BatchNorm1d(188, eps=1e-05, momentum=0.1, affine=True, track_running_stats=True)
  (dp1): Dropout(p=0.5, inplace=False)
  (linear2): Linear(in_features=188, out_features=40, bias=True)
)
[02/23 02:20:49 modelnet40-global-lamp-3.0-pointnet]: Params: 1.35 M => 0.22 M (16.06%)
[02/23 02:20:49 modelnet40-global-lamp-3.0-pointnet]: FLOPs: 291.33 M => 96.56 M (33.14%, 3.02X )
[02/23 02:20:49 modelnet40-global-lamp-3.0-pointnet]: Acc: 0.8861 => 0.1629
[02/23 02:20:49 modelnet40-global-lamp-3.0-pointnet]: Val Loss: 0.3951 => 9.1120
[02/23 02:20:49 modelnet40-global-lamp-3.0-pointnet]: Finetuning...
…
[02/23 02:58:19 modelnet40-global-slim-3.0-pointnet]: Epoch 98/100, Acc=0.8918, Val Loss=0.3681, lr=0.0001
[02/23 02:58:31 modelnet40-global-slim-3.0-pointnet]: Epoch 99/100, Acc=0.8930, Val Loss=0.3668, lr=0.0001
[02/23 02:58:31 modelnet40-global-slim-3.0-pointnet]: Best Acc=0.8930
[02/23 02:58:31 modelnet40-global-slim-3.0-pointnet]: Loading the sparse model from run/modelnet40/prune/modelnet40-global-slim-3.0-pointnet/reg_modelnet40_pointnet_slim_1e-05.pth...
[02/23 02:58:31 modelnet40-global-slim-3.0-pointnet]: Pruning...
[02/23 02:58:35 modelnet40-global-slim-3.0-pointnet]: PointNet(
  (conv1): Conv1d(3, 41, kernel_size=(1,), stride=(1,), bias=False)
  (conv2): Conv1d(41, 46, kernel_size=(1,), stride=(1,), bias=False)
  (conv3): Conv1d(46, 33, kernel_size=(1,), stride=(1,), bias=False)
  (conv4): Conv1d(33, 98, kernel_size=(1,), stride=(1,), bias=False)
  (conv5): Conv1d(98, 863, kernel_size=(1,), stride=(1,), bias=False)
  (bn1): BatchNorm1d(41, eps=1e-05, momentum=0.1, affine=True, track_running_stats=True)
  (bn2): BatchNorm1d(46, eps=1e-05, momentum=0.1, affine=True, track_running_stats=True)
  (bn3): BatchNorm1d(33, eps=1e-05, momentum=0.1, affine=True, track_running_stats=True)
  (bn4): BatchNorm1d(98, eps=1e-05, momentum=0.1, affine=True, track_running_stats=True)
  (bn5): BatchNorm1d(863, eps=1e-05, momentum=0.1, affine=True, track_running_stats=True)
  (linear1): Linear(in_features=863, out_features=186, bias=False)
  (bn6): BatchNorm1d(186, eps=1e-05, momentum=0.1, affine=True, track_running_stats=True)
  (dp1): Dropout(p=0.5, inplace=False)
  (linear2): Linear(in_features=186, out_features=40, bias=True)
)
[02/23 02:58:35 modelnet40-global-slim-3.0-pointnet]: Params: 1.35 M => 0.26 M (19.35%)
[02/23 02:58:35 modelnet40-global-slim-3.0-pointnet]: FLOPs: 291.33 M => 95.91 M (32.92%, 3.04X )
[02/23 02:58:35 modelnet40-global-slim-3.0-pointnet]: Acc: 0.8930 => 0.2257
[02/23 02:58:35 modelnet40-global-slim-3.0-pointnet]: Val Loss: 0.3693 => 4.2157
[02/23 02:58:35 modelnet40-global-slim-3.0-pointnet]: Finetuning...
…
[02/23 04:05:36 modelnet40-global-group_sl-3.0-pointnet]: Epoch 98/100, Acc=0.8906, Val Loss=0.3724, lr=0.0001
[02/23 04:05:53 modelnet40-global-group_sl-3.0-pointnet]: Epoch 99/100, Acc=0.8902, Val Loss=0.3705, lr=0.0001
[02/23 04:05:53 modelnet40-global-group_sl-3.0-pointnet]: Best Acc=0.8926
[02/23 04:05:53 modelnet40-global-group_sl-3.0-pointnet]: Loading the sparse model from run/modelnet40/prune/modelnet40-global-group_sl-3.0-pointnet/reg_modelnet40_pointnet_group_sl_1e-05.pth...
[02/23 04:05:54 modelnet40-global-group_sl-3.0-pointnet]: Pruning...
[02/23 04:05:58 modelnet40-global-group_sl-3.0-pointnet]: PointNet(
  (conv1): Conv1d(3, 47, kernel_size=(1,), stride=(1,), bias=False)
  (conv2): Conv1d(47, 57, kernel_size=(1,), stride=(1,), bias=False)
  (conv3): Conv1d(57, 44, kernel_size=(1,), stride=(1,), bias=False)
  (conv4): Conv1d(44, 101, kernel_size=(1,), stride=(1,), bias=False)
  (conv5): Conv1d(101, 810, kernel_size=(1,), stride=(1,), bias=False)
  (bn1): BatchNorm1d(47, eps=1e-05, momentum=0.1, affine=True, track_running_stats=True)
  (bn2): BatchNorm1d(57, eps=1e-05, momentum=0.1, affine=True, track_running_stats=True)
  (bn3): BatchNorm1d(44, eps=1e-05, momentum=0.1, affine=True, track_running_stats=True)
  (bn4): BatchNorm1d(101, eps=1e-05, momentum=0.1, affine=True, track_running_stats=True)
  (bn5): BatchNorm1d(810, eps=1e-05, momentum=0.1, affine=True, track_running_stats=True)
  (linear1): Linear(in_features=810, out_features=186, bias=False)
  (bn6): BatchNorm1d(186, eps=1e-05, momentum=0.1, affine=True, track_running_stats=True)
  (dp1): Dropout(p=0.5, inplace=False)
  (linear2): Linear(in_features=186, out_features=40, bias=True)
)
[02/23 04:05:59 modelnet40-global-group_sl-3.0-pointnet]: Params: 1.35 M => 0.25 M (18.63%)
[02/23 04:05:59 modelnet40-global-group_sl-3.0-pointnet]: FLOPs: 291.33 M => 96.11 M (32.99%, 3.03X )
[02/23 04:05:59 modelnet40-global-group_sl-3.0-pointnet]: Acc: 0.8926 => 0.3132
[02/23 04:05:59 modelnet40-global-group_sl-3.0-pointnet]: Val Loss: 0.3672 => 4.7954
…
[02/23 04:25:35 modelnet40-global-proj-3.0-pointnet]: sl_restore: None
[02/23 04:25:35 modelnet40-global-proj-3.0-pointnet]: iterative_steps: 400
[02/23 04:25:35 modelnet40-global-proj-3.0-pointnet]: logger: <Logger modelnet40-global-proj-3.0-pointnet (DEBUG)>
[02/23 04:25:35 modelnet40-global-proj-3.0-pointnet]: device: cuda
[02/23 04:25:35 modelnet40-global-proj-3.0-pointnet]: num_classes: 40
[02/23 04:25:35 modelnet40-global-proj-3.0-pointnet]: Loading model from run/modelnet40/pretrain/modelnet40_pointnet.pth
[02/23 04:25:36 modelnet40-global-proj-3.0-pointnet]: Pruning...
[02/23 04:28:59 modelnet40-global-proj-3.0-pointnet]: PointNet(
  (conv1): Conv1d(3, 43, kernel_size=(1,), stride=(1,), bias=False)
  (conv2): Conv1d(43, 46, kernel_size=(1,), stride=(1,), bias=False)
  (conv3): Conv1d(46, 35, kernel_size=(1,), stride=(1,), bias=False)
  (conv4): Conv1d(35, 96, kernel_size=(1,), stride=(1,), bias=False)
  (conv5): Conv1d(96, 882, kernel_size=(1,), stride=(1,), bias=False)
  (bn1): BatchNorm1d(43, eps=1e-05, momentum=0.1, affine=True, track_running_stats=True)
  (bn2): BatchNorm1d(46, eps=1e-05, momentum=0.1, affine=True, track_running_stats=True)
  (bn3): BatchNorm1d(35, eps=1e-05, momentum=0.1, affine=True, track_running_stats=True)
  (bn4): BatchNorm1d(96, eps=1e-05, momentum=0.1, affine=True, track_running_stats=True)
  (bn5): BatchNorm1d(882, eps=1e-05, momentum=0.1, affine=True, track_running_stats=True)
  (linear1): Linear(in_features=882, out_features=186, bias=False)
  (bn6): BatchNorm1d(186, eps=1e-05, momentum=0.1, affine=True, track_running_stats=True)
  (dp1): Dropout(p=0.5, inplace=False)
  (linear2): Linear(in_features=186, out_features=40, bias=True)
)
[02/23 04:29:00 modelnet40-global-proj-3.0-pointnet]: Params: 1.35 M => 0.27 M (19.64%)
[02/23 04:29:00 modelnet40-global-proj-3.0-pointnet]: FLOPs: 291.33 M => 96.38 M (33.08%, 3.02X )
[02/23 04:29:00 modelnet40-global-proj-3.0-pointnet]: Acc: 0.8861 => 0.2690
[02/23 04:29:00 modelnet40-global-proj-3.0-pointnet]: Val Loss: 0.3951 => 3.5568
[02/23 04:29:00 modelnet40-global-proj-3.0-pointnet]: Finetuning...
…
[02/23 15:49:27 modelnet40-global-proj_sl-3.0-pointnet]: Epoch 98/100, Acc=0.8922, Val Loss=0.3697, lr=0.0001
[02/23 15:56:04 modelnet40-global-proj_sl-3.0-pointnet]: Epoch 99/100, Acc=0.8886, Val Loss=0.3691, lr=0.0001
[02/23 15:56:04 modelnet40-global-proj_sl-3.0-pointnet]: Best Acc=0.8930
[02/23 15:56:04 modelnet40-global-proj_sl-3.0-pointnet]: Loading the sparse model from run/modelnet40/prune/modelnet40-global-proj_sl-3.0-pointnet/reg_modelnet40_pointnet_proj_sl_1e-05.pth...
[02/23 15:56:05 modelnet40-global-proj_sl-3.0-pointnet]: Pruning...
[02/23 15:59:24 modelnet40-global-proj_sl-3.0-pointnet]: PointNet(
  (conv1): Conv1d(3, 49, kernel_size=(1,), stride=(1,), bias=False)
  (conv2): Conv1d(49, 58, kernel_size=(1,), stride=(1,), bias=False)
  (conv3): Conv1d(58, 40, kernel_size=(1,), stride=(1,), bias=False)
  (conv4): Conv1d(40, 92, kernel_size=(1,), stride=(1,), bias=False)
  (conv5): Conv1d(92, 899, kernel_size=(1,), stride=(1,), bias=False)
  (bn1): BatchNorm1d(49, eps=1e-05, momentum=0.1, affine=True, track_running_stats=True)
  (bn2): BatchNorm1d(58, eps=1e-05, momentum=0.1, affine=True, track_running_stats=True)
  (bn3): BatchNorm1d(40, eps=1e-05, momentum=0.1, affine=True, track_running_stats=True)
  (bn4): BatchNorm1d(92, eps=1e-05, momentum=0.1, affine=True, track_running_stats=True)
  (bn5): BatchNorm1d(899, eps=1e-05, momentum=0.1, affine=True, track_running_stats=True)
  (linear1): Linear(in_features=899, out_features=186, bias=False)
  (bn6): BatchNorm1d(186, eps=1e-05, momentum=0.1, affine=True, track_running_stats=True)
  (dp1): Dropout(p=0.5, inplace=False)
  (linear2): Linear(in_features=186, out_features=40, bias=True)
)
[02/23 15:59:25 modelnet40-global-proj_sl-3.0-pointnet]: Params: 1.35 M => 0.27 M (19.88%)
[02/23 15:59:25 modelnet40-global-proj_sl-3.0-pointnet]: FLOPs: 291.33 M => 96.40 M (33.09%, 3.02X )
[02/23 15:59:25 modelnet40-global-proj_sl-3.0-pointnet]: Acc: 0.8930 => 0.4125
[02/23 15:59:25 modelnet40-global-proj_sl-3.0-pointnet]: Val Loss: 0.3711 => 2.7870
…
