…
[02/23 18:05:41 cifar10-global-random-2.0-mobilenetv2]: iterative_steps: 400
[02/23 18:05:41 cifar10-global-random-2.0-mobilenetv2]: logger: <Logger cifar10-global-random-2.0-mobilenetv2 (DEBUG)>
[02/23 18:05:41 cifar10-global-random-2.0-mobilenetv2]: device: cuda
[02/23 18:05:41 cifar10-global-random-2.0-mobilenetv2]: num_classes: 10
[02/23 18:05:41 cifar10-global-random-2.0-mobilenetv2]: Loading model from run/cifar10/pretrain/cifar10_mobilenetv2.pth
[02/23 18:05:44 cifar10-global-random-2.0-mobilenetv2]: Pruning...
[02/23 18:05:51 cifar10-global-random-2.0-mobilenetv2]: MobileNetV2(
  (pre): Sequential(
    (0): Conv2d(3, 1, kernel_size=(1, 1), stride=(1, 1), padding=(1, 1))
    (1): BatchNorm2d(1, eps=1e-05, momentum=0.1, affine=True, track_running_stats=True)
    (2): ReLU6(inplace=True)
  )
  (stage1): LinearBottleNeck(
    (residual): Sequential(
      (0): Conv2d(1, 1, kernel_size=(1, 1), stride=(1, 1))
      (1): BatchNorm2d(1, eps=1e-05, momentum=0.1, affine=True, track_running_stats=True)
      (2): ReLU6(inplace=True)
      (3): Conv2d(1, 1, kernel_size=(3, 3), stride=(1, 1), padding=(1, 1))
      (4): BatchNorm2d(1, eps=1e-05, momentum=0.1, affine=True, track_running_stats=True)
      (5): ReLU6(inplace=True)
      (6): Conv2d(1, 1, kernel_size=(1, 1), stride=(1, 1))
      (7): BatchNorm2d(1, eps=1e-05, momentum=0.1, affine=True, track_running_stats=True)
    )
  )
  (stage2): Sequential(
    (0): LinearBottleNeck(
      (residual): Sequential(
        (0): Conv2d(1, 38, kernel_size=(1, 1), stride=(1, 1))
        (1): BatchNorm2d(38, eps=1e-05, momentum=0.1, affine=True, track_running_stats=True)
        (2): ReLU6(inplace=True)
        (3): Conv2d(38, 38, kernel_size=(3, 3), stride=(2, 2), padding=(1, 1), groups=38)
        (4): BatchNorm2d(38, eps=1e-05, momentum=0.1, affine=True, track_running_stats=True)
        (5): ReLU6(inplace=True)
        (6): Conv2d(38, 1, kernel_size=(1, 1), stride=(1, 1))
        (7): BatchNorm2d(1, eps=1e-05, momentum=0.1, affine=True, track_running_stats=True)
      )
    )
    (1): LinearBottleNeck(
      (residual): Sequential(
        (0): Conv2d(1, 86, kernel_size=(1, 1), stride=(1, 1))
        (1): BatchNorm2d(86, eps=1e-05, momentum=0.1, affine=True, track_running_stats=True)
        (2): ReLU6(inplace=True)
        (3): Conv2d(86, 86, kernel_size=(3, 3), stride=(1, 1), padding=(1, 1), groups=86)
        (4): BatchNorm2d(86, eps=1e-05, momentum=0.1, affine=True, track_running_stats=True)
        (5): ReLU6(inplace=True)
        (6): Conv2d(86, 1, kernel_size=(1, 1), stride=(1, 1))
        (7): BatchNorm2d(1, eps=1e-05, momentum=0.1, affine=True, track_running_stats=True)
      )
    )
  )
  (stage3): Sequential(
    (0): LinearBottleNeck(
      (residual): Sequential(
        (0): Conv2d(1, 86, kernel_size=(1, 1), stride=(1, 1))
        (1): BatchNorm2d(86, eps=1e-05, momentum=0.1, affine=True, track_running_stats=True)
        (2): ReLU6(inplace=True)
        (3): Conv2d(86, 86, kernel_size=(3, 3), stride=(2, 2), padding=(1, 1), groups=86)
        (4): BatchNorm2d(86, eps=1e-05, momentum=0.1, affine=True, track_running_stats=True)
        (5): ReLU6(inplace=True)
        (6): Conv2d(86, 1, kernel_size=(1, 1), stride=(1, 1))
        (7): BatchNorm2d(1, eps=1e-05, momentum=0.1, affine=True, track_running_stats=True)
      )
    )
    (1): LinearBottleNeck(
      (residual): Sequential(
        (0): Conv2d(1, 134, kernel_size=(1, 1), stride=(1, 1))
        (1): BatchNorm2d(134, eps=1e-05, momentum=0.1, affine=True, track_running_stats=True)
        (2): ReLU6(inplace=True)
        (3): Conv2d(134, 134, kernel_size=(3, 3), stride=(1, 1), padding=(1, 1), groups=134)
        (4): BatchNorm2d(134, eps=1e-05, momentum=0.1, affine=True, track_running_stats=True)
        (5): ReLU6(inplace=True)
        (6): Conv2d(134, 1, kernel_size=(1, 1), stride=(1, 1))
        (7): BatchNorm2d(1, eps=1e-05, momentum=0.1, affine=True, track_running_stats=True)
      )
    )
    (2): LinearBottleNeck(
      (residual): Sequential(
        (0): Conv2d(1, 134, kernel_size=(1, 1), stride=(1, 1))
        (1): BatchNorm2d(134, eps=1e-05, momentum=0.1, affine=True, track_running_stats=True)
        (2): ReLU6(inplace=True)
        (3): Conv2d(134, 134, kernel_size=(3, 3), stride=(1, 1), padding=(1, 1), groups=134)
        (4): BatchNorm2d(134, eps=1e-05, momentum=0.1, affine=True, track_running_stats=True)
        (5): ReLU6(inplace=True)
        (6): Conv2d(134, 1, kernel_size=(1, 1), stride=(1, 1))
        (7): BatchNorm2d(1, eps=1e-05, momentum=0.1, affine=True, track_running_stats=True)
      )
    )
  )
  (stage4): Sequential(
    (0): LinearBottleNeck(
      (residual): Sequential(
        (0): Conv2d(1, 134, kernel_size=(1, 1), stride=(1, 1))
        (1): BatchNorm2d(134, eps=1e-05, momentum=0.1, affine=True, track_running_stats=True)
        (2): ReLU6(inplace=True)
        (3): Conv2d(134, 134, kernel_size=(3, 3), stride=(2, 2), padding=(1, 1), groups=134)
        (4): BatchNorm2d(134, eps=1e-05, momentum=0.1, affine=True, track_running_stats=True)
        (5): ReLU6(inplace=True)
        (6): Conv2d(134, 6, kernel_size=(1, 1), stride=(1, 1))
        (7): BatchNorm2d(6, eps=1e-05, momentum=0.1, affine=True, track_running_stats=True)
      )
    )
    (1): LinearBottleNeck(
      (residual): Sequential(
        (0): Conv2d(6, 326, kernel_size=(1, 1), stride=(1, 1))
        (1): BatchNorm2d(326, eps=1e-05, momentum=0.1, affine=True, track_running_stats=True)
        (2): ReLU6(inplace=True)
        (3): Conv2d(326, 326, kernel_size=(3, 3), stride=(1, 1), padding=(1, 1), groups=326)
        (4): BatchNorm2d(326, eps=1e-05, momentum=0.1, affine=True, track_running_stats=True)
        (5): ReLU6(inplace=True)
        (6): Conv2d(326, 6, kernel_size=(1, 1), stride=(1, 1))
        (7): BatchNorm2d(6, eps=1e-05, momentum=0.1, affine=True, track_running_stats=True)
      )
    )
    (2): LinearBottleNeck(
      (residual): Sequential(
        (0): Conv2d(6, 326, kernel_size=(1, 1), stride=(1, 1))
        (1): BatchNorm2d(326, eps=1e-05, momentum=0.1, affine=True, track_running_stats=True)
        (2): ReLU6(inplace=True)
        (3): Conv2d(326, 326, kernel_size=(3, 3), stride=(1, 1), padding=(1, 1), groups=326)
        (4): BatchNorm2d(326, eps=1e-05, momentum=0.1, affine=True, track_running_stats=True)
        (5): ReLU6(inplace=True)
        (6): Conv2d(326, 6, kernel_size=(1, 1), stride=(1, 1))
        (7): BatchNorm2d(6, eps=1e-05, momentum=0.1, affine=True, track_running_stats=True)
      )
    )
    (3): LinearBottleNeck(
      (residual): Sequential(
        (0): Conv2d(6, 326, kernel_size=(1, 1), stride=(1, 1))
        (1): BatchNorm2d(326, eps=1e-05, momentum=0.1, affine=True, track_running_stats=True)
        (2): ReLU6(inplace=True)
        (3): Conv2d(326, 326, kernel_size=(3, 3), stride=(1, 1), padding=(1, 1), groups=326)
        (4): BatchNorm2d(326, eps=1e-05, momentum=0.1, affine=True, track_running_stats=True)
        (5): ReLU6(inplace=True)
        (6): Conv2d(326, 6, kernel_size=(1, 1), stride=(1, 1))
        (7): BatchNorm2d(6, eps=1e-05, momentum=0.1, affine=True, track_running_stats=True)
      )
    )
  )
  (stage5): Sequential(
    (0): LinearBottleNeck(
      (residual): Sequential(
        (0): Conv2d(6, 326, kernel_size=(1, 1), stride=(1, 1))
        (1): BatchNorm2d(326, eps=1e-05, momentum=0.1, affine=True, track_running_stats=True)
        (2): ReLU6(inplace=True)
        (3): Conv2d(326, 326, kernel_size=(3, 3), stride=(1, 1), padding=(1, 1), groups=326)
        (4): BatchNorm2d(326, eps=1e-05, momentum=0.1, affine=True, track_running_stats=True)
        (5): ReLU6(inplace=True)
        (6): Conv2d(326, 38, kernel_size=(1, 1), stride=(1, 1))
        (7): BatchNorm2d(38, eps=1e-05, momentum=0.1, affine=True, track_running_stats=True)
      )
    )
    (1): LinearBottleNeck(
      (residual): Sequential(
        (0): Conv2d(38, 518, kernel_size=(1, 1), stride=(1, 1))
        (1): BatchNorm2d(518, eps=1e-05, momentum=0.1, affine=True, track_running_stats=True)
        (2): ReLU6(inplace=True)
        (3): Conv2d(518, 518, kernel_size=(3, 3), stride=(1, 1), padding=(1, 1), groups=518)
        (4): BatchNorm2d(518, eps=1e-05, momentum=0.1, affine=True, track_running_stats=True)
        (5): ReLU6(inplace=True)
        (6): Conv2d(518, 38, kernel_size=(1, 1), stride=(1, 1))
        (7): BatchNorm2d(38, eps=1e-05, momentum=0.1, affine=True, track_running_stats=True)
      )
    )
    (2): LinearBottleNeck(
      (residual): Sequential(
        (0): Conv2d(38, 518, kernel_size=(1, 1), stride=(1, 1))
        (1): BatchNorm2d(518, eps=1e-05, momentum=0.1, affine=True, track_running_stats=True)
        (2): ReLU6(inplace=True)
        (3): Conv2d(518, 518, kernel_size=(3, 3), stride=(1, 1), padding=(1, 1), groups=518)
        (4): BatchNorm2d(518, eps=1e-05, momentum=0.1, affine=True, track_running_stats=True)
        (5): ReLU6(inplace=True)
        (6): Conv2d(518, 38, kernel_size=(1, 1), stride=(1, 1))
        (7): BatchNorm2d(38, eps=1e-05, momentum=0.1, affine=True, track_running_stats=True)
      )
    )
  )
  (stage6): Sequential(
    (0): LinearBottleNeck(
      (residual): Sequential(
        (0): Conv2d(38, 518, kernel_size=(1, 1), stride=(1, 1))
        (1): BatchNorm2d(518, eps=1e-05, momentum=0.1, affine=True, track_running_stats=True)
        (2): ReLU6(inplace=True)
        (3): Conv2d(518, 518, kernel_size=(3, 3), stride=(1, 1), padding=(1, 1), groups=518)
        (4): BatchNorm2d(518, eps=1e-05, momentum=0.1, affine=True, track_running_stats=True)
        (5): ReLU6(inplace=True)
        (6): Conv2d(518, 102, kernel_size=(1, 1), stride=(1, 1))
        (7): BatchNorm2d(102, eps=1e-05, momentum=0.1, affine=True, track_running_stats=True)
      )
    )
    (1): LinearBottleNeck(
      (residual): Sequential(
        (0): Conv2d(102, 902, kernel_size=(1, 1), stride=(1, 1))
        (1): BatchNorm2d(902, eps=1e-05, momentum=0.1, affine=True, track_running_stats=True)
        (2): ReLU6(inplace=True)
        (3): Conv2d(902, 902, kernel_size=(3, 3), stride=(1, 1), padding=(1, 1), groups=902)
        (4): BatchNorm2d(902, eps=1e-05, momentum=0.1, affine=True, track_running_stats=True)
        (5): ReLU6(inplace=True)
        (6): Conv2d(902, 102, kernel_size=(1, 1), stride=(1, 1))
        (7): BatchNorm2d(102, eps=1e-05, momentum=0.1, affine=True, track_running_stats=True)
      )
    )
    (2): LinearBottleNeck(
      (residual): Sequential(
        (0): Conv2d(102, 902, kernel_size=(1, 1), stride=(1, 1))
        (1): BatchNorm2d(902, eps=1e-05, momentum=0.1, affine=True, track_running_stats=True)
        (2): ReLU6(inplace=True)
        (3): Conv2d(902, 902, kernel_size=(3, 3), stride=(1, 1), padding=(1, 1), groups=902)
        (4): BatchNorm2d(902, eps=1e-05, momentum=0.1, affine=True, track_running_stats=True)
        (5): ReLU6(inplace=True)
        (6): Conv2d(902, 102, kernel_size=(1, 1), stride=(1, 1))
        (7): BatchNorm2d(102, eps=1e-05, momentum=0.1, affine=True, track_running_stats=True)
      )
    )
  )
  (stage7): LinearBottleNeck(
    (residual): Sequential(
      (0): Conv2d(102, 902, kernel_size=(1, 1), stride=(1, 1))
      (1): BatchNorm2d(902, eps=1e-05, momentum=0.1, affine=True, track_running_stats=True)
      (2): ReLU6(inplace=True)
      (3): Conv2d(902, 902, kernel_size=(3, 3), stride=(1, 1), padding=(1, 1), groups=902)
      (4): BatchNorm2d(902, eps=1e-05, momentum=0.1, affine=True, track_running_stats=True)
      (5): ReLU6(inplace=True)
      (6): Conv2d(902, 262, kernel_size=(1, 1), stride=(1, 1))
      (7): BatchNorm2d(262, eps=1e-05, momentum=0.1, affine=True, track_running_stats=True)
    )
  )
  (conv1): Sequential(
    (0): Conv2d(262, 1222, kernel_size=(1, 1), stride=(1, 1))
    (1): BatchNorm2d(1222, eps=1e-05, momentum=0.1, affine=True, track_running_stats=True)
    (2): ReLU6(inplace=True)
  )
  (conv2): Conv2d(1222, 10, kernel_size=(1, 1), stride=(1, 1))
)
[02/23 18:05:54 cifar10-global-random-2.0-mobilenetv2]: Params: 2.25 M => 1.31 M (57.96%)
[02/23 18:05:54 cifar10-global-random-2.0-mobilenetv2]: FLOPs: 68.29 M => 34.03 M (49.84%, 2.01X )
[02/23 18:05:54 cifar10-global-random-2.0-mobilenetv2]: Acc: 0.8936 => 0.1000
[02/23 18:05:54 cifar10-global-random-2.0-mobilenetv2]: Val Loss: 0.3202 => 2.7348
[02/23 18:05:54 cifar10-global-random-2.0-mobilenetv2]: Finetuning...
…
[02/23 18:54:09 cifar10-global-l2-2.0-mobilenetv2]: sl_restore: None
[02/23 18:54:09 cifar10-global-l2-2.0-mobilenetv2]: iterative_steps: 400
[02/23 18:54:09 cifar10-global-l2-2.0-mobilenetv2]: logger: <Logger cifar10-global-l2-2.0-mobilenetv2 (DEBUG)>
[02/23 18:54:09 cifar10-global-l2-2.0-mobilenetv2]: device: cuda
[02/23 18:54:09 cifar10-global-l2-2.0-mobilenetv2]: num_classes: 10
[02/23 18:54:09 cifar10-global-l2-2.0-mobilenetv2]: Loading model from run/cifar10/pretrain/cifar10_mobilenetv2.pth
[02/23 18:54:13 cifar10-global-l2-2.0-mobilenetv2]: Pruning...
[02/23 18:54:36 cifar10-global-l2-2.0-mobilenetv2]: MobileNetV2(
  (pre): Sequential(
    (0): Conv2d(3, 7, kernel_size=(1, 1), stride=(1, 1), padding=(1, 1))
    (1): BatchNorm2d(7, eps=1e-05, momentum=0.1, affine=True, track_running_stats=True)
    (2): ReLU6(inplace=True)
  )
  (stage1): LinearBottleNeck(
    (residual): Sequential(
      (0): Conv2d(7, 17, kernel_size=(1, 1), stride=(1, 1))
      (1): BatchNorm2d(17, eps=1e-05, momentum=0.1, affine=True, track_running_stats=True)
      (2): ReLU6(inplace=True)
      (3): Conv2d(17, 17, kernel_size=(3, 3), stride=(1, 1), padding=(1, 1), groups=17)
      (4): BatchNorm2d(17, eps=1e-05, momentum=0.1, affine=True, track_running_stats=True)
      (5): ReLU6(inplace=True)
      (6): Conv2d(17, 16, kernel_size=(1, 1), stride=(1, 1))
      (7): BatchNorm2d(16, eps=1e-05, momentum=0.1, affine=True, track_running_stats=True)
    )
  )
  (stage2): Sequential(
    (0): LinearBottleNeck(
      (residual): Sequential(
        (0): Conv2d(16, 73, kernel_size=(1, 1), stride=(1, 1))
        (1): BatchNorm2d(73, eps=1e-05, momentum=0.1, affine=True, track_running_stats=True)
        (2): ReLU6(inplace=True)
        (3): Conv2d(73, 73, kernel_size=(3, 3), stride=(2, 2), padding=(1, 1), groups=73)
        (4): BatchNorm2d(73, eps=1e-05, momentum=0.1, affine=True, track_running_stats=True)
        (5): ReLU6(inplace=True)
        (6): Conv2d(73, 24, kernel_size=(1, 1), stride=(1, 1))
        (7): BatchNorm2d(24, eps=1e-05, momentum=0.1, affine=True, track_running_stats=True)
      )
    )
    (1): LinearBottleNeck(
      (residual): Sequential(
        (0): Conv2d(24, 86, kernel_size=(1, 1), stride=(1, 1))
        (1): BatchNorm2d(86, eps=1e-05, momentum=0.1, affine=True, track_running_stats=True)
        (2): ReLU6(inplace=True)
        (3): Conv2d(86, 86, kernel_size=(3, 3), stride=(1, 1), padding=(1, 1), groups=86)
        (4): BatchNorm2d(86, eps=1e-05, momentum=0.1, affine=True, track_running_stats=True)
        (5): ReLU6(inplace=True)
        (6): Conv2d(86, 24, kernel_size=(1, 1), stride=(1, 1))
        (7): BatchNorm2d(24, eps=1e-05, momentum=0.1, affine=True, track_running_stats=True)
      )
    )
  )
  (stage3): Sequential(
    (0): LinearBottleNeck(
      (residual): Sequential(
        (0): Conv2d(24, 60, kernel_size=(1, 1), stride=(1, 1))
        (1): BatchNorm2d(60, eps=1e-05, momentum=0.1, affine=True, track_running_stats=True)
        (2): ReLU6(inplace=True)
        (3): Conv2d(60, 60, kernel_size=(3, 3), stride=(2, 2), padding=(1, 1), groups=60)
        (4): BatchNorm2d(60, eps=1e-05, momentum=0.1, affine=True, track_running_stats=True)
        (5): ReLU6(inplace=True)
        (6): Conv2d(60, 32, kernel_size=(1, 1), stride=(1, 1))
        (7): BatchNorm2d(32, eps=1e-05, momentum=0.1, affine=True, track_running_stats=True)
      )
    )
    (1): LinearBottleNeck(
      (residual): Sequential(
        (0): Conv2d(32, 88, kernel_size=(1, 1), stride=(1, 1))
        (1): BatchNorm2d(88, eps=1e-05, momentum=0.1, affine=True, track_running_stats=True)
        (2): ReLU6(inplace=True)
        (3): Conv2d(88, 88, kernel_size=(3, 3), stride=(1, 1), padding=(1, 1), groups=88)
        (4): BatchNorm2d(88, eps=1e-05, momentum=0.1, affine=True, track_running_stats=True)
        (5): ReLU6(inplace=True)
        (6): Conv2d(88, 32, kernel_size=(1, 1), stride=(1, 1))
        (7): BatchNorm2d(32, eps=1e-05, momentum=0.1, affine=True, track_running_stats=True)
      )
    )
    (2): LinearBottleNeck(
      (residual): Sequential(
        (0): Conv2d(32, 52, kernel_size=(1, 1), stride=(1, 1))
        (1): BatchNorm2d(52, eps=1e-05, momentum=0.1, affine=True, track_running_stats=True)
        (2): ReLU6(inplace=True)
        (3): Conv2d(52, 52, kernel_size=(3, 3), stride=(1, 1), padding=(1, 1), groups=52)
        (4): BatchNorm2d(52, eps=1e-05, momentum=0.1, affine=True, track_running_stats=True)
        (5): ReLU6(inplace=True)
        (6): Conv2d(52, 32, kernel_size=(1, 1), stride=(1, 1))
        (7): BatchNorm2d(32, eps=1e-05, momentum=0.1, affine=True, track_running_stats=True)
      )
    )
  )
  (stage4): Sequential(
    (0): LinearBottleNeck(
      (residual): Sequential(
        (0): Conv2d(32, 50, kernel_size=(1, 1), stride=(1, 1))
        (1): BatchNorm2d(50, eps=1e-05, momentum=0.1, affine=True, track_running_stats=True)
        (2): ReLU6(inplace=True)
        (3): Conv2d(50, 50, kernel_size=(3, 3), stride=(2, 2), padding=(1, 1), groups=50)
        (4): BatchNorm2d(50, eps=1e-05, momentum=0.1, affine=True, track_running_stats=True)
        (5): ReLU6(inplace=True)
        (6): Conv2d(50, 64, kernel_size=(1, 1), stride=(1, 1))
        (7): BatchNorm2d(64, eps=1e-05, momentum=0.1, affine=True, track_running_stats=True)
      )
    )
    (1): LinearBottleNeck(
      (residual): Sequential(
        (0): Conv2d(64, 96, kernel_size=(1, 1), stride=(1, 1))
        (1): BatchNorm2d(96, eps=1e-05, momentum=0.1, affine=True, track_running_stats=True)
        (2): ReLU6(inplace=True)
        (3): Conv2d(96, 96, kernel_size=(3, 3), stride=(1, 1), padding=(1, 1), groups=96)
        (4): BatchNorm2d(96, eps=1e-05, momentum=0.1, affine=True, track_running_stats=True)
        (5): ReLU6(inplace=True)
        (6): Conv2d(96, 64, kernel_size=(1, 1), stride=(1, 1))
        (7): BatchNorm2d(64, eps=1e-05, momentum=0.1, affine=True, track_running_stats=True)
      )
    )
    (2): LinearBottleNeck(
      (residual): Sequential(
        (0): Conv2d(64, 54, kernel_size=(1, 1), stride=(1, 1))
        (1): BatchNorm2d(54, eps=1e-05, momentum=0.1, affine=True, track_running_stats=True)
        (2): ReLU6(inplace=True)
        (3): Conv2d(54, 54, kernel_size=(3, 3), stride=(1, 1), padding=(1, 1), groups=54)
        (4): BatchNorm2d(54, eps=1e-05, momentum=0.1, affine=True, track_running_stats=True)
        (5): ReLU6(inplace=True)
        (6): Conv2d(54, 64, kernel_size=(1, 1), stride=(1, 1))
        (7): BatchNorm2d(64, eps=1e-05, momentum=0.1, affine=True, track_running_stats=True)
      )
    )
    (3): LinearBottleNeck(
      (residual): Sequential(
        (0): Conv2d(64, 36, kernel_size=(1, 1), stride=(1, 1))
        (1): BatchNorm2d(36, eps=1e-05, momentum=0.1, affine=True, track_running_stats=True)
        (2): ReLU6(inplace=True)
        (3): Conv2d(36, 36, kernel_size=(3, 3), stride=(1, 1), padding=(1, 1), groups=36)
        (4): BatchNorm2d(36, eps=1e-05, momentum=0.1, affine=True, track_running_stats=True)
        (5): ReLU6(inplace=True)
        (6): Conv2d(36, 64, kernel_size=(1, 1), stride=(1, 1))
        (7): BatchNorm2d(64, eps=1e-05, momentum=0.1, affine=True, track_running_stats=True)
      )
    )
  )
  (stage5): Sequential(
    (0): LinearBottleNeck(
      (residual): Sequential(
        (0): Conv2d(64, 95, kernel_size=(1, 1), stride=(1, 1))
        (1): BatchNorm2d(95, eps=1e-05, momentum=0.1, affine=True, track_running_stats=True)
        (2): ReLU6(inplace=True)
        (3): Conv2d(95, 95, kernel_size=(3, 3), stride=(1, 1), padding=(1, 1), groups=95)
        (4): BatchNorm2d(95, eps=1e-05, momentum=0.1, affine=True, track_running_stats=True)
        (5): ReLU6(inplace=True)
        (6): Conv2d(95, 96, kernel_size=(1, 1), stride=(1, 1))
        (7): BatchNorm2d(96, eps=1e-05, momentum=0.1, affine=True, track_running_stats=True)
      )
    )
    (1): LinearBottleNeck(
      (residual): Sequential(
        (0): Conv2d(96, 576, kernel_size=(1, 1), stride=(1, 1))
        (1): BatchNorm2d(576, eps=1e-05, momentum=0.1, affine=True, track_running_stats=True)
        (2): ReLU6(inplace=True)
        (3): Conv2d(576, 576, kernel_size=(3, 3), stride=(1, 1), padding=(1, 1), groups=576)
        (4): BatchNorm2d(576, eps=1e-05, momentum=0.1, affine=True, track_running_stats=True)
        (5): ReLU6(inplace=True)
        (6): Conv2d(576, 96, kernel_size=(1, 1), stride=(1, 1))
        (7): BatchNorm2d(96, eps=1e-05, momentum=0.1, affine=True, track_running_stats=True)
      )
    )
    (2): LinearBottleNeck(
      (residual): Sequential(
        (0): Conv2d(96, 576, kernel_size=(1, 1), stride=(1, 1))
        (1): BatchNorm2d(576, eps=1e-05, momentum=0.1, affine=True, track_running_stats=True)
        (2): ReLU6(inplace=True)
        (3): Conv2d(576, 576, kernel_size=(3, 3), stride=(1, 1), padding=(1, 1), groups=576)
        (4): BatchNorm2d(576, eps=1e-05, momentum=0.1, affine=True, track_running_stats=True)
        (5): ReLU6(inplace=True)
        (6): Conv2d(576, 96, kernel_size=(1, 1), stride=(1, 1))
        (7): BatchNorm2d(96, eps=1e-05, momentum=0.1, affine=True, track_running_stats=True)
      )
    )
  )
  (stage6): Sequential(
    (0): LinearBottleNeck(
      (residual): Sequential(
        (0): Conv2d(96, 232, kernel_size=(1, 1), stride=(1, 1))
        (1): BatchNorm2d(232, eps=1e-05, momentum=0.1, affine=True, track_running_stats=True)
        (2): ReLU6(inplace=True)
        (3): Conv2d(232, 232, kernel_size=(3, 3), stride=(1, 1), padding=(1, 1), groups=232)
        (4): BatchNorm2d(232, eps=1e-05, momentum=0.1, affine=True, track_running_stats=True)
        (5): ReLU6(inplace=True)
        (6): Conv2d(232, 160, kernel_size=(1, 1), stride=(1, 1))
        (7): BatchNorm2d(160, eps=1e-05, momentum=0.1, affine=True, track_running_stats=True)
      )
    )
    (1): LinearBottleNeck(
      (residual): Sequential(
        (0): Conv2d(160, 16, kernel_size=(1, 1), stride=(1, 1))
        (1): BatchNorm2d(16, eps=1e-05, momentum=0.1, affine=True, track_running_stats=True)
        (2): ReLU6(inplace=True)
        (3): Conv2d(16, 16, kernel_size=(3, 3), stride=(1, 1), padding=(1, 1), groups=16)
        (4): BatchNorm2d(16, eps=1e-05, momentum=0.1, affine=True, track_running_stats=True)
        (5): ReLU6(inplace=True)
        (6): Conv2d(16, 160, kernel_size=(1, 1), stride=(1, 1))
        (7): BatchNorm2d(160, eps=1e-05, momentum=0.1, affine=True, track_running_stats=True)
      )
    )
    (2): LinearBottleNeck(
      (residual): Sequential(
        (0): Conv2d(160, 5, kernel_size=(1, 1), stride=(1, 1))
        (1): BatchNorm2d(5, eps=1e-05, momentum=0.1, affine=True, track_running_stats=True)
        (2): ReLU6(inplace=True)
        (3): Conv2d(5, 5, kernel_size=(3, 3), stride=(1, 1), padding=(1, 1), groups=5)
        (4): BatchNorm2d(5, eps=1e-05, momentum=0.1, affine=True, track_running_stats=True)
        (5): ReLU6(inplace=True)
        (6): Conv2d(5, 160, kernel_size=(1, 1), stride=(1, 1))
        (7): BatchNorm2d(160, eps=1e-05, momentum=0.1, affine=True, track_running_stats=True)
      )
    )
  )
  (stage7): LinearBottleNeck(
    (residual): Sequential(
      (0): Conv2d(160, 629, kernel_size=(1, 1), stride=(1, 1))
      (1): BatchNorm2d(629, eps=1e-05, momentum=0.1, affine=True, track_running_stats=True)
      (2): ReLU6(inplace=True)
      (3): Conv2d(629, 629, kernel_size=(3, 3), stride=(1, 1), padding=(1, 1), groups=629)
      (4): BatchNorm2d(629, eps=1e-05, momentum=0.1, affine=True, track_running_stats=True)
      (5): ReLU6(inplace=True)
      (6): Conv2d(629, 320, kernel_size=(1, 1), stride=(1, 1))
      (7): BatchNorm2d(320, eps=1e-05, momentum=0.1, affine=True, track_running_stats=True)
    )
  )
  (conv1): Sequential(
    (0): Conv2d(320, 1280, kernel_size=(1, 1), stride=(1, 1))
    (1): BatchNorm2d(1280, eps=1e-05, momentum=0.1, affine=True, track_running_stats=True)
    (2): ReLU6(inplace=True)
  )
  (conv2): Conv2d(1280, 10, kernel_size=(1, 1), stride=(1, 1))
)
[02/23 18:54:39 cifar10-global-l2-2.0-mobilenetv2]: Params: 2.25 M => 1.12 M (49.90%)
[02/23 18:54:39 cifar10-global-l2-2.0-mobilenetv2]: FLOPs: 68.29 M => 34.08 M (49.91%, 2.00X )
[02/23 18:54:39 cifar10-global-l2-2.0-mobilenetv2]: Acc: 0.8936 => 0.8936
[02/23 18:54:39 cifar10-global-l2-2.0-mobilenetv2]: Val Loss: 0.3202 => 0.3202
[02/23 18:54:39 cifar10-global-l2-2.0-mobilenetv2]: Finetuning...
…
[02/23 19:43:34 cifar10-global-fpgm-2.0-mobilenetv2]: iterative_steps: 400
[02/23 19:43:34 cifar10-global-fpgm-2.0-mobilenetv2]: logger: <Logger cifar10-global-fpgm-2.0-mobilenetv2 (DEBUG)>
[02/23 19:43:34 cifar10-global-fpgm-2.0-mobilenetv2]: device: cuda
[02/23 19:43:34 cifar10-global-fpgm-2.0-mobilenetv2]: num_classes: 10
[02/23 19:43:34 cifar10-global-fpgm-2.0-mobilenetv2]: Loading model from run/cifar10/pretrain/cifar10_mobilenetv2.pth
[02/23 19:43:38 cifar10-global-fpgm-2.0-mobilenetv2]: Pruning...
[02/23 19:44:00 cifar10-global-fpgm-2.0-mobilenetv2]: MobileNetV2(
  (pre): Sequential(
    (0): Conv2d(3, 7, kernel_size=(1, 1), stride=(1, 1), padding=(1, 1))
    (1): BatchNorm2d(7, eps=1e-05, momentum=0.1, affine=True, track_running_stats=True)
    (2): ReLU6(inplace=True)
  )
  (stage1): LinearBottleNeck(
    (residual): Sequential(
      (0): Conv2d(7, 32, kernel_size=(1, 1), stride=(1, 1))
      (1): BatchNorm2d(32, eps=1e-05, momentum=0.1, affine=True, track_running_stats=True)
      (2): ReLU6(inplace=True)
      (3): Conv2d(32, 32, kernel_size=(3, 3), stride=(1, 1), padding=(1, 1), groups=32)
      (4): BatchNorm2d(32, eps=1e-05, momentum=0.1, affine=True, track_running_stats=True)
      (5): ReLU6(inplace=True)
      (6): Conv2d(32, 16, kernel_size=(1, 1), stride=(1, 1))
      (7): BatchNorm2d(16, eps=1e-05, momentum=0.1, affine=True, track_running_stats=True)
    )
  )
  (stage2): Sequential(
    (0): LinearBottleNeck(
      (residual): Sequential(
        (0): Conv2d(16, 96, kernel_size=(1, 1), stride=(1, 1))
        (1): BatchNorm2d(96, eps=1e-05, momentum=0.1, affine=True, track_running_stats=True)
        (2): ReLU6(inplace=True)
        (3): Conv2d(96, 96, kernel_size=(3, 3), stride=(2, 2), padding=(1, 1), groups=96)
        (4): BatchNorm2d(96, eps=1e-05, momentum=0.1, affine=True, track_running_stats=True)
        (5): ReLU6(inplace=True)
        (6): Conv2d(96, 24, kernel_size=(1, 1), stride=(1, 1))
        (7): BatchNorm2d(24, eps=1e-05, momentum=0.1, affine=True, track_running_stats=True)
      )
    )
    (1): LinearBottleNeck(
      (residual): Sequential(
        (0): Conv2d(24, 144, kernel_size=(1, 1), stride=(1, 1))
        (1): BatchNorm2d(144, eps=1e-05, momentum=0.1, affine=True, track_running_stats=True)
        (2): ReLU6(inplace=True)
        (3): Conv2d(144, 144, kernel_size=(3, 3), stride=(1, 1), padding=(1, 1), groups=144)
        (4): BatchNorm2d(144, eps=1e-05, momentum=0.1, affine=True, track_running_stats=True)
        (5): ReLU6(inplace=True)
        (6): Conv2d(144, 24, kernel_size=(1, 1), stride=(1, 1))
        (7): BatchNorm2d(24, eps=1e-05, momentum=0.1, affine=True, track_running_stats=True)
      )
    )
  )
  (stage3): Sequential(
    (0): LinearBottleNeck(
      (residual): Sequential(
        (0): Conv2d(24, 144, kernel_size=(1, 1), stride=(1, 1))
        (1): BatchNorm2d(144, eps=1e-05, momentum=0.1, affine=True, track_running_stats=True)
        (2): ReLU6(inplace=True)
        (3): Conv2d(144, 144, kernel_size=(3, 3), stride=(2, 2), padding=(1, 1), groups=144)
        (4): BatchNorm2d(144, eps=1e-05, momentum=0.1, affine=True, track_running_stats=True)
        (5): ReLU6(inplace=True)
        (6): Conv2d(144, 32, kernel_size=(1, 1), stride=(1, 1))
        (7): BatchNorm2d(32, eps=1e-05, momentum=0.1, affine=True, track_running_stats=True)
      )
    )
    (1): LinearBottleNeck(
      (residual): Sequential(
        (0): Conv2d(32, 192, kernel_size=(1, 1), stride=(1, 1))
        (1): BatchNorm2d(192, eps=1e-05, momentum=0.1, affine=True, track_running_stats=True)
        (2): ReLU6(inplace=True)
        (3): Conv2d(192, 192, kernel_size=(3, 3), stride=(1, 1), padding=(1, 1), groups=192)
        (4): BatchNorm2d(192, eps=1e-05, momentum=0.1, affine=True, track_running_stats=True)
        (5): ReLU6(inplace=True)
        (6): Conv2d(192, 32, kernel_size=(1, 1), stride=(1, 1))
        (7): BatchNorm2d(32, eps=1e-05, momentum=0.1, affine=True, track_running_stats=True)
      )
    )
    (2): LinearBottleNeck(
      (residual): Sequential(
        (0): Conv2d(32, 45, kernel_size=(1, 1), stride=(1, 1))
        (1): BatchNorm2d(45, eps=1e-05, momentum=0.1, affine=True, track_running_stats=True)
        (2): ReLU6(inplace=True)
        (3): Conv2d(45, 45, kernel_size=(3, 3), stride=(1, 1), padding=(1, 1), groups=45)
        (4): BatchNorm2d(45, eps=1e-05, momentum=0.1, affine=True, track_running_stats=True)
        (5): ReLU6(inplace=True)
        (6): Conv2d(45, 32, kernel_size=(1, 1), stride=(1, 1))
        (7): BatchNorm2d(32, eps=1e-05, momentum=0.1, affine=True, track_running_stats=True)
      )
    )
  )
  (stage4): Sequential(
    (0): LinearBottleNeck(
      (residual): Sequential(
        (0): Conv2d(32, 46, kernel_size=(1, 1), stride=(1, 1))
        (1): BatchNorm2d(46, eps=1e-05, momentum=0.1, affine=True, track_running_stats=True)
        (2): ReLU6(inplace=True)
        (3): Conv2d(46, 46, kernel_size=(3, 3), stride=(2, 2), padding=(1, 1), groups=46)
        (4): BatchNorm2d(46, eps=1e-05, momentum=0.1, affine=True, track_running_stats=True)
        (5): ReLU6(inplace=True)
        (6): Conv2d(46, 64, kernel_size=(1, 1), stride=(1, 1))
        (7): BatchNorm2d(64, eps=1e-05, momentum=0.1, affine=True, track_running_stats=True)
      )
    )
    (1): LinearBottleNeck(
      (residual): Sequential(
        (0): Conv2d(64, 86, kernel_size=(1, 1), stride=(1, 1))
        (1): BatchNorm2d(86, eps=1e-05, momentum=0.1, affine=True, track_running_stats=True)
        (2): ReLU6(inplace=True)
        (3): Conv2d(86, 86, kernel_size=(3, 3), stride=(1, 1), padding=(1, 1), groups=86)
        (4): BatchNorm2d(86, eps=1e-05, momentum=0.1, affine=True, track_running_stats=True)
        (5): ReLU6(inplace=True)
        (6): Conv2d(86, 64, kernel_size=(1, 1), stride=(1, 1))
        (7): BatchNorm2d(64, eps=1e-05, momentum=0.1, affine=True, track_running_stats=True)
      )
    )
    (2): LinearBottleNeck(
      (residual): Sequential(
        (0): Conv2d(64, 46, kernel_size=(1, 1), stride=(1, 1))
        (1): BatchNorm2d(46, eps=1e-05, momentum=0.1, affine=True, track_running_stats=True)
        (2): ReLU6(inplace=True)
        (3): Conv2d(46, 46, kernel_size=(3, 3), stride=(1, 1), padding=(1, 1), groups=46)
        (4): BatchNorm2d(46, eps=1e-05, momentum=0.1, affine=True, track_running_stats=True)
        (5): ReLU6(inplace=True)
        (6): Conv2d(46, 64, kernel_size=(1, 1), stride=(1, 1))
        (7): BatchNorm2d(64, eps=1e-05, momentum=0.1, affine=True, track_running_stats=True)
      )
    )
    (3): LinearBottleNeck(
      (residual): Sequential(
        (0): Conv2d(64, 30, kernel_size=(1, 1), stride=(1, 1))
        (1): BatchNorm2d(30, eps=1e-05, momentum=0.1, affine=True, track_running_stats=True)
        (2): ReLU6(inplace=True)
        (3): Conv2d(30, 30, kernel_size=(3, 3), stride=(1, 1), padding=(1, 1), groups=30)
        (4): BatchNorm2d(30, eps=1e-05, momentum=0.1, affine=True, track_running_stats=True)
        (5): ReLU6(inplace=True)
        (6): Conv2d(30, 64, kernel_size=(1, 1), stride=(1, 1))
        (7): BatchNorm2d(64, eps=1e-05, momentum=0.1, affine=True, track_running_stats=True)
      )
    )
  )
  (stage5): Sequential(
    (0): LinearBottleNeck(
      (residual): Sequential(
        (0): Conv2d(64, 89, kernel_size=(1, 1), stride=(1, 1))
        (1): BatchNorm2d(89, eps=1e-05, momentum=0.1, affine=True, track_running_stats=True)
        (2): ReLU6(inplace=True)
        (3): Conv2d(89, 89, kernel_size=(3, 3), stride=(1, 1), padding=(1, 1), groups=89)
        (4): BatchNorm2d(89, eps=1e-05, momentum=0.1, affine=True, track_running_stats=True)
        (5): ReLU6(inplace=True)
        (6): Conv2d(89, 96, kernel_size=(1, 1), stride=(1, 1))
        (7): BatchNorm2d(96, eps=1e-05, momentum=0.1, affine=True, track_running_stats=True)
      )
    )
    (1): LinearBottleNeck(
      (residual): Sequential(
        (0): Conv2d(96, 5, kernel_size=(1, 1), stride=(1, 1))
        (1): BatchNorm2d(5, eps=1e-05, momentum=0.1, affine=True, track_running_stats=True)
        (2): ReLU6(inplace=True)
        (3): Conv2d(5, 5, kernel_size=(3, 3), stride=(1, 1), padding=(1, 1), groups=5)
        (4): BatchNorm2d(5, eps=1e-05, momentum=0.1, affine=True, track_running_stats=True)
        (5): ReLU6(inplace=True)
        (6): Conv2d(5, 96, kernel_size=(1, 1), stride=(1, 1))
        (7): BatchNorm2d(96, eps=1e-05, momentum=0.1, affine=True, track_running_stats=True)
      )
    )
    (2): LinearBottleNeck(
      (residual): Sequential(
        (0): Conv2d(96, 6, kernel_size=(1, 1), stride=(1, 1))
        (1): BatchNorm2d(6, eps=1e-05, momentum=0.1, affine=True, track_running_stats=True)
        (2): ReLU6(inplace=True)
        (3): Conv2d(6, 6, kernel_size=(3, 3), stride=(1, 1), padding=(1, 1), groups=6)
        (4): BatchNorm2d(6, eps=1e-05, momentum=0.1, affine=True, track_running_stats=True)
        (5): ReLU6(inplace=True)
        (6): Conv2d(6, 96, kernel_size=(1, 1), stride=(1, 1))
        (7): BatchNorm2d(96, eps=1e-05, momentum=0.1, affine=True, track_running_stats=True)
      )
    )
  )
  (stage6): Sequential(
    (0): LinearBottleNeck(
      (residual): Sequential(
        (0): Conv2d(96, 206, kernel_size=(1, 1), stride=(1, 1))
        (1): BatchNorm2d(206, eps=1e-05, momentum=0.1, affine=True, track_running_stats=True)
        (2): ReLU6(inplace=True)
        (3): Conv2d(206, 206, kernel_size=(3, 3), stride=(1, 1), padding=(1, 1), groups=206)
        (4): BatchNorm2d(206, eps=1e-05, momentum=0.1, affine=True, track_running_stats=True)
        (5): ReLU6(inplace=True)
        (6): Conv2d(206, 160, kernel_size=(1, 1), stride=(1, 1))
        (7): BatchNorm2d(160, eps=1e-05, momentum=0.1, affine=True, track_running_stats=True)
      )
    )
    (1): LinearBottleNeck(
      (residual): Sequential(
        (0): Conv2d(160, 16, kernel_size=(1, 1), stride=(1, 1))
        (1): BatchNorm2d(16, eps=1e-05, momentum=0.1, affine=True, track_running_stats=True)
        (2): ReLU6(inplace=True)
        (3): Conv2d(16, 16, kernel_size=(3, 3), stride=(1, 1), padding=(1, 1), groups=16)
        (4): BatchNorm2d(16, eps=1e-05, momentum=0.1, affine=True, track_running_stats=True)
        (5): ReLU6(inplace=True)
        (6): Conv2d(16, 160, kernel_size=(1, 1), stride=(1, 1))
        (7): BatchNorm2d(160, eps=1e-05, momentum=0.1, affine=True, track_running_stats=True)
      )
    )
    (2): LinearBottleNeck(
      (residual): Sequential(
        (0): Conv2d(160, 5, kernel_size=(1, 1), stride=(1, 1))
        (1): BatchNorm2d(5, eps=1e-05, momentum=0.1, affine=True, track_running_stats=True)
        (2): ReLU6(inplace=True)
        (3): Conv2d(5, 5, kernel_size=(3, 3), stride=(1, 1), padding=(1, 1), groups=5)
        (4): BatchNorm2d(5, eps=1e-05, momentum=0.1, affine=True, track_running_stats=True)
        (5): ReLU6(inplace=True)
        (6): Conv2d(5, 160, kernel_size=(1, 1), stride=(1, 1))
        (7): BatchNorm2d(160, eps=1e-05, momentum=0.1, affine=True, track_running_stats=True)
      )
    )
  )
  (stage7): LinearBottleNeck(
    (residual): Sequential(
      (0): Conv2d(160, 564, kernel_size=(1, 1), stride=(1, 1))
      (1): BatchNorm2d(564, eps=1e-05, momentum=0.1, affine=True, track_running_stats=True)
      (2): ReLU6(inplace=True)
      (3): Conv2d(564, 564, kernel_size=(3, 3), stride=(1, 1), padding=(1, 1), groups=564)
      (4): BatchNorm2d(564, eps=1e-05, momentum=0.1, affine=True, track_running_stats=True)
      (5): ReLU6(inplace=True)
      (6): Conv2d(564, 320, kernel_size=(1, 1), stride=(1, 1))
      (7): BatchNorm2d(320, eps=1e-05, momentum=0.1, affine=True, track_running_stats=True)
    )
  )
  (conv1): Sequential(
    (0): Conv2d(320, 1280, kernel_size=(1, 1), stride=(1, 1))
    (1): BatchNorm2d(1280, eps=1e-05, momentum=0.1, affine=True, track_running_stats=True)
    (2): ReLU6(inplace=True)
  )
  (conv2): Conv2d(1280, 10, kernel_size=(1, 1), stride=(1, 1))
)
[02/23 19:44:03 cifar10-global-fpgm-2.0-mobilenetv2]: Params: 2.25 M => 0.86 M (38.31%)
[02/23 19:44:03 cifar10-global-fpgm-2.0-mobilenetv2]: FLOPs: 68.29 M => 31.19 M (45.67%, 2.19X )
[02/23 19:44:03 cifar10-global-fpgm-2.0-mobilenetv2]: Acc: 0.8936 => 0.8935
[02/23 19:44:03 cifar10-global-fpgm-2.0-mobilenetv2]: Val Loss: 0.3202 => 0.3202
[02/23 19:44:03 cifar10-global-fpgm-2.0-mobilenetv2]: Finetuning...
…
[02/23 20:30:59 cifar10-global-lamp-2.0-mobilenetv2]: iterative_steps: 400
[02/23 20:30:59 cifar10-global-lamp-2.0-mobilenetv2]: logger: <Logger cifar10-global-lamp-2.0-mobilenetv2 (DEBUG)>
[02/23 20:30:59 cifar10-global-lamp-2.0-mobilenetv2]: device: cuda
[02/23 20:30:59 cifar10-global-lamp-2.0-mobilenetv2]: num_classes: 10
[02/23 20:30:59 cifar10-global-lamp-2.0-mobilenetv2]: Loading model from run/cifar10/pretrain/cifar10_mobilenetv2.pth
[02/23 20:31:04 cifar10-global-lamp-2.0-mobilenetv2]: Pruning...
[02/23 20:31:36 cifar10-global-lamp-2.0-mobilenetv2]: MobileNetV2(
  (pre): Sequential(
    (0): Conv2d(3, 8, kernel_size=(1, 1), stride=(1, 1), padding=(1, 1))
    (1): BatchNorm2d(8, eps=1e-05, momentum=0.1, affine=True, track_running_stats=True)
    (2): ReLU6(inplace=True)
  )
  (stage1): LinearBottleNeck(
    (residual): Sequential(
      (0): Conv2d(8, 17, kernel_size=(1, 1), stride=(1, 1))
      (1): BatchNorm2d(17, eps=1e-05, momentum=0.1, affine=True, track_running_stats=True)
      (2): ReLU6(inplace=True)
      (3): Conv2d(17, 17, kernel_size=(3, 3), stride=(1, 1), padding=(1, 1), groups=17)
      (4): BatchNorm2d(17, eps=1e-05, momentum=0.1, affine=True, track_running_stats=True)
      (5): ReLU6(inplace=True)
      (6): Conv2d(17, 16, kernel_size=(1, 1), stride=(1, 1))
      (7): BatchNorm2d(16, eps=1e-05, momentum=0.1, affine=True, track_running_stats=True)
    )
  )
  (stage2): Sequential(
    (0): LinearBottleNeck(
      (residual): Sequential(
        (0): Conv2d(16, 73, kernel_size=(1, 1), stride=(1, 1))
        (1): BatchNorm2d(73, eps=1e-05, momentum=0.1, affine=True, track_running_stats=True)
        (2): ReLU6(inplace=True)
        (3): Conv2d(73, 73, kernel_size=(3, 3), stride=(2, 2), padding=(1, 1), groups=73)
        (4): BatchNorm2d(73, eps=1e-05, momentum=0.1, affine=True, track_running_stats=True)
        (5): ReLU6(inplace=True)
        (6): Conv2d(73, 24, kernel_size=(1, 1), stride=(1, 1))
        (7): BatchNorm2d(24, eps=1e-05, momentum=0.1, affine=True, track_running_stats=True)
      )
    )
    (1): LinearBottleNeck(
      (residual): Sequential(
        (0): Conv2d(24, 86, kernel_size=(1, 1), stride=(1, 1))
        (1): BatchNorm2d(86, eps=1e-05, momentum=0.1, affine=True, track_running_stats=True)
        (2): ReLU6(inplace=True)
        (3): Conv2d(86, 86, kernel_size=(3, 3), stride=(1, 1), padding=(1, 1), groups=86)
        (4): BatchNorm2d(86, eps=1e-05, momentum=0.1, affine=True, track_running_stats=True)
        (5): ReLU6(inplace=True)
        (6): Conv2d(86, 24, kernel_size=(1, 1), stride=(1, 1))
        (7): BatchNorm2d(24, eps=1e-05, momentum=0.1, affine=True, track_running_stats=True)
      )
    )
  )
  (stage3): Sequential(
    (0): LinearBottleNeck(
      (residual): Sequential(
        (0): Conv2d(24, 62, kernel_size=(1, 1), stride=(1, 1))
        (1): BatchNorm2d(62, eps=1e-05, momentum=0.1, affine=True, track_running_stats=True)
        (2): ReLU6(inplace=True)
        (3): Conv2d(62, 62, kernel_size=(3, 3), stride=(2, 2), padding=(1, 1), groups=62)
        (4): BatchNorm2d(62, eps=1e-05, momentum=0.1, affine=True, track_running_stats=True)
        (5): ReLU6(inplace=True)
        (6): Conv2d(62, 32, kernel_size=(1, 1), stride=(1, 1))
        (7): BatchNorm2d(32, eps=1e-05, momentum=0.1, affine=True, track_running_stats=True)
      )
    )
    (1): LinearBottleNeck(
      (residual): Sequential(
        (0): Conv2d(32, 88, kernel_size=(1, 1), stride=(1, 1))
        (1): BatchNorm2d(88, eps=1e-05, momentum=0.1, affine=True, track_running_stats=True)
        (2): ReLU6(inplace=True)
        (3): Conv2d(88, 88, kernel_size=(3, 3), stride=(1, 1), padding=(1, 1), groups=88)
        (4): BatchNorm2d(88, eps=1e-05, momentum=0.1, affine=True, track_running_stats=True)
        (5): ReLU6(inplace=True)
        (6): Conv2d(88, 32, kernel_size=(1, 1), stride=(1, 1))
        (7): BatchNorm2d(32, eps=1e-05, momentum=0.1, affine=True, track_running_stats=True)
      )
    )
    (2): LinearBottleNeck(
      (residual): Sequential(
        (0): Conv2d(32, 55, kernel_size=(1, 1), stride=(1, 1))
        (1): BatchNorm2d(55, eps=1e-05, momentum=0.1, affine=True, track_running_stats=True)
        (2): ReLU6(inplace=True)
        (3): Conv2d(55, 55, kernel_size=(3, 3), stride=(1, 1), padding=(1, 1), groups=55)
        (4): BatchNorm2d(55, eps=1e-05, momentum=0.1, affine=True, track_running_stats=True)
        (5): ReLU6(inplace=True)
        (6): Conv2d(55, 32, kernel_size=(1, 1), stride=(1, 1))
        (7): BatchNorm2d(32, eps=1e-05, momentum=0.1, affine=True, track_running_stats=True)
      )
    )
  )
  (stage4): Sequential(
    (0): LinearBottleNeck(
      (residual): Sequential(
        (0): Conv2d(32, 51, kernel_size=(1, 1), stride=(1, 1))
        (1): BatchNorm2d(51, eps=1e-05, momentum=0.1, affine=True, track_running_stats=True)
        (2): ReLU6(inplace=True)
        (3): Conv2d(51, 51, kernel_size=(3, 3), stride=(2, 2), padding=(1, 1), groups=51)
        (4): BatchNorm2d(51, eps=1e-05, momentum=0.1, affine=True, track_running_stats=True)
        (5): ReLU6(inplace=True)
        (6): Conv2d(51, 64, kernel_size=(1, 1), stride=(1, 1))
        (7): BatchNorm2d(64, eps=1e-05, momentum=0.1, affine=True, track_running_stats=True)
      )
    )
    (1): LinearBottleNeck(
      (residual): Sequential(
        (0): Conv2d(64, 99, kernel_size=(1, 1), stride=(1, 1))
        (1): BatchNorm2d(99, eps=1e-05, momentum=0.1, affine=True, track_running_stats=True)
        (2): ReLU6(inplace=True)
        (3): Conv2d(99, 99, kernel_size=(3, 3), stride=(1, 1), padding=(1, 1), groups=99)
        (4): BatchNorm2d(99, eps=1e-05, momentum=0.1, affine=True, track_running_stats=True)
        (5): ReLU6(inplace=True)
        (6): Conv2d(99, 64, kernel_size=(1, 1), stride=(1, 1))
        (7): BatchNorm2d(64, eps=1e-05, momentum=0.1, affine=True, track_running_stats=True)
      )
    )
    (2): LinearBottleNeck(
      (residual): Sequential(
        (0): Conv2d(64, 61, kernel_size=(1, 1), stride=(1, 1))
        (1): BatchNorm2d(61, eps=1e-05, momentum=0.1, affine=True, track_running_stats=True)
        (2): ReLU6(inplace=True)
        (3): Conv2d(61, 61, kernel_size=(3, 3), stride=(1, 1), padding=(1, 1), groups=61)
        (4): BatchNorm2d(61, eps=1e-05, momentum=0.1, affine=True, track_running_stats=True)
        (5): ReLU6(inplace=True)
        (6): Conv2d(61, 64, kernel_size=(1, 1), stride=(1, 1))
        (7): BatchNorm2d(64, eps=1e-05, momentum=0.1, affine=True, track_running_stats=True)
      )
    )
    (3): LinearBottleNeck(
      (residual): Sequential(
        (0): Conv2d(64, 40, kernel_size=(1, 1), stride=(1, 1))
        (1): BatchNorm2d(40, eps=1e-05, momentum=0.1, affine=True, track_running_stats=True)
        (2): ReLU6(inplace=True)
        (3): Conv2d(40, 40, kernel_size=(3, 3), stride=(1, 1), padding=(1, 1), groups=40)
        (4): BatchNorm2d(40, eps=1e-05, momentum=0.1, affine=True, track_running_stats=True)
        (5): ReLU6(inplace=True)
        (6): Conv2d(40, 64, kernel_size=(1, 1), stride=(1, 1))
        (7): BatchNorm2d(64, eps=1e-05, momentum=0.1, affine=True, track_running_stats=True)
      )
    )
  )
  (stage5): Sequential(
    (0): LinearBottleNeck(
      (residual): Sequential(
        (0): Conv2d(64, 97, kernel_size=(1, 1), stride=(1, 1))
        (1): BatchNorm2d(97, eps=1e-05, momentum=0.1, affine=True, track_running_stats=True)
        (2): ReLU6(inplace=True)
        (3): Conv2d(97, 97, kernel_size=(3, 3), stride=(1, 1), padding=(1, 1), groups=97)
        (4): BatchNorm2d(97, eps=1e-05, momentum=0.1, affine=True, track_running_stats=True)
        (5): ReLU6(inplace=True)
        (6): Conv2d(97, 96, kernel_size=(1, 1), stride=(1, 1))
        (7): BatchNorm2d(96, eps=1e-05, momentum=0.1, affine=True, track_running_stats=True)
      )
    )
    (1): LinearBottleNeck(
      (residual): Sequential(
        (0): Conv2d(96, 576, kernel_size=(1, 1), stride=(1, 1))
        (1): BatchNorm2d(576, eps=1e-05, momentum=0.1, affine=True, track_running_stats=True)
        (2): ReLU6(inplace=True)
        (3): Conv2d(576, 576, kernel_size=(3, 3), stride=(1, 1), padding=(1, 1), groups=576)
        (4): BatchNorm2d(576, eps=1e-05, momentum=0.1, affine=True, track_running_stats=True)
        (5): ReLU6(inplace=True)
        (6): Conv2d(576, 96, kernel_size=(1, 1), stride=(1, 1))
        (7): BatchNorm2d(96, eps=1e-05, momentum=0.1, affine=True, track_running_stats=True)
      )
    )
    (2): LinearBottleNeck(
      (residual): Sequential(
        (0): Conv2d(96, 568, kernel_size=(1, 1), stride=(1, 1))
        (1): BatchNorm2d(568, eps=1e-05, momentum=0.1, affine=True, track_running_stats=True)
        (2): ReLU6(inplace=True)
        (3): Conv2d(568, 568, kernel_size=(3, 3), stride=(1, 1), padding=(1, 1), groups=568)
        (4): BatchNorm2d(568, eps=1e-05, momentum=0.1, affine=True, track_running_stats=True)
        (5): ReLU6(inplace=True)
        (6): Conv2d(568, 96, kernel_size=(1, 1), stride=(1, 1))
        (7): BatchNorm2d(96, eps=1e-05, momentum=0.1, affine=True, track_running_stats=True)
      )
    )
  )
  (stage6): Sequential(
    (0): LinearBottleNeck(
      (residual): Sequential(
        (0): Conv2d(96, 231, kernel_size=(1, 1), stride=(1, 1))
        (1): BatchNorm2d(231, eps=1e-05, momentum=0.1, affine=True, track_running_stats=True)
        (2): ReLU6(inplace=True)
        (3): Conv2d(231, 231, kernel_size=(3, 3), stride=(1, 1), padding=(1, 1), groups=231)
        (4): BatchNorm2d(231, eps=1e-05, momentum=0.1, affine=True, track_running_stats=True)
        (5): ReLU6(inplace=True)
        (6): Conv2d(231, 160, kernel_size=(1, 1), stride=(1, 1))
        (7): BatchNorm2d(160, eps=1e-05, momentum=0.1, affine=True, track_running_stats=True)
      )
    )
    (1): LinearBottleNeck(
      (residual): Sequential(
        (0): Conv2d(160, 16, kernel_size=(1, 1), stride=(1, 1))
        (1): BatchNorm2d(16, eps=1e-05, momentum=0.1, affine=True, track_running_stats=True)
        (2): ReLU6(inplace=True)
        (3): Conv2d(16, 16, kernel_size=(3, 3), stride=(1, 1), padding=(1, 1), groups=16)
        (4): BatchNorm2d(16, eps=1e-05, momentum=0.1, affine=True, track_running_stats=True)
        (5): ReLU6(inplace=True)
        (6): Conv2d(16, 160, kernel_size=(1, 1), stride=(1, 1))
        (7): BatchNorm2d(160, eps=1e-05, momentum=0.1, affine=True, track_running_stats=True)
      )
    )
    (2): LinearBottleNeck(
      (residual): Sequential(
        (0): Conv2d(160, 5, kernel_size=(1, 1), stride=(1, 1))
        (1): BatchNorm2d(5, eps=1e-05, momentum=0.1, affine=True, track_running_stats=True)
        (2): ReLU6(inplace=True)
        (3): Conv2d(5, 5, kernel_size=(3, 3), stride=(1, 1), padding=(1, 1), groups=5)
        (4): BatchNorm2d(5, eps=1e-05, momentum=0.1, affine=True, track_running_stats=True)
        (5): ReLU6(inplace=True)
        (6): Conv2d(5, 160, kernel_size=(1, 1), stride=(1, 1))
        (7): BatchNorm2d(160, eps=1e-05, momentum=0.1, affine=True, track_running_stats=True)
      )
    )
  )
  (stage7): LinearBottleNeck(
    (residual): Sequential(
      (0): Conv2d(160, 615, kernel_size=(1, 1), stride=(1, 1))
      (1): BatchNorm2d(615, eps=1e-05, momentum=0.1, affine=True, track_running_stats=True)
      (2): ReLU6(inplace=True)
      (3): Conv2d(615, 615, kernel_size=(3, 3), stride=(1, 1), padding=(1, 1), groups=615)
      (4): BatchNorm2d(615, eps=1e-05, momentum=0.1, affine=True, track_running_stats=True)
      (5): ReLU6(inplace=True)
      (6): Conv2d(615, 320, kernel_size=(1, 1), stride=(1, 1))
      (7): BatchNorm2d(320, eps=1e-05, momentum=0.1, affine=True, track_running_stats=True)
    )
  )
  (conv1): Sequential(
    (0): Conv2d(320, 1280, kernel_size=(1, 1), stride=(1, 1))
    (1): BatchNorm2d(1280, eps=1e-05, momentum=0.1, affine=True, track_running_stats=True)
    (2): ReLU6(inplace=True)
  )
  (conv2): Conv2d(1280, 10, kernel_size=(1, 1), stride=(1, 1))
)
[02/23 20:31:39 cifar10-global-lamp-2.0-mobilenetv2]: Params: 2.25 M => 1.12 M (49.63%)
[02/23 20:31:39 cifar10-global-lamp-2.0-mobilenetv2]: FLOPs: 68.29 M => 34.00 M (49.78%, 2.01X )
[02/23 20:31:39 cifar10-global-lamp-2.0-mobilenetv2]: Acc: 0.8936 => 0.8936
[02/23 20:31:39 cifar10-global-lamp-2.0-mobilenetv2]: Val Loss: 0.3202 => 0.3202
[02/23 20:31:39 cifar10-global-lamp-2.0-mobilenetv2]: Finetuning...
…
[02/23 22:04:57 cifar10-global-slim-2.0-mobilenetv2]: Epoch 98/100, Acc=0.8992, Val Loss=0.3194, lr=0.0001
[02/23 22:05:25 cifar10-global-slim-2.0-mobilenetv2]: Epoch 99/100, Acc=0.8989, Val Loss=0.3196, lr=0.0001
[02/23 22:05:25 cifar10-global-slim-2.0-mobilenetv2]: Best Acc=0.9005
[02/23 22:05:25 cifar10-global-slim-2.0-mobilenetv2]: Loading the sparse model from run/cifar10/prune/cifar10-global-slim-2.0-mobilenetv2/reg_cifar10_mobilenetv2_slim_1e-05.pth...
[02/23 22:05:28 cifar10-global-slim-2.0-mobilenetv2]: Pruning...
[02/23 22:05:47 cifar10-global-slim-2.0-mobilenetv2]: MobileNetV2(
  (pre): Sequential(
    (0): Conv2d(3, 7, kernel_size=(1, 1), stride=(1, 1), padding=(1, 1))
    (1): BatchNorm2d(7, eps=1e-05, momentum=0.1, affine=True, track_running_stats=True)
    (2): ReLU6(inplace=True)
  )
  (stage1): LinearBottleNeck(
    (residual): Sequential(
      (0): Conv2d(7, 17, kernel_size=(1, 1), stride=(1, 1))
      (1): BatchNorm2d(17, eps=1e-05, momentum=0.1, affine=True, track_running_stats=True)
      (2): ReLU6(inplace=True)
      (3): Conv2d(17, 17, kernel_size=(3, 3), stride=(1, 1), padding=(1, 1), groups=17)
      (4): BatchNorm2d(17, eps=1e-05, momentum=0.1, affine=True, track_running_stats=True)
      (5): ReLU6(inplace=True)
      (6): Conv2d(17, 16, kernel_size=(1, 1), stride=(1, 1))
      (7): BatchNorm2d(16, eps=1e-05, momentum=0.1, affine=True, track_running_stats=True)
    )
  )
  (stage2): Sequential(
    (0): LinearBottleNeck(
      (residual): Sequential(
        (0): Conv2d(16, 69, kernel_size=(1, 1), stride=(1, 1))
        (1): BatchNorm2d(69, eps=1e-05, momentum=0.1, affine=True, track_running_stats=True)
        (2): ReLU6(inplace=True)
        (3): Conv2d(69, 69, kernel_size=(3, 3), stride=(2, 2), padding=(1, 1), groups=69)
        (4): BatchNorm2d(69, eps=1e-05, momentum=0.1, affine=True, track_running_stats=True)
        (5): ReLU6(inplace=True)
        (6): Conv2d(69, 24, kernel_size=(1, 1), stride=(1, 1))
        (7): BatchNorm2d(24, eps=1e-05, momentum=0.1, affine=True, track_running_stats=True)
      )
    )
    (1): LinearBottleNeck(
      (residual): Sequential(
        (0): Conv2d(24, 74, kernel_size=(1, 1), stride=(1, 1))
        (1): BatchNorm2d(74, eps=1e-05, momentum=0.1, affine=True, track_running_stats=True)
        (2): ReLU6(inplace=True)
        (3): Conv2d(74, 74, kernel_size=(3, 3), stride=(1, 1), padding=(1, 1), groups=74)
        (4): BatchNorm2d(74, eps=1e-05, momentum=0.1, affine=True, track_running_stats=True)
        (5): ReLU6(inplace=True)
        (6): Conv2d(74, 24, kernel_size=(1, 1), stride=(1, 1))
        (7): BatchNorm2d(24, eps=1e-05, momentum=0.1, affine=True, track_running_stats=True)
      )
    )
  )
  (stage3): Sequential(
    (0): LinearBottleNeck(
      (residual): Sequential(
        (0): Conv2d(24, 50, kernel_size=(1, 1), stride=(1, 1))
        (1): BatchNorm2d(50, eps=1e-05, momentum=0.1, affine=True, track_running_stats=True)
        (2): ReLU6(inplace=True)
        (3): Conv2d(50, 50, kernel_size=(3, 3), stride=(2, 2), padding=(1, 1), groups=50)
        (4): BatchNorm2d(50, eps=1e-05, momentum=0.1, affine=True, track_running_stats=True)
        (5): ReLU6(inplace=True)
        (6): Conv2d(50, 32, kernel_size=(1, 1), stride=(1, 1))
        (7): BatchNorm2d(32, eps=1e-05, momentum=0.1, affine=True, track_running_stats=True)
      )
    )
    (1): LinearBottleNeck(
      (residual): Sequential(
        (0): Conv2d(32, 69, kernel_size=(1, 1), stride=(1, 1))
        (1): BatchNorm2d(69, eps=1e-05, momentum=0.1, affine=True, track_running_stats=True)
        (2): ReLU6(inplace=True)
        (3): Conv2d(69, 69, kernel_size=(3, 3), stride=(1, 1), padding=(1, 1), groups=69)
        (4): BatchNorm2d(69, eps=1e-05, momentum=0.1, affine=True, track_running_stats=True)
        (5): ReLU6(inplace=True)
        (6): Conv2d(69, 32, kernel_size=(1, 1), stride=(1, 1))
        (7): BatchNorm2d(32, eps=1e-05, momentum=0.1, affine=True, track_running_stats=True)
      )
    )
    (2): LinearBottleNeck(
      (residual): Sequential(
        (0): Conv2d(32, 32, kernel_size=(1, 1), stride=(1, 1))
        (1): BatchNorm2d(32, eps=1e-05, momentum=0.1, affine=True, track_running_stats=True)
        (2): ReLU6(inplace=True)
        (3): Conv2d(32, 32, kernel_size=(3, 3), stride=(1, 1), padding=(1, 1), groups=32)
        (4): BatchNorm2d(32, eps=1e-05, momentum=0.1, affine=True, track_running_stats=True)
        (5): ReLU6(inplace=True)
        (6): Conv2d(32, 32, kernel_size=(1, 1), stride=(1, 1))
        (7): BatchNorm2d(32, eps=1e-05, momentum=0.1, affine=True, track_running_stats=True)
      )
    )
  )
  (stage4): Sequential(
    (0): LinearBottleNeck(
      (residual): Sequential(
        (0): Conv2d(32, 40, kernel_size=(1, 1), stride=(1, 1))
        (1): BatchNorm2d(40, eps=1e-05, momentum=0.1, affine=True, track_running_stats=True)
        (2): ReLU6(inplace=True)
        (3): Conv2d(40, 40, kernel_size=(3, 3), stride=(2, 2), padding=(1, 1), groups=40)
        (4): BatchNorm2d(40, eps=1e-05, momentum=0.1, affine=True, track_running_stats=True)
        (5): ReLU6(inplace=True)
        (6): Conv2d(40, 64, kernel_size=(1, 1), stride=(1, 1))
        (7): BatchNorm2d(64, eps=1e-05, momentum=0.1, affine=True, track_running_stats=True)
      )
    )
    (1): LinearBottleNeck(
      (residual): Sequential(
        (0): Conv2d(64, 51, kernel_size=(1, 1), stride=(1, 1))
        (1): BatchNorm2d(51, eps=1e-05, momentum=0.1, affine=True, track_running_stats=True)
        (2): ReLU6(inplace=True)
        (3): Conv2d(51, 51, kernel_size=(3, 3), stride=(1, 1), padding=(1, 1), groups=51)
        (4): BatchNorm2d(51, eps=1e-05, momentum=0.1, affine=True, track_running_stats=True)
        (5): ReLU6(inplace=True)
        (6): Conv2d(51, 64, kernel_size=(1, 1), stride=(1, 1))
        (7): BatchNorm2d(64, eps=1e-05, momentum=0.1, affine=True, track_running_stats=True)
      )
    )
    (2): LinearBottleNeck(
      (residual): Sequential(
        (0): Conv2d(64, 31, kernel_size=(1, 1), stride=(1, 1))
        (1): BatchNorm2d(31, eps=1e-05, momentum=0.1, affine=True, track_running_stats=True)
        (2): ReLU6(inplace=True)
        (3): Conv2d(31, 31, kernel_size=(3, 3), stride=(1, 1), padding=(1, 1), groups=31)
        (4): BatchNorm2d(31, eps=1e-05, momentum=0.1, affine=True, track_running_stats=True)
        (5): ReLU6(inplace=True)
        (6): Conv2d(31, 64, kernel_size=(1, 1), stride=(1, 1))
        (7): BatchNorm2d(64, eps=1e-05, momentum=0.1, affine=True, track_running_stats=True)
      )
    )
    (3): LinearBottleNeck(
      (residual): Sequential(
        (0): Conv2d(64, 12, kernel_size=(1, 1), stride=(1, 1))
        (1): BatchNorm2d(12, eps=1e-05, momentum=0.1, affine=True, track_running_stats=True)
        (2): ReLU6(inplace=True)
        (3): Conv2d(12, 12, kernel_size=(3, 3), stride=(1, 1), padding=(1, 1), groups=12)
        (4): BatchNorm2d(12, eps=1e-05, momentum=0.1, affine=True, track_running_stats=True)
        (5): ReLU6(inplace=True)
        (6): Conv2d(12, 64, kernel_size=(1, 1), stride=(1, 1))
        (7): BatchNorm2d(64, eps=1e-05, momentum=0.1, affine=True, track_running_stats=True)
      )
    )
  )
  (stage5): Sequential(
    (0): LinearBottleNeck(
      (residual): Sequential(
        (0): Conv2d(64, 73, kernel_size=(1, 1), stride=(1, 1))
        (1): BatchNorm2d(73, eps=1e-05, momentum=0.1, affine=True, track_running_stats=True)
        (2): ReLU6(inplace=True)
        (3): Conv2d(73, 73, kernel_size=(3, 3), stride=(1, 1), padding=(1, 1), groups=73)
        (4): BatchNorm2d(73, eps=1e-05, momentum=0.1, affine=True, track_running_stats=True)
        (5): ReLU6(inplace=True)
        (6): Conv2d(73, 96, kernel_size=(1, 1), stride=(1, 1))
        (7): BatchNorm2d(96, eps=1e-05, momentum=0.1, affine=True, track_running_stats=True)
      )
    )
    (1): LinearBottleNeck(
      (residual): Sequential(
        (0): Conv2d(96, 576, kernel_size=(1, 1), stride=(1, 1))
        (1): BatchNorm2d(576, eps=1e-05, momentum=0.1, affine=True, track_running_stats=True)
        (2): ReLU6(inplace=True)
        (3): Conv2d(576, 576, kernel_size=(3, 3), stride=(1, 1), padding=(1, 1), groups=576)
        (4): BatchNorm2d(576, eps=1e-05, momentum=0.1, affine=True, track_running_stats=True)
        (5): ReLU6(inplace=True)
        (6): Conv2d(576, 96, kernel_size=(1, 1), stride=(1, 1))
        (7): BatchNorm2d(96, eps=1e-05, momentum=0.1, affine=True, track_running_stats=True)
      )
    )
    (2): LinearBottleNeck(
      (residual): Sequential(
        (0): Conv2d(96, 576, kernel_size=(1, 1), stride=(1, 1))
        (1): BatchNorm2d(576, eps=1e-05, momentum=0.1, affine=True, track_running_stats=True)
        (2): ReLU6(inplace=True)
        (3): Conv2d(576, 576, kernel_size=(3, 3), stride=(1, 1), padding=(1, 1), groups=576)
        (4): BatchNorm2d(576, eps=1e-05, momentum=0.1, affine=True, track_running_stats=True)
        (5): ReLU6(inplace=True)
        (6): Conv2d(576, 96, kernel_size=(1, 1), stride=(1, 1))
        (7): BatchNorm2d(96, eps=1e-05, momentum=0.1, affine=True, track_running_stats=True)
      )
    )
  )
  (stage6): Sequential(
    (0): LinearBottleNeck(
      (residual): Sequential(
        (0): Conv2d(96, 144, kernel_size=(1, 1), stride=(1, 1))
        (1): BatchNorm2d(144, eps=1e-05, momentum=0.1, affine=True, track_running_stats=True)
        (2): ReLU6(inplace=True)
        (3): Conv2d(144, 144, kernel_size=(3, 3), stride=(1, 1), padding=(1, 1), groups=144)
        (4): BatchNorm2d(144, eps=1e-05, momentum=0.1, affine=True, track_running_stats=True)
        (5): ReLU6(inplace=True)
        (6): Conv2d(144, 160, kernel_size=(1, 1), stride=(1, 1))
        (7): BatchNorm2d(160, eps=1e-05, momentum=0.1, affine=True, track_running_stats=True)
      )
    )
    (1): LinearBottleNeck(
      (residual): Sequential(
        (0): Conv2d(160, 7, kernel_size=(1, 1), stride=(1, 1))
        (1): BatchNorm2d(7, eps=1e-05, momentum=0.1, affine=True, track_running_stats=True)
        (2): ReLU6(inplace=True)
        (3): Conv2d(7, 7, kernel_size=(3, 3), stride=(1, 1), padding=(1, 1), groups=7)
        (4): BatchNorm2d(7, eps=1e-05, momentum=0.1, affine=True, track_running_stats=True)
        (5): ReLU6(inplace=True)
        (6): Conv2d(7, 160, kernel_size=(1, 1), stride=(1, 1))
        (7): BatchNorm2d(160, eps=1e-05, momentum=0.1, affine=True, track_running_stats=True)
      )
    )
    (2): LinearBottleNeck(
      (residual): Sequential(
        (0): Conv2d(160, 525, kernel_size=(1, 1), stride=(1, 1))
        (1): BatchNorm2d(525, eps=1e-05, momentum=0.1, affine=True, track_running_stats=True)
        (2): ReLU6(inplace=True)
        (3): Conv2d(525, 525, kernel_size=(3, 3), stride=(1, 1), padding=(1, 1), groups=525)
        (4): BatchNorm2d(525, eps=1e-05, momentum=0.1, affine=True, track_running_stats=True)
        (5): ReLU6(inplace=True)
        (6): Conv2d(525, 160, kernel_size=(1, 1), stride=(1, 1))
        (7): BatchNorm2d(160, eps=1e-05, momentum=0.1, affine=True, track_running_stats=True)
      )
    )
  )
  (stage7): LinearBottleNeck(
    (residual): Sequential(
      (0): Conv2d(160, 418, kernel_size=(1, 1), stride=(1, 1))
      (1): BatchNorm2d(418, eps=1e-05, momentum=0.1, affine=True, track_running_stats=True)
      (2): ReLU6(inplace=True)
      (3): Conv2d(418, 418, kernel_size=(3, 3), stride=(1, 1), padding=(1, 1), groups=418)
      (4): BatchNorm2d(418, eps=1e-05, momentum=0.1, affine=True, track_running_stats=True)
      (5): ReLU6(inplace=True)
      (6): Conv2d(418, 320, kernel_size=(1, 1), stride=(1, 1))
      (7): BatchNorm2d(320, eps=1e-05, momentum=0.1, affine=True, track_running_stats=True)
    )
  )
  (conv1): Sequential(
    (0): Conv2d(320, 1280, kernel_size=(1, 1), stride=(1, 1))
    (1): BatchNorm2d(1280, eps=1e-05, momentum=0.1, affine=True, track_running_stats=True)
    (2): ReLU6(inplace=True)
  )
  (conv2): Conv2d(1280, 10, kernel_size=(1, 1), stride=(1, 1))
)
[02/23 22:05:50 cifar10-global-slim-2.0-mobilenetv2]: Params: 2.25 M => 1.14 M (50.78%)
[02/23 22:05:50 cifar10-global-slim-2.0-mobilenetv2]: FLOPs: 68.29 M => 33.95 M (49.72%, 2.01X )
[02/23 22:05:50 cifar10-global-slim-2.0-mobilenetv2]: Acc: 0.9005 => 0.9004
[02/23 22:05:50 cifar10-global-slim-2.0-mobilenetv2]: Val Loss: 0.3179 => 0.3179
[02/23 22:05:50 cifar10-global-slim-2.0-mobilenetv2]: Finetuning...
…
[02/24 01:23:17 cifar10-global-group_sl-2.0-mobilenetv2]: Epoch 98/100, Acc=0.8987, Val Loss=0.3152, lr=0.0001
[02/24 01:24:20 cifar10-global-group_sl-2.0-mobilenetv2]: Epoch 99/100, Acc=0.8996, Val Loss=0.3145, lr=0.0001
[02/24 01:24:20 cifar10-global-group_sl-2.0-mobilenetv2]: Best Acc=0.9018
[02/24 01:24:20 cifar10-global-group_sl-2.0-mobilenetv2]: Loading the sparse model from run/cifar10/prune/cifar10-global-group_sl-2.0-mobilenetv2/reg_cifar10_mobilenetv2_group_sl_1e-05.pth...
[02/24 01:24:23 cifar10-global-group_sl-2.0-mobilenetv2]: Pruning...
[02/24 01:24:48 cifar10-global-group_sl-2.0-mobilenetv2]: MobileNetV2(
  (pre): Sequential(
    (0): Conv2d(3, 8, kernel_size=(1, 1), stride=(1, 1), padding=(1, 1))
    (1): BatchNorm2d(8, eps=1e-05, momentum=0.1, affine=True, track_running_stats=True)
    (2): ReLU6(inplace=True)
  )
  (stage1): LinearBottleNeck(
    (residual): Sequential(
      (0): Conv2d(8, 17, kernel_size=(1, 1), stride=(1, 1))
      (1): BatchNorm2d(17, eps=1e-05, momentum=0.1, affine=True, track_running_stats=True)
      (2): ReLU6(inplace=True)
      (3): Conv2d(17, 17, kernel_size=(3, 3), stride=(1, 1), padding=(1, 1), groups=17)
      (4): BatchNorm2d(17, eps=1e-05, momentum=0.1, affine=True, track_running_stats=True)
      (5): ReLU6(inplace=True)
      (6): Conv2d(17, 16, kernel_size=(1, 1), stride=(1, 1))
      (7): BatchNorm2d(16, eps=1e-05, momentum=0.1, affine=True, track_running_stats=True)
    )
  )
  (stage2): Sequential(
    (0): LinearBottleNeck(
      (residual): Sequential(
        (0): Conv2d(16, 73, kernel_size=(1, 1), stride=(1, 1))
        (1): BatchNorm2d(73, eps=1e-05, momentum=0.1, affine=True, track_running_stats=True)
        (2): ReLU6(inplace=True)
        (3): Conv2d(73, 73, kernel_size=(3, 3), stride=(2, 2), padding=(1, 1), groups=73)
        (4): BatchNorm2d(73, eps=1e-05, momentum=0.1, affine=True, track_running_stats=True)
        (5): ReLU6(inplace=True)
        (6): Conv2d(73, 24, kernel_size=(1, 1), stride=(1, 1))
        (7): BatchNorm2d(24, eps=1e-05, momentum=0.1, affine=True, track_running_stats=True)
      )
    )
    (1): LinearBottleNeck(
      (residual): Sequential(
        (0): Conv2d(24, 88, kernel_size=(1, 1), stride=(1, 1))
        (1): BatchNorm2d(88, eps=1e-05, momentum=0.1, affine=True, track_running_stats=True)
        (2): ReLU6(inplace=True)
        (3): Conv2d(88, 88, kernel_size=(3, 3), stride=(1, 1), padding=(1, 1), groups=88)
        (4): BatchNorm2d(88, eps=1e-05, momentum=0.1, affine=True, track_running_stats=True)
        (5): ReLU6(inplace=True)
        (6): Conv2d(88, 24, kernel_size=(1, 1), stride=(1, 1))
        (7): BatchNorm2d(24, eps=1e-05, momentum=0.1, affine=True, track_running_stats=True)
      )
    )
  )
  (stage3): Sequential(
    (0): LinearBottleNeck(
      (residual): Sequential(
        (0): Conv2d(24, 65, kernel_size=(1, 1), stride=(1, 1))
        (1): BatchNorm2d(65, eps=1e-05, momentum=0.1, affine=True, track_running_stats=True)
        (2): ReLU6(inplace=True)
        (3): Conv2d(65, 65, kernel_size=(3, 3), stride=(2, 2), padding=(1, 1), groups=65)
        (4): BatchNorm2d(65, eps=1e-05, momentum=0.1, affine=True, track_running_stats=True)
        (5): ReLU6(inplace=True)
        (6): Conv2d(65, 32, kernel_size=(1, 1), stride=(1, 1))
        (7): BatchNorm2d(32, eps=1e-05, momentum=0.1, affine=True, track_running_stats=True)
      )
    )
    (1): LinearBottleNeck(
      (residual): Sequential(
        (0): Conv2d(32, 88, kernel_size=(1, 1), stride=(1, 1))
        (1): BatchNorm2d(88, eps=1e-05, momentum=0.1, affine=True, track_running_stats=True)
        (2): ReLU6(inplace=True)
        (3): Conv2d(88, 88, kernel_size=(3, 3), stride=(1, 1), padding=(1, 1), groups=88)
        (4): BatchNorm2d(88, eps=1e-05, momentum=0.1, affine=True, track_running_stats=True)
        (5): ReLU6(inplace=True)
        (6): Conv2d(88, 32, kernel_size=(1, 1), stride=(1, 1))
        (7): BatchNorm2d(32, eps=1e-05, momentum=0.1, affine=True, track_running_stats=True)
      )
    )
    (2): LinearBottleNeck(
      (residual): Sequential(
        (0): Conv2d(32, 57, kernel_size=(1, 1), stride=(1, 1))
        (1): BatchNorm2d(57, eps=1e-05, momentum=0.1, affine=True, track_running_stats=True)
        (2): ReLU6(inplace=True)
        (3): Conv2d(57, 57, kernel_size=(3, 3), stride=(1, 1), padding=(1, 1), groups=57)
        (4): BatchNorm2d(57, eps=1e-05, momentum=0.1, affine=True, track_running_stats=True)
        (5): ReLU6(inplace=True)
        (6): Conv2d(57, 32, kernel_size=(1, 1), stride=(1, 1))
        (7): BatchNorm2d(32, eps=1e-05, momentum=0.1, affine=True, track_running_stats=True)
      )
    )
  )
  (stage4): Sequential(
    (0): LinearBottleNeck(
      (residual): Sequential(
        (0): Conv2d(32, 51, kernel_size=(1, 1), stride=(1, 1))
        (1): BatchNorm2d(51, eps=1e-05, momentum=0.1, affine=True, track_running_stats=True)
        (2): ReLU6(inplace=True)
        (3): Conv2d(51, 51, kernel_size=(3, 3), stride=(2, 2), padding=(1, 1), groups=51)
        (4): BatchNorm2d(51, eps=1e-05, momentum=0.1, affine=True, track_running_stats=True)
        (5): ReLU6(inplace=True)
        (6): Conv2d(51, 64, kernel_size=(1, 1), stride=(1, 1))
        (7): BatchNorm2d(64, eps=1e-05, momentum=0.1, affine=True, track_running_stats=True)
      )
    )
    (1): LinearBottleNeck(
      (residual): Sequential(
        (0): Conv2d(64, 101, kernel_size=(1, 1), stride=(1, 1))
        (1): BatchNorm2d(101, eps=1e-05, momentum=0.1, affine=True, track_running_stats=True)
        (2): ReLU6(inplace=True)
        (3): Conv2d(101, 101, kernel_size=(3, 3), stride=(1, 1), padding=(1, 1), groups=101)
        (4): BatchNorm2d(101, eps=1e-05, momentum=0.1, affine=True, track_running_stats=True)
        (5): ReLU6(inplace=True)
        (6): Conv2d(101, 64, kernel_size=(1, 1), stride=(1, 1))
        (7): BatchNorm2d(64, eps=1e-05, momentum=0.1, affine=True, track_running_stats=True)
      )
    )
    (2): LinearBottleNeck(
      (residual): Sequential(
        (0): Conv2d(64, 64, kernel_size=(1, 1), stride=(1, 1))
        (1): BatchNorm2d(64, eps=1e-05, momentum=0.1, affine=True, track_running_stats=True)
        (2): ReLU6(inplace=True)
        (3): Conv2d(64, 64, kernel_size=(3, 3), stride=(1, 1), padding=(1, 1), groups=64)
        (4): BatchNorm2d(64, eps=1e-05, momentum=0.1, affine=True, track_running_stats=True)
        (5): ReLU6(inplace=True)
        (6): Conv2d(64, 64, kernel_size=(1, 1), stride=(1, 1))
        (7): BatchNorm2d(64, eps=1e-05, momentum=0.1, affine=True, track_running_stats=True)
      )
    )
    (3): LinearBottleNeck(
      (residual): Sequential(
        (0): Conv2d(64, 39, kernel_size=(1, 1), stride=(1, 1))
        (1): BatchNorm2d(39, eps=1e-05, momentum=0.1, affine=True, track_running_stats=True)
        (2): ReLU6(inplace=True)
        (3): Conv2d(39, 39, kernel_size=(3, 3), stride=(1, 1), padding=(1, 1), groups=39)
        (4): BatchNorm2d(39, eps=1e-05, momentum=0.1, affine=True, track_running_stats=True)
        (5): ReLU6(inplace=True)
        (6): Conv2d(39, 64, kernel_size=(1, 1), stride=(1, 1))
        (7): BatchNorm2d(64, eps=1e-05, momentum=0.1, affine=True, track_running_stats=True)
      )
    )
  )
  (stage5): Sequential(
    (0): LinearBottleNeck(
      (residual): Sequential(
        (0): Conv2d(64, 104, kernel_size=(1, 1), stride=(1, 1))
        (1): BatchNorm2d(104, eps=1e-05, momentum=0.1, affine=True, track_running_stats=True)
        (2): ReLU6(inplace=True)
        (3): Conv2d(104, 104, kernel_size=(3, 3), stride=(1, 1), padding=(1, 1), groups=104)
        (4): BatchNorm2d(104, eps=1e-05, momentum=0.1, affine=True, track_running_stats=True)
        (5): ReLU6(inplace=True)
        (6): Conv2d(104, 96, kernel_size=(1, 1), stride=(1, 1))
        (7): BatchNorm2d(96, eps=1e-05, momentum=0.1, affine=True, track_running_stats=True)
      )
    )
    (1): LinearBottleNeck(
      (residual): Sequential(
        (0): Conv2d(96, 576, kernel_size=(1, 1), stride=(1, 1))
        (1): BatchNorm2d(576, eps=1e-05, momentum=0.1, affine=True, track_running_stats=True)
        (2): ReLU6(inplace=True)
        (3): Conv2d(576, 576, kernel_size=(3, 3), stride=(1, 1), padding=(1, 1), groups=576)
        (4): BatchNorm2d(576, eps=1e-05, momentum=0.1, affine=True, track_running_stats=True)
        (5): ReLU6(inplace=True)
        (6): Conv2d(576, 96, kernel_size=(1, 1), stride=(1, 1))
        (7): BatchNorm2d(96, eps=1e-05, momentum=0.1, affine=True, track_running_stats=True)
      )
    )
    (2): LinearBottleNeck(
      (residual): Sequential(
        (0): Conv2d(96, 458, kernel_size=(1, 1), stride=(1, 1))
        (1): BatchNorm2d(458, eps=1e-05, momentum=0.1, affine=True, track_running_stats=True)
        (2): ReLU6(inplace=True)
        (3): Conv2d(458, 458, kernel_size=(3, 3), stride=(1, 1), padding=(1, 1), groups=458)
        (4): BatchNorm2d(458, eps=1e-05, momentum=0.1, affine=True, track_running_stats=True)
        (5): ReLU6(inplace=True)
        (6): Conv2d(458, 96, kernel_size=(1, 1), stride=(1, 1))
        (7): BatchNorm2d(96, eps=1e-05, momentum=0.1, affine=True, track_running_stats=True)
      )
    )
  )
  (stage6): Sequential(
    (0): LinearBottleNeck(
      (residual): Sequential(
        (0): Conv2d(96, 250, kernel_size=(1, 1), stride=(1, 1))
        (1): BatchNorm2d(250, eps=1e-05, momentum=0.1, affine=True, track_running_stats=True)
        (2): ReLU6(inplace=True)
        (3): Conv2d(250, 250, kernel_size=(3, 3), stride=(1, 1), padding=(1, 1), groups=250)
        (4): BatchNorm2d(250, eps=1e-05, momentum=0.1, affine=True, track_running_stats=True)
        (5): ReLU6(inplace=True)
        (6): Conv2d(250, 160, kernel_size=(1, 1), stride=(1, 1))
        (7): BatchNorm2d(160, eps=1e-05, momentum=0.1, affine=True, track_running_stats=True)
      )
    )
    (1): LinearBottleNeck(
      (residual): Sequential(
        (0): Conv2d(160, 16, kernel_size=(1, 1), stride=(1, 1))
        (1): BatchNorm2d(16, eps=1e-05, momentum=0.1, affine=True, track_running_stats=True)
        (2): ReLU6(inplace=True)
        (3): Conv2d(16, 16, kernel_size=(3, 3), stride=(1, 1), padding=(1, 1), groups=16)
        (4): BatchNorm2d(16, eps=1e-05, momentum=0.1, affine=True, track_running_stats=True)
        (5): ReLU6(inplace=True)
        (6): Conv2d(16, 160, kernel_size=(1, 1), stride=(1, 1))
        (7): BatchNorm2d(160, eps=1e-05, momentum=0.1, affine=True, track_running_stats=True)
      )
    )
    (2): LinearBottleNeck(
      (residual): Sequential(
        (0): Conv2d(160, 5, kernel_size=(1, 1), stride=(1, 1))
        (1): BatchNorm2d(5, eps=1e-05, momentum=0.1, affine=True, track_running_stats=True)
        (2): ReLU6(inplace=True)
        (3): Conv2d(5, 5, kernel_size=(3, 3), stride=(1, 1), padding=(1, 1), groups=5)
        (4): BatchNorm2d(5, eps=1e-05, momentum=0.1, affine=True, track_running_stats=True)
        (5): ReLU6(inplace=True)
        (6): Conv2d(5, 160, kernel_size=(1, 1), stride=(1, 1))
        (7): BatchNorm2d(160, eps=1e-05, momentum=0.1, affine=True, track_running_stats=True)
      )
    )
  )
  (stage7): LinearBottleNeck(
    (residual): Sequential(
      (0): Conv2d(160, 642, kernel_size=(1, 1), stride=(1, 1))
      (1): BatchNorm2d(642, eps=1e-05, momentum=0.1, affine=True, track_running_stats=True)
      (2): ReLU6(inplace=True)
      (3): Conv2d(642, 642, kernel_size=(3, 3), stride=(1, 1), padding=(1, 1), groups=642)
      (4): BatchNorm2d(642, eps=1e-05, momentum=0.1, affine=True, track_running_stats=True)
      (5): ReLU6(inplace=True)
      (6): Conv2d(642, 320, kernel_size=(1, 1), stride=(1, 1))
      (7): BatchNorm2d(320, eps=1e-05, momentum=0.1, affine=True, track_running_stats=True)
    )
  )
  (conv1): Sequential(
    (0): Conv2d(320, 1280, kernel_size=(1, 1), stride=(1, 1))
    (1): BatchNorm2d(1280, eps=1e-05, momentum=0.1, affine=True, track_running_stats=True)
    (2): ReLU6(inplace=True)
  )
  (conv2): Conv2d(1280, 10, kernel_size=(1, 1), stride=(1, 1))
)
[02/24 01:24:51 cifar10-global-group_sl-2.0-mobilenetv2]: Params: 2.25 M => 1.12 M (49.54%)
[02/24 01:24:51 cifar10-global-group_sl-2.0-mobilenetv2]: FLOPs: 68.29 M => 34.02 M (49.82%, 2.01X )
[02/24 01:24:51 cifar10-global-group_sl-2.0-mobilenetv2]: Acc: 0.9018 => 0.9019
[02/24 01:24:51 cifar10-global-group_sl-2.0-mobilenetv2]: Val Loss: 0.3118 => 0.3118
…
[02/24 02:11:52 cifar10-global-proj-2.0-mobilenetv2]: iterative_steps: 400
[02/24 02:11:52 cifar10-global-proj-2.0-mobilenetv2]: logger: <Logger cifar10-global-proj-2.0-mobilenetv2 (DEBUG)>
[02/24 02:11:52 cifar10-global-proj-2.0-mobilenetv2]: device: cuda
[02/24 02:11:52 cifar10-global-proj-2.0-mobilenetv2]: num_classes: 10
[02/24 02:11:52 cifar10-global-proj-2.0-mobilenetv2]: Loading model from run/cifar10/pretrain/cifar10_mobilenetv2.pth
[02/24 02:11:56 cifar10-global-proj-2.0-mobilenetv2]: Pruning...
[02/24 02:22:40 cifar10-global-proj-2.0-mobilenetv2]: MobileNetV2(
  (pre): Sequential(
    (0): Conv2d(3, 7, kernel_size=(1, 1), stride=(1, 1), padding=(1, 1))
    (1): BatchNorm2d(7, eps=1e-05, momentum=0.1, affine=True, track_running_stats=True)
    (2): ReLU6(inplace=True)
  )
  (stage1): LinearBottleNeck(
    (residual): Sequential(
      (0): Conv2d(7, 17, kernel_size=(1, 1), stride=(1, 1))
      (1): BatchNorm2d(17, eps=1e-05, momentum=0.1, affine=True, track_running_stats=True)
      (2): ReLU6(inplace=True)
      (3): Conv2d(17, 17, kernel_size=(3, 3), stride=(1, 1), padding=(1, 1), groups=17)
      (4): BatchNorm2d(17, eps=1e-05, momentum=0.1, affine=True, track_running_stats=True)
      (5): ReLU6(inplace=True)
      (6): Conv2d(17, 16, kernel_size=(1, 1), stride=(1, 1))
      (7): BatchNorm2d(16, eps=1e-05, momentum=0.1, affine=True, track_running_stats=True)
    )
  )
  (stage2): Sequential(
    (0): LinearBottleNeck(
      (residual): Sequential(
        (0): Conv2d(16, 73, kernel_size=(1, 1), stride=(1, 1))
        (1): BatchNorm2d(73, eps=1e-05, momentum=0.1, affine=True, track_running_stats=True)
        (2): ReLU6(inplace=True)
        (3): Conv2d(73, 73, kernel_size=(3, 3), stride=(2, 2), padding=(1, 1), groups=73)
        (4): BatchNorm2d(73, eps=1e-05, momentum=0.1, affine=True, track_running_stats=True)
        (5): ReLU6(inplace=True)
        (6): Conv2d(73, 24, kernel_size=(1, 1), stride=(1, 1))
        (7): BatchNorm2d(24, eps=1e-05, momentum=0.1, affine=True, track_running_stats=True)
      )
    )
    (1): LinearBottleNeck(
      (residual): Sequential(
        (0): Conv2d(24, 84, kernel_size=(1, 1), stride=(1, 1))
        (1): BatchNorm2d(84, eps=1e-05, momentum=0.1, affine=True, track_running_stats=True)
        (2): ReLU6(inplace=True)
        (3): Conv2d(84, 84, kernel_size=(3, 3), stride=(1, 1), padding=(1, 1), groups=84)
        (4): BatchNorm2d(84, eps=1e-05, momentum=0.1, affine=True, track_running_stats=True)
        (5): ReLU6(inplace=True)
        (6): Conv2d(84, 24, kernel_size=(1, 1), stride=(1, 1))
        (7): BatchNorm2d(24, eps=1e-05, momentum=0.1, affine=True, track_running_stats=True)
      )
    )
  )
  (stage3): Sequential(
    (0): LinearBottleNeck(
      (residual): Sequential(
        (0): Conv2d(24, 57, kernel_size=(1, 1), stride=(1, 1))
        (1): BatchNorm2d(57, eps=1e-05, momentum=0.1, affine=True, track_running_stats=True)
        (2): ReLU6(inplace=True)
        (3): Conv2d(57, 57, kernel_size=(3, 3), stride=(2, 2), padding=(1, 1), groups=57)
        (4): BatchNorm2d(57, eps=1e-05, momentum=0.1, affine=True, track_running_stats=True)
        (5): ReLU6(inplace=True)
        (6): Conv2d(57, 32, kernel_size=(1, 1), stride=(1, 1))
        (7): BatchNorm2d(32, eps=1e-05, momentum=0.1, affine=True, track_running_stats=True)
      )
    )
    (1): LinearBottleNeck(
      (residual): Sequential(
        (0): Conv2d(32, 88, kernel_size=(1, 1), stride=(1, 1))
        (1): BatchNorm2d(88, eps=1e-05, momentum=0.1, affine=True, track_running_stats=True)
        (2): ReLU6(inplace=True)
        (3): Conv2d(88, 88, kernel_size=(3, 3), stride=(1, 1), padding=(1, 1), groups=88)
        (4): BatchNorm2d(88, eps=1e-05, momentum=0.1, affine=True, track_running_stats=True)
        (5): ReLU6(inplace=True)
        (6): Conv2d(88, 32, kernel_size=(1, 1), stride=(1, 1))
        (7): BatchNorm2d(32, eps=1e-05, momentum=0.1, affine=True, track_running_stats=True)
      )
    )
    (2): LinearBottleNeck(
      (residual): Sequential(
        (0): Conv2d(32, 51, kernel_size=(1, 1), stride=(1, 1))
        (1): BatchNorm2d(51, eps=1e-05, momentum=0.1, affine=True, track_running_stats=True)
        (2): ReLU6(inplace=True)
        (3): Conv2d(51, 51, kernel_size=(3, 3), stride=(1, 1), padding=(1, 1), groups=51)
        (4): BatchNorm2d(51, eps=1e-05, momentum=0.1, affine=True, track_running_stats=True)
        (5): ReLU6(inplace=True)
        (6): Conv2d(51, 32, kernel_size=(1, 1), stride=(1, 1))
        (7): BatchNorm2d(32, eps=1e-05, momentum=0.1, affine=True, track_running_stats=True)
      )
    )
  )
  (stage4): Sequential(
    (0): LinearBottleNeck(
      (residual): Sequential(
        (0): Conv2d(32, 48, kernel_size=(1, 1), stride=(1, 1))
        (1): BatchNorm2d(48, eps=1e-05, momentum=0.1, affine=True, track_running_stats=True)
        (2): ReLU6(inplace=True)
        (3): Conv2d(48, 48, kernel_size=(3, 3), stride=(2, 2), padding=(1, 1), groups=48)
        (4): BatchNorm2d(48, eps=1e-05, momentum=0.1, affine=True, track_running_stats=True)
        (5): ReLU6(inplace=True)
        (6): Conv2d(48, 64, kernel_size=(1, 1), stride=(1, 1))
        (7): BatchNorm2d(64, eps=1e-05, momentum=0.1, affine=True, track_running_stats=True)
      )
    )
    (1): LinearBottleNeck(
      (residual): Sequential(
        (0): Conv2d(64, 97, kernel_size=(1, 1), stride=(1, 1))
        (1): BatchNorm2d(97, eps=1e-05, momentum=0.1, affine=True, track_running_stats=True)
        (2): ReLU6(inplace=True)
        (3): Conv2d(97, 97, kernel_size=(3, 3), stride=(1, 1), padding=(1, 1), groups=97)
        (4): BatchNorm2d(97, eps=1e-05, momentum=0.1, affine=True, track_running_stats=True)
        (5): ReLU6(inplace=True)
        (6): Conv2d(97, 64, kernel_size=(1, 1), stride=(1, 1))
        (7): BatchNorm2d(64, eps=1e-05, momentum=0.1, affine=True, track_running_stats=True)
      )
    )
    (2): LinearBottleNeck(
      (residual): Sequential(
        (0): Conv2d(64, 54, kernel_size=(1, 1), stride=(1, 1))
        (1): BatchNorm2d(54, eps=1e-05, momentum=0.1, affine=True, track_running_stats=True)
        (2): ReLU6(inplace=True)
        (3): Conv2d(54, 54, kernel_size=(3, 3), stride=(1, 1), padding=(1, 1), groups=54)
        (4): BatchNorm2d(54, eps=1e-05, momentum=0.1, affine=True, track_running_stats=True)
        (5): ReLU6(inplace=True)
        (6): Conv2d(54, 64, kernel_size=(1, 1), stride=(1, 1))
        (7): BatchNorm2d(64, eps=1e-05, momentum=0.1, affine=True, track_running_stats=True)
      )
    )
    (3): LinearBottleNeck(
      (residual): Sequential(
        (0): Conv2d(64, 37, kernel_size=(1, 1), stride=(1, 1))
        (1): BatchNorm2d(37, eps=1e-05, momentum=0.1, affine=True, track_running_stats=True)
        (2): ReLU6(inplace=True)
        (3): Conv2d(37, 37, kernel_size=(3, 3), stride=(1, 1), padding=(1, 1), groups=37)
        (4): BatchNorm2d(37, eps=1e-05, momentum=0.1, affine=True, track_running_stats=True)
        (5): ReLU6(inplace=True)
        (6): Conv2d(37, 64, kernel_size=(1, 1), stride=(1, 1))
        (7): BatchNorm2d(64, eps=1e-05, momentum=0.1, affine=True, track_running_stats=True)
      )
    )
  )
  (stage5): Sequential(
    (0): LinearBottleNeck(
      (residual): Sequential(
        (0): Conv2d(64, 95, kernel_size=(1, 1), stride=(1, 1))
        (1): BatchNorm2d(95, eps=1e-05, momentum=0.1, affine=True, track_running_stats=True)
        (2): ReLU6(inplace=True)
        (3): Conv2d(95, 95, kernel_size=(3, 3), stride=(1, 1), padding=(1, 1), groups=95)
        (4): BatchNorm2d(95, eps=1e-05, momentum=0.1, affine=True, track_running_stats=True)
        (5): ReLU6(inplace=True)
        (6): Conv2d(95, 96, kernel_size=(1, 1), stride=(1, 1))
        (7): BatchNorm2d(96, eps=1e-05, momentum=0.1, affine=True, track_running_stats=True)
      )
    )
    (1): LinearBottleNeck(
      (residual): Sequential(
        (0): Conv2d(96, 576, kernel_size=(1, 1), stride=(1, 1))
        (1): BatchNorm2d(576, eps=1e-05, momentum=0.1, affine=True, track_running_stats=True)
        (2): ReLU6(inplace=True)
        (3): Conv2d(576, 576, kernel_size=(3, 3), stride=(1, 1), padding=(1, 1), groups=576)
        (4): BatchNorm2d(576, eps=1e-05, momentum=0.1, affine=True, track_running_stats=True)
        (5): ReLU6(inplace=True)
        (6): Conv2d(576, 96, kernel_size=(1, 1), stride=(1, 1))
        (7): BatchNorm2d(96, eps=1e-05, momentum=0.1, affine=True, track_running_stats=True)
      )
    )
    (2): LinearBottleNeck(
      (residual): Sequential(
        (0): Conv2d(96, 576, kernel_size=(1, 1), stride=(1, 1))
        (1): BatchNorm2d(576, eps=1e-05, momentum=0.1, affine=True, track_running_stats=True)
        (2): ReLU6(inplace=True)
        (3): Conv2d(576, 576, kernel_size=(3, 3), stride=(1, 1), padding=(1, 1), groups=576)
        (4): BatchNorm2d(576, eps=1e-05, momentum=0.1, affine=True, track_running_stats=True)
        (5): ReLU6(inplace=True)
        (6): Conv2d(576, 96, kernel_size=(1, 1), stride=(1, 1))
        (7): BatchNorm2d(96, eps=1e-05, momentum=0.1, affine=True, track_running_stats=True)
      )
    )
  )
  (stage6): Sequential(
    (0): LinearBottleNeck(
      (residual): Sequential(
        (0): Conv2d(96, 235, kernel_size=(1, 1), stride=(1, 1))
        (1): BatchNorm2d(235, eps=1e-05, momentum=0.1, affine=True, track_running_stats=True)
        (2): ReLU6(inplace=True)
        (3): Conv2d(235, 235, kernel_size=(3, 3), stride=(1, 1), padding=(1, 1), groups=235)
        (4): BatchNorm2d(235, eps=1e-05, momentum=0.1, affine=True, track_running_stats=True)
        (5): ReLU6(inplace=True)
        (6): Conv2d(235, 160, kernel_size=(1, 1), stride=(1, 1))
        (7): BatchNorm2d(160, eps=1e-05, momentum=0.1, affine=True, track_running_stats=True)
      )
    )
    (1): LinearBottleNeck(
      (residual): Sequential(
        (0): Conv2d(160, 16, kernel_size=(1, 1), stride=(1, 1))
        (1): BatchNorm2d(16, eps=1e-05, momentum=0.1, affine=True, track_running_stats=True)
        (2): ReLU6(inplace=True)
        (3): Conv2d(16, 16, kernel_size=(3, 3), stride=(1, 1), padding=(1, 1), groups=16)
        (4): BatchNorm2d(16, eps=1e-05, momentum=0.1, affine=True, track_running_stats=True)
        (5): ReLU6(inplace=True)
        (6): Conv2d(16, 160, kernel_size=(1, 1), stride=(1, 1))
        (7): BatchNorm2d(160, eps=1e-05, momentum=0.1, affine=True, track_running_stats=True)
      )
    )
    (2): LinearBottleNeck(
      (residual): Sequential(
        (0): Conv2d(160, 5, kernel_size=(1, 1), stride=(1, 1))
        (1): BatchNorm2d(5, eps=1e-05, momentum=0.1, affine=True, track_running_stats=True)
        (2): ReLU6(inplace=True)
        (3): Conv2d(5, 5, kernel_size=(3, 3), stride=(1, 1), padding=(1, 1), groups=5)
        (4): BatchNorm2d(5, eps=1e-05, momentum=0.1, affine=True, track_running_stats=True)
        (5): ReLU6(inplace=True)
        (6): Conv2d(5, 160, kernel_size=(1, 1), stride=(1, 1))
        (7): BatchNorm2d(160, eps=1e-05, momentum=0.1, affine=True, track_running_stats=True)
      )
    )
  )
  (stage7): LinearBottleNeck(
    (residual): Sequential(
      (0): Conv2d(160, 632, kernel_size=(1, 1), stride=(1, 1))
      (1): BatchNorm2d(632, eps=1e-05, momentum=0.1, affine=True, track_running_stats=True)
      (2): ReLU6(inplace=True)
      (3): Conv2d(632, 632, kernel_size=(3, 3), stride=(1, 1), padding=(1, 1), groups=632)
      (4): BatchNorm2d(632, eps=1e-05, momentum=0.1, affine=True, track_running_stats=True)
      (5): ReLU6(inplace=True)
      (6): Conv2d(632, 320, kernel_size=(1, 1), stride=(1, 1))
      (7): BatchNorm2d(320, eps=1e-05, momentum=0.1, affine=True, track_running_stats=True)
    )
  )
  (conv1): Sequential(
    (0): Conv2d(320, 1280, kernel_size=(1, 1), stride=(1, 1))
    (1): BatchNorm2d(1280, eps=1e-05, momentum=0.1, affine=True, track_running_stats=True)
    (2): ReLU6(inplace=True)
  )
  (conv2): Conv2d(1280, 10, kernel_size=(1, 1), stride=(1, 1))
)
[02/24 02:22:43 cifar10-global-proj-2.0-mobilenetv2]: Params: 2.25 M => 1.13 M (49.98%)
[02/24 02:22:43 cifar10-global-proj-2.0-mobilenetv2]: FLOPs: 68.29 M => 34.06 M (49.88%, 2.00X )
[02/24 02:22:43 cifar10-global-proj-2.0-mobilenetv2]: Acc: 0.8936 => 0.8936
[02/24 02:22:43 cifar10-global-proj-2.0-mobilenetv2]: Val Loss: 0.3202 => 0.3202
[02/24 02:22:43 cifar10-global-proj-2.0-mobilenetv2]: Finetuning...
…
[02/26 01:54:31 cifar10-global-proj_sl-2.0-mobilenetv2]: Epoch 98/100, Acc=0.8958, Val Loss=0.3286, lr=0.0001
[02/26 02:22:54 cifar10-global-proj_sl-2.0-mobilenetv2]: Epoch 99/100, Acc=0.8947, Val Loss=0.3291, lr=0.0001
[02/26 02:22:54 cifar10-global-proj_sl-2.0-mobilenetv2]: Best Acc=0.8973
[02/26 02:22:54 cifar10-global-proj_sl-2.0-mobilenetv2]: Loading the sparse model from run/cifar10/prune/cifar10-global-proj_sl-2.0-mobilenetv2/reg_cifar10_mobilenetv2_proj_sl_1e-05.pth...
[02/26 02:22:57 cifar10-global-proj_sl-2.0-mobilenetv2]: Pruning...
[02/26 02:34:06 cifar10-global-proj_sl-2.0-mobilenetv2]: MobileNetV2(
  (pre): Sequential(
    (0): Conv2d(3, 8, kernel_size=(1, 1), stride=(1, 1), padding=(1, 1))
    (1): BatchNorm2d(8, eps=1e-05, momentum=0.1, affine=True, track_running_stats=True)
    (2): ReLU6(inplace=True)
  )
  (stage1): LinearBottleNeck(
    (residual): Sequential(
      (0): Conv2d(8, 17, kernel_size=(1, 1), stride=(1, 1))
      (1): BatchNorm2d(17, eps=1e-05, momentum=0.1, affine=True, track_running_stats=True)
      (2): ReLU6(inplace=True)
      (3): Conv2d(17, 17, kernel_size=(3, 3), stride=(1, 1), padding=(1, 1), groups=17)
      (4): BatchNorm2d(17, eps=1e-05, momentum=0.1, affine=True, track_running_stats=True)
      (5): ReLU6(inplace=True)
      (6): Conv2d(17, 16, kernel_size=(1, 1), stride=(1, 1))
      (7): BatchNorm2d(16, eps=1e-05, momentum=0.1, affine=True, track_running_stats=True)
    )
  )
  (stage2): Sequential(
    (0): LinearBottleNeck(
      (residual): Sequential(
        (0): Conv2d(16, 73, kernel_size=(1, 1), stride=(1, 1))
        (1): BatchNorm2d(73, eps=1e-05, momentum=0.1, affine=True, track_running_stats=True)
        (2): ReLU6(inplace=True)
        (3): Conv2d(73, 73, kernel_size=(3, 3), stride=(2, 2), padding=(1, 1), groups=73)
        (4): BatchNorm2d(73, eps=1e-05, momentum=0.1, affine=True, track_running_stats=True)
        (5): ReLU6(inplace=True)
        (6): Conv2d(73, 24, kernel_size=(1, 1), stride=(1, 1))
        (7): BatchNorm2d(24, eps=1e-05, momentum=0.1, affine=True, track_running_stats=True)
      )
    )
    (1): LinearBottleNeck(
      (residual): Sequential(
        (0): Conv2d(24, 87, kernel_size=(1, 1), stride=(1, 1))
        (1): BatchNorm2d(87, eps=1e-05, momentum=0.1, affine=True, track_running_stats=True)
        (2): ReLU6(inplace=True)
        (3): Conv2d(87, 87, kernel_size=(3, 3), stride=(1, 1), padding=(1, 1), groups=87)
        (4): BatchNorm2d(87, eps=1e-05, momentum=0.1, affine=True, track_running_stats=True)
        (5): ReLU6(inplace=True)
        (6): Conv2d(87, 24, kernel_size=(1, 1), stride=(1, 1))
        (7): BatchNorm2d(24, eps=1e-05, momentum=0.1, affine=True, track_running_stats=True)
      )
    )
  )
  (stage3): Sequential(
    (0): LinearBottleNeck(
      (residual): Sequential(
        (0): Conv2d(24, 61, kernel_size=(1, 1), stride=(1, 1))
        (1): BatchNorm2d(61, eps=1e-05, momentum=0.1, affine=True, track_running_stats=True)
        (2): ReLU6(inplace=True)
        (3): Conv2d(61, 61, kernel_size=(3, 3), stride=(2, 2), padding=(1, 1), groups=61)
        (4): BatchNorm2d(61, eps=1e-05, momentum=0.1, affine=True, track_running_stats=True)
        (5): ReLU6(inplace=True)
        (6): Conv2d(61, 32, kernel_size=(1, 1), stride=(1, 1))
        (7): BatchNorm2d(32, eps=1e-05, momentum=0.1, affine=True, track_running_stats=True)
      )
    )
    (1): LinearBottleNeck(
      (residual): Sequential(
        (0): Conv2d(32, 88, kernel_size=(1, 1), stride=(1, 1))
        (1): BatchNorm2d(88, eps=1e-05, momentum=0.1, affine=True, track_running_stats=True)
        (2): ReLU6(inplace=True)
        (3): Conv2d(88, 88, kernel_size=(3, 3), stride=(1, 1), padding=(1, 1), groups=88)
        (4): BatchNorm2d(88, eps=1e-05, momentum=0.1, affine=True, track_running_stats=True)
        (5): ReLU6(inplace=True)
        (6): Conv2d(88, 32, kernel_size=(1, 1), stride=(1, 1))
        (7): BatchNorm2d(32, eps=1e-05, momentum=0.1, affine=True, track_running_stats=True)
      )
    )
    (2): LinearBottleNeck(
      (residual): Sequential(
        (0): Conv2d(32, 55, kernel_size=(1, 1), stride=(1, 1))
        (1): BatchNorm2d(55, eps=1e-05, momentum=0.1, affine=True, track_running_stats=True)
        (2): ReLU6(inplace=True)
        (3): Conv2d(55, 55, kernel_size=(3, 3), stride=(1, 1), padding=(1, 1), groups=55)
        (4): BatchNorm2d(55, eps=1e-05, momentum=0.1, affine=True, track_running_stats=True)
        (5): ReLU6(inplace=True)
        (6): Conv2d(55, 32, kernel_size=(1, 1), stride=(1, 1))
        (7): BatchNorm2d(32, eps=1e-05, momentum=0.1, affine=True, track_running_stats=True)
      )
    )
  )
  (stage4): Sequential(
    (0): LinearBottleNeck(
      (residual): Sequential(
        (0): Conv2d(32, 51, kernel_size=(1, 1), stride=(1, 1))
        (1): BatchNorm2d(51, eps=1e-05, momentum=0.1, affine=True, track_running_stats=True)
        (2): ReLU6(inplace=True)
        (3): Conv2d(51, 51, kernel_size=(3, 3), stride=(2, 2), padding=(1, 1), groups=51)
        (4): BatchNorm2d(51, eps=1e-05, momentum=0.1, affine=True, track_running_stats=True)
        (5): ReLU6(inplace=True)
        (6): Conv2d(51, 64, kernel_size=(1, 1), stride=(1, 1))
        (7): BatchNorm2d(64, eps=1e-05, momentum=0.1, affine=True, track_running_stats=True)
      )
    )
    (1): LinearBottleNeck(
      (residual): Sequential(
        (0): Conv2d(64, 100, kernel_size=(1, 1), stride=(1, 1))
        (1): BatchNorm2d(100, eps=1e-05, momentum=0.1, affine=True, track_running_stats=True)
        (2): ReLU6(inplace=True)
        (3): Conv2d(100, 100, kernel_size=(3, 3), stride=(1, 1), padding=(1, 1), groups=100)
        (4): BatchNorm2d(100, eps=1e-05, momentum=0.1, affine=True, track_running_stats=True)
        (5): ReLU6(inplace=True)
        (6): Conv2d(100, 64, kernel_size=(1, 1), stride=(1, 1))
        (7): BatchNorm2d(64, eps=1e-05, momentum=0.1, affine=True, track_running_stats=True)
      )
    )
    (2): LinearBottleNeck(
      (residual): Sequential(
        (0): Conv2d(64, 62, kernel_size=(1, 1), stride=(1, 1))
        (1): BatchNorm2d(62, eps=1e-05, momentum=0.1, affine=True, track_running_stats=True)
        (2): ReLU6(inplace=True)
        (3): Conv2d(62, 62, kernel_size=(3, 3), stride=(1, 1), padding=(1, 1), groups=62)
        (4): BatchNorm2d(62, eps=1e-05, momentum=0.1, affine=True, track_running_stats=True)
        (5): ReLU6(inplace=True)
        (6): Conv2d(62, 64, kernel_size=(1, 1), stride=(1, 1))
        (7): BatchNorm2d(64, eps=1e-05, momentum=0.1, affine=True, track_running_stats=True)
      )
    )
    (3): LinearBottleNeck(
      (residual): Sequential(
        (0): Conv2d(64, 38, kernel_size=(1, 1), stride=(1, 1))
        (1): BatchNorm2d(38, eps=1e-05, momentum=0.1, affine=True, track_running_stats=True)
        (2): ReLU6(inplace=True)
        (3): Conv2d(38, 38, kernel_size=(3, 3), stride=(1, 1), padding=(1, 1), groups=38)
        (4): BatchNorm2d(38, eps=1e-05, momentum=0.1, affine=True, track_running_stats=True)
        (5): ReLU6(inplace=True)
        (6): Conv2d(38, 64, kernel_size=(1, 1), stride=(1, 1))
        (7): BatchNorm2d(64, eps=1e-05, momentum=0.1, affine=True, track_running_stats=True)
      )
    )
  )
  (stage5): Sequential(
    (0): LinearBottleNeck(
      (residual): Sequential(
        (0): Conv2d(64, 101, kernel_size=(1, 1), stride=(1, 1))
        (1): BatchNorm2d(101, eps=1e-05, momentum=0.1, affine=True, track_running_stats=True)
        (2): ReLU6(inplace=True)
        (3): Conv2d(101, 101, kernel_size=(3, 3), stride=(1, 1), padding=(1, 1), groups=101)
        (4): BatchNorm2d(101, eps=1e-05, momentum=0.1, affine=True, track_running_stats=True)
        (5): ReLU6(inplace=True)
        (6): Conv2d(101, 96, kernel_size=(1, 1), stride=(1, 1))
        (7): BatchNorm2d(96, eps=1e-05, momentum=0.1, affine=True, track_running_stats=True)
      )
    )
    (1): LinearBottleNeck(
      (residual): Sequential(
        (0): Conv2d(96, 576, kernel_size=(1, 1), stride=(1, 1))
        (1): BatchNorm2d(576, eps=1e-05, momentum=0.1, affine=True, track_running_stats=True)
        (2): ReLU6(inplace=True)
        (3): Conv2d(576, 576, kernel_size=(3, 3), stride=(1, 1), padding=(1, 1), groups=576)
        (4): BatchNorm2d(576, eps=1e-05, momentum=0.1, affine=True, track_running_stats=True)
        (5): ReLU6(inplace=True)
        (6): Conv2d(576, 96, kernel_size=(1, 1), stride=(1, 1))
        (7): BatchNorm2d(96, eps=1e-05, momentum=0.1, affine=True, track_running_stats=True)
      )
    )
    (2): LinearBottleNeck(
      (residual): Sequential(
        (0): Conv2d(96, 498, kernel_size=(1, 1), stride=(1, 1))
        (1): BatchNorm2d(498, eps=1e-05, momentum=0.1, affine=True, track_running_stats=True)
        (2): ReLU6(inplace=True)
        (3): Conv2d(498, 498, kernel_size=(3, 3), stride=(1, 1), padding=(1, 1), groups=498)
        (4): BatchNorm2d(498, eps=1e-05, momentum=0.1, affine=True, track_running_stats=True)
        (5): ReLU6(inplace=True)
        (6): Conv2d(498, 96, kernel_size=(1, 1), stride=(1, 1))
        (7): BatchNorm2d(96, eps=1e-05, momentum=0.1, affine=True, track_running_stats=True)
      )
    )
  )
  (stage6): Sequential(
    (0): LinearBottleNeck(
      (residual): Sequential(
        (0): Conv2d(96, 249, kernel_size=(1, 1), stride=(1, 1))
        (1): BatchNorm2d(249, eps=1e-05, momentum=0.1, affine=True, track_running_stats=True)
        (2): ReLU6(inplace=True)
        (3): Conv2d(249, 249, kernel_size=(3, 3), stride=(1, 1), padding=(1, 1), groups=249)
        (4): BatchNorm2d(249, eps=1e-05, momentum=0.1, affine=True, track_running_stats=True)
        (5): ReLU6(inplace=True)
        (6): Conv2d(249, 160, kernel_size=(1, 1), stride=(1, 1))
        (7): BatchNorm2d(160, eps=1e-05, momentum=0.1, affine=True, track_running_stats=True)
      )
    )
    (1): LinearBottleNeck(
      (residual): Sequential(
        (0): Conv2d(160, 16, kernel_size=(1, 1), stride=(1, 1))
        (1): BatchNorm2d(16, eps=1e-05, momentum=0.1, affine=True, track_running_stats=True)
        (2): ReLU6(inplace=True)
        (3): Conv2d(16, 16, kernel_size=(3, 3), stride=(1, 1), padding=(1, 1), groups=16)
        (4): BatchNorm2d(16, eps=1e-05, momentum=0.1, affine=True, track_running_stats=True)
        (5): ReLU6(inplace=True)
        (6): Conv2d(16, 160, kernel_size=(1, 1), stride=(1, 1))
        (7): BatchNorm2d(160, eps=1e-05, momentum=0.1, affine=True, track_running_stats=True)
      )
    )
    (2): LinearBottleNeck(
      (residual): Sequential(
        (0): Conv2d(160, 5, kernel_size=(1, 1), stride=(1, 1))
        (1): BatchNorm2d(5, eps=1e-05, momentum=0.1, affine=True, track_running_stats=True)
        (2): ReLU6(inplace=True)
        (3): Conv2d(5, 5, kernel_size=(3, 3), stride=(1, 1), padding=(1, 1), groups=5)
        (4): BatchNorm2d(5, eps=1e-05, momentum=0.1, affine=True, track_running_stats=True)
        (5): ReLU6(inplace=True)
        (6): Conv2d(5, 160, kernel_size=(1, 1), stride=(1, 1))
        (7): BatchNorm2d(160, eps=1e-05, momentum=0.1, affine=True, track_running_stats=True)
      )
    )
  )
  (stage7): LinearBottleNeck(
    (residual): Sequential(
      (0): Conv2d(160, 640, kernel_size=(1, 1), stride=(1, 1))
      (1): BatchNorm2d(640, eps=1e-05, momentum=0.1, affine=True, track_running_stats=True)
      (2): ReLU6(inplace=True)
      (3): Conv2d(640, 640, kernel_size=(3, 3), stride=(1, 1), padding=(1, 1), groups=640)
      (4): BatchNorm2d(640, eps=1e-05, momentum=0.1, affine=True, track_running_stats=True)
      (5): ReLU6(inplace=True)
      (6): Conv2d(640, 320, kernel_size=(1, 1), stride=(1, 1))
      (7): BatchNorm2d(320, eps=1e-05, momentum=0.1, affine=True, track_running_stats=True)
    )
  )
  (conv1): Sequential(
    (0): Conv2d(320, 1280, kernel_size=(1, 1), stride=(1, 1))
    (1): BatchNorm2d(1280, eps=1e-05, momentum=0.1, affine=True, track_running_stats=True)
    (2): ReLU6(inplace=True)
  )
  (conv2): Conv2d(1280, 10, kernel_size=(1, 1), stride=(1, 1))
)
[02/26 02:34:09 cifar10-global-proj_sl-2.0-mobilenetv2]: Params: 2.25 M => 1.12 M (49.78%)
[02/26 02:34:09 cifar10-global-proj_sl-2.0-mobilenetv2]: FLOPs: 68.29 M => 34.09 M (49.92%, 2.00X )
[02/26 02:34:09 cifar10-global-proj_sl-2.0-mobilenetv2]: Acc: 0.8973 => 0.8974
[02/26 02:34:09 cifar10-global-proj_sl-2.0-mobilenetv2]: Val Loss: 0.3281 => 0.3281
…
[02/26 03:20:55 cifar10-global-random-3.0-mobilenetv2]: iterative_steps: 400
[02/26 03:20:55 cifar10-global-random-3.0-mobilenetv2]: logger: <Logger cifar10-global-random-3.0-mobilenetv2 (DEBUG)>
[02/26 03:20:55 cifar10-global-random-3.0-mobilenetv2]: device: cuda
[02/26 03:20:55 cifar10-global-random-3.0-mobilenetv2]: num_classes: 10
[02/26 03:20:55 cifar10-global-random-3.0-mobilenetv2]: Loading model from run/cifar10/pretrain/cifar10_mobilenetv2.pth
[02/26 03:20:59 cifar10-global-random-3.0-mobilenetv2]: Pruning...
[02/26 03:21:10 cifar10-global-random-3.0-mobilenetv2]: MobileNetV2(
  (pre): Sequential(
    (0): Conv2d(3, 1, kernel_size=(1, 1), stride=(1, 1), padding=(1, 1))
    (1): BatchNorm2d(1, eps=1e-05, momentum=0.1, affine=True, track_running_stats=True)
    (2): ReLU6(inplace=True)
  )
  (stage1): LinearBottleNeck(
    (residual): Sequential(
      (0): Conv2d(1, 1, kernel_size=(1, 1), stride=(1, 1))
      (1): BatchNorm2d(1, eps=1e-05, momentum=0.1, affine=True, track_running_stats=True)
      (2): ReLU6(inplace=True)
      (3): Conv2d(1, 1, kernel_size=(3, 3), stride=(1, 1), padding=(1, 1))
      (4): BatchNorm2d(1, eps=1e-05, momentum=0.1, affine=True, track_running_stats=True)
      (5): ReLU6(inplace=True)
      (6): Conv2d(1, 1, kernel_size=(1, 1), stride=(1, 1))
      (7): BatchNorm2d(1, eps=1e-05, momentum=0.1, affine=True, track_running_stats=True)
    )
  )
  (stage2): Sequential(
    (0): LinearBottleNeck(
      (residual): Sequential(
        (0): Conv2d(1, 1, kernel_size=(1, 1), stride=(1, 1))
        (1): BatchNorm2d(1, eps=1e-05, momentum=0.1, affine=True, track_running_stats=True)
        (2): ReLU6(inplace=True)
        (3): Conv2d(1, 1, kernel_size=(3, 3), stride=(2, 2), padding=(1, 1))
        (4): BatchNorm2d(1, eps=1e-05, momentum=0.1, affine=True, track_running_stats=True)
        (5): ReLU6(inplace=True)
        (6): Conv2d(1, 1, kernel_size=(1, 1), stride=(1, 1))
        (7): BatchNorm2d(1, eps=1e-05, momentum=0.1, affine=True, track_running_stats=True)
      )
    )
    (1): LinearBottleNeck(
      (residual): Sequential(
        (0): Conv2d(1, 49, kernel_size=(1, 1), stride=(1, 1))
        (1): BatchNorm2d(49, eps=1e-05, momentum=0.1, affine=True, track_running_stats=True)
        (2): ReLU6(inplace=True)
        (3): Conv2d(49, 49, kernel_size=(3, 3), stride=(1, 1), padding=(1, 1), groups=49)
        (4): BatchNorm2d(49, eps=1e-05, momentum=0.1, affine=True, track_running_stats=True)
        (5): ReLU6(inplace=True)
        (6): Conv2d(49, 1, kernel_size=(1, 1), stride=(1, 1))
        (7): BatchNorm2d(1, eps=1e-05, momentum=0.1, affine=True, track_running_stats=True)
      )
    )
  )
  (stage3): Sequential(
    (0): LinearBottleNeck(
      (residual): Sequential(
        (0): Conv2d(1, 49, kernel_size=(1, 1), stride=(1, 1))
        (1): BatchNorm2d(49, eps=1e-05, momentum=0.1, affine=True, track_running_stats=True)
        (2): ReLU6(inplace=True)
        (3): Conv2d(49, 49, kernel_size=(3, 3), stride=(2, 2), padding=(1, 1), groups=49)
        (4): BatchNorm2d(49, eps=1e-05, momentum=0.1, affine=True, track_running_stats=True)
        (5): ReLU6(inplace=True)
        (6): Conv2d(49, 1, kernel_size=(1, 1), stride=(1, 1))
        (7): BatchNorm2d(1, eps=1e-05, momentum=0.1, affine=True, track_running_stats=True)
      )
    )
    (1): LinearBottleNeck(
      (residual): Sequential(
        (0): Conv2d(1, 97, kernel_size=(1, 1), stride=(1, 1))
        (1): BatchNorm2d(97, eps=1e-05, momentum=0.1, affine=True, track_running_stats=True)
        (2): ReLU6(inplace=True)
        (3): Conv2d(97, 97, kernel_size=(3, 3), stride=(1, 1), padding=(1, 1), groups=97)
        (4): BatchNorm2d(97, eps=1e-05, momentum=0.1, affine=True, track_running_stats=True)
        (5): ReLU6(inplace=True)
        (6): Conv2d(97, 1, kernel_size=(1, 1), stride=(1, 1))
        (7): BatchNorm2d(1, eps=1e-05, momentum=0.1, affine=True, track_running_stats=True)
      )
    )
    (2): LinearBottleNeck(
      (residual): Sequential(
        (0): Conv2d(1, 97, kernel_size=(1, 1), stride=(1, 1))
        (1): BatchNorm2d(97, eps=1e-05, momentum=0.1, affine=True, track_running_stats=True)
        (2): ReLU6(inplace=True)
        (3): Conv2d(97, 97, kernel_size=(3, 3), stride=(1, 1), padding=(1, 1), groups=97)
        (4): BatchNorm2d(97, eps=1e-05, momentum=0.1, affine=True, track_running_stats=True)
        (5): ReLU6(inplace=True)
        (6): Conv2d(97, 1, kernel_size=(1, 1), stride=(1, 1))
        (7): BatchNorm2d(1, eps=1e-05, momentum=0.1, affine=True, track_running_stats=True)
      )
    )
  )
  (stage4): Sequential(
    (0): LinearBottleNeck(
      (residual): Sequential(
        (0): Conv2d(1, 97, kernel_size=(1, 1), stride=(1, 1))
        (1): BatchNorm2d(97, eps=1e-05, momentum=0.1, affine=True, track_running_stats=True)
        (2): ReLU6(inplace=True)
        (3): Conv2d(97, 97, kernel_size=(3, 3), stride=(2, 2), padding=(1, 1), groups=97)
        (4): BatchNorm2d(97, eps=1e-05, momentum=0.1, affine=True, track_running_stats=True)
        (5): ReLU6(inplace=True)
        (6): Conv2d(97, 1, kernel_size=(1, 1), stride=(1, 1))
        (7): BatchNorm2d(1, eps=1e-05, momentum=0.1, affine=True, track_running_stats=True)
      )
    )
    (1): LinearBottleNeck(
      (residual): Sequential(
        (0): Conv2d(1, 289, kernel_size=(1, 1), stride=(1, 1))
        (1): BatchNorm2d(289, eps=1e-05, momentum=0.1, affine=True, track_running_stats=True)
        (2): ReLU6(inplace=True)
        (3): Conv2d(289, 289, kernel_size=(3, 3), stride=(1, 1), padding=(1, 1), groups=289)
        (4): BatchNorm2d(289, eps=1e-05, momentum=0.1, affine=True, track_running_stats=True)
        (5): ReLU6(inplace=True)
        (6): Conv2d(289, 1, kernel_size=(1, 1), stride=(1, 1))
        (7): BatchNorm2d(1, eps=1e-05, momentum=0.1, affine=True, track_running_stats=True)
      )
    )
    (2): LinearBottleNeck(
      (residual): Sequential(
        (0): Conv2d(1, 289, kernel_size=(1, 1), stride=(1, 1))
        (1): BatchNorm2d(289, eps=1e-05, momentum=0.1, affine=True, track_running_stats=True)
        (2): ReLU6(inplace=True)
        (3): Conv2d(289, 289, kernel_size=(3, 3), stride=(1, 1), padding=(1, 1), groups=289)
        (4): BatchNorm2d(289, eps=1e-05, momentum=0.1, affine=True, track_running_stats=True)
        (5): ReLU6(inplace=True)
        (6): Conv2d(289, 1, kernel_size=(1, 1), stride=(1, 1))
        (7): BatchNorm2d(1, eps=1e-05, momentum=0.1, affine=True, track_running_stats=True)
      )
    )
    (3): LinearBottleNeck(
      (residual): Sequential(
        (0): Conv2d(1, 289, kernel_size=(1, 1), stride=(1, 1))
        (1): BatchNorm2d(289, eps=1e-05, momentum=0.1, affine=True, track_running_stats=True)
        (2): ReLU6(inplace=True)
        (3): Conv2d(289, 289, kernel_size=(3, 3), stride=(1, 1), padding=(1, 1), groups=289)
        (4): BatchNorm2d(289, eps=1e-05, momentum=0.1, affine=True, track_running_stats=True)
        (5): ReLU6(inplace=True)
        (6): Conv2d(289, 1, kernel_size=(1, 1), stride=(1, 1))
        (7): BatchNorm2d(1, eps=1e-05, momentum=0.1, affine=True, track_running_stats=True)
      )
    )
  )
  (stage5): Sequential(
    (0): LinearBottleNeck(
      (residual): Sequential(
        (0): Conv2d(1, 289, kernel_size=(1, 1), stride=(1, 1))
        (1): BatchNorm2d(289, eps=1e-05, momentum=0.1, affine=True, track_running_stats=True)
        (2): ReLU6(inplace=True)
        (3): Conv2d(289, 289, kernel_size=(3, 3), stride=(1, 1), padding=(1, 1), groups=289)
        (4): BatchNorm2d(289, eps=1e-05, momentum=0.1, affine=True, track_running_stats=True)
        (5): ReLU6(inplace=True)
        (6): Conv2d(289, 1, kernel_size=(1, 1), stride=(1, 1))
        (7): BatchNorm2d(1, eps=1e-05, momentum=0.1, affine=True, track_running_stats=True)
      )
    )
    (1): LinearBottleNeck(
      (residual): Sequential(
        (0): Conv2d(1, 481, kernel_size=(1, 1), stride=(1, 1))
        (1): BatchNorm2d(481, eps=1e-05, momentum=0.1, affine=True, track_running_stats=True)
        (2): ReLU6(inplace=True)
        (3): Conv2d(481, 481, kernel_size=(3, 3), stride=(1, 1), padding=(1, 1), groups=481)
        (4): BatchNorm2d(481, eps=1e-05, momentum=0.1, affine=True, track_running_stats=True)
        (5): ReLU6(inplace=True)
        (6): Conv2d(481, 1, kernel_size=(1, 1), stride=(1, 1))
        (7): BatchNorm2d(1, eps=1e-05, momentum=0.1, affine=True, track_running_stats=True)
      )
    )
    (2): LinearBottleNeck(
      (residual): Sequential(
        (0): Conv2d(1, 481, kernel_size=(1, 1), stride=(1, 1))
        (1): BatchNorm2d(481, eps=1e-05, momentum=0.1, affine=True, track_running_stats=True)
        (2): ReLU6(inplace=True)
        (3): Conv2d(481, 481, kernel_size=(3, 3), stride=(1, 1), padding=(1, 1), groups=481)
        (4): BatchNorm2d(481, eps=1e-05, momentum=0.1, affine=True, track_running_stats=True)
        (5): ReLU6(inplace=True)
        (6): Conv2d(481, 1, kernel_size=(1, 1), stride=(1, 1))
        (7): BatchNorm2d(1, eps=1e-05, momentum=0.1, affine=True, track_running_stats=True)
      )
    )
  )
  (stage6): Sequential(
    (0): LinearBottleNeck(
      (residual): Sequential(
        (0): Conv2d(1, 481, kernel_size=(1, 1), stride=(1, 1))
        (1): BatchNorm2d(481, eps=1e-05, momentum=0.1, affine=True, track_running_stats=True)
        (2): ReLU6(inplace=True)
        (3): Conv2d(481, 481, kernel_size=(3, 3), stride=(1, 1), padding=(1, 1), groups=481)
        (4): BatchNorm2d(481, eps=1e-05, momentum=0.1, affine=True, track_running_stats=True)
        (5): ReLU6(inplace=True)
        (6): Conv2d(481, 65, kernel_size=(1, 1), stride=(1, 1))
        (7): BatchNorm2d(65, eps=1e-05, momentum=0.1, affine=True, track_running_stats=True)
      )
    )
    (1): LinearBottleNeck(
      (residual): Sequential(
        (0): Conv2d(65, 865, kernel_size=(1, 1), stride=(1, 1))
        (1): BatchNorm2d(865, eps=1e-05, momentum=0.1, affine=True, track_running_stats=True)
        (2): ReLU6(inplace=True)
        (3): Conv2d(865, 865, kernel_size=(3, 3), stride=(1, 1), padding=(1, 1), groups=865)
        (4): BatchNorm2d(865, eps=1e-05, momentum=0.1, affine=True, track_running_stats=True)
        (5): ReLU6(inplace=True)
        (6): Conv2d(865, 65, kernel_size=(1, 1), stride=(1, 1))
        (7): BatchNorm2d(65, eps=1e-05, momentum=0.1, affine=True, track_running_stats=True)
      )
    )
    (2): LinearBottleNeck(
      (residual): Sequential(
        (0): Conv2d(65, 865, kernel_size=(1, 1), stride=(1, 1))
        (1): BatchNorm2d(865, eps=1e-05, momentum=0.1, affine=True, track_running_stats=True)
        (2): ReLU6(inplace=True)
        (3): Conv2d(865, 865, kernel_size=(3, 3), stride=(1, 1), padding=(1, 1), groups=865)
        (4): BatchNorm2d(865, eps=1e-05, momentum=0.1, affine=True, track_running_stats=True)
        (5): ReLU6(inplace=True)
        (6): Conv2d(865, 65, kernel_size=(1, 1), stride=(1, 1))
        (7): BatchNorm2d(65, eps=1e-05, momentum=0.1, affine=True, track_running_stats=True)
      )
    )
  )
  (stage7): LinearBottleNeck(
    (residual): Sequential(
      (0): Conv2d(65, 865, kernel_size=(1, 1), stride=(1, 1))
      (1): BatchNorm2d(865, eps=1e-05, momentum=0.1, affine=True, track_running_stats=True)
      (2): ReLU6(inplace=True)
      (3): Conv2d(865, 865, kernel_size=(3, 3), stride=(1, 1), padding=(1, 1), groups=865)
      (4): BatchNorm2d(865, eps=1e-05, momentum=0.1, affine=True, track_running_stats=True)
      (5): ReLU6(inplace=True)
      (6): Conv2d(865, 225, kernel_size=(1, 1), stride=(1, 1))
      (7): BatchNorm2d(225, eps=1e-05, momentum=0.1, affine=True, track_running_stats=True)
    )
  )
  (conv1): Sequential(
    (0): Conv2d(225, 1185, kernel_size=(1, 1), stride=(1, 1))
    (1): BatchNorm2d(1185, eps=1e-05, momentum=0.1, affine=True, track_running_stats=True)
    (2): ReLU6(inplace=True)
  )
  (conv2): Conv2d(1185, 10, kernel_size=(1, 1), stride=(1, 1))
)
[02/26 03:21:13 cifar10-global-random-3.0-mobilenetv2]: Params: 2.25 M => 0.88 M (39.02%)
[02/26 03:21:13 cifar10-global-random-3.0-mobilenetv2]: FLOPs: 68.29 M => 22.64 M (33.16%, 3.02X )
[02/26 03:21:13 cifar10-global-random-3.0-mobilenetv2]: Acc: 0.8936 => 0.1000
[02/26 03:21:13 cifar10-global-random-3.0-mobilenetv2]: Val Loss: 0.3202 => 2.8661
[02/26 03:21:13 cifar10-global-random-3.0-mobilenetv2]: Finetuning...
…
[02/26 04:06:24 cifar10-global-l2-3.0-mobilenetv2]: sl_restore: None
[02/26 04:06:24 cifar10-global-l2-3.0-mobilenetv2]: iterative_steps: 400
[02/26 04:06:24 cifar10-global-l2-3.0-mobilenetv2]: logger: <Logger cifar10-global-l2-3.0-mobilenetv2 (DEBUG)>
[02/26 04:06:24 cifar10-global-l2-3.0-mobilenetv2]: device: cuda
[02/26 04:06:24 cifar10-global-l2-3.0-mobilenetv2]: num_classes: 10
[02/26 04:06:24 cifar10-global-l2-3.0-mobilenetv2]: Loading model from run/cifar10/pretrain/cifar10_mobilenetv2.pth
[02/26 04:06:27 cifar10-global-l2-3.0-mobilenetv2]: Pruning...
[02/26 04:06:58 cifar10-global-l2-3.0-mobilenetv2]: MobileNetV2(
  (pre): Sequential(
    (0): Conv2d(3, 7, kernel_size=(1, 1), stride=(1, 1), padding=(1, 1))
    (1): BatchNorm2d(7, eps=1e-05, momentum=0.1, affine=True, track_running_stats=True)
    (2): ReLU6(inplace=True)
  )
  (stage1): LinearBottleNeck(
    (residual): Sequential(
      (0): Conv2d(7, 16, kernel_size=(1, 1), stride=(1, 1))
      (1): BatchNorm2d(16, eps=1e-05, momentum=0.1, affine=True, track_running_stats=True)
      (2): ReLU6(inplace=True)
      (3): Conv2d(16, 16, kernel_size=(3, 3), stride=(1, 1), padding=(1, 1), groups=16)
      (4): BatchNorm2d(16, eps=1e-05, momentum=0.1, affine=True, track_running_stats=True)
      (5): ReLU6(inplace=True)
      (6): Conv2d(16, 16, kernel_size=(1, 1), stride=(1, 1))
      (7): BatchNorm2d(16, eps=1e-05, momentum=0.1, affine=True, track_running_stats=True)
    )
  )
  (stage2): Sequential(
    (0): LinearBottleNeck(
      (residual): Sequential(
        (0): Conv2d(16, 67, kernel_size=(1, 1), stride=(1, 1))
        (1): BatchNorm2d(67, eps=1e-05, momentum=0.1, affine=True, track_running_stats=True)
        (2): ReLU6(inplace=True)
        (3): Conv2d(67, 67, kernel_size=(3, 3), stride=(2, 2), padding=(1, 1), groups=67)
        (4): BatchNorm2d(67, eps=1e-05, momentum=0.1, affine=True, track_running_stats=True)
        (5): ReLU6(inplace=True)
        (6): Conv2d(67, 24, kernel_size=(1, 1), stride=(1, 1))
        (7): BatchNorm2d(24, eps=1e-05, momentum=0.1, affine=True, track_running_stats=True)
      )
    )
    (1): LinearBottleNeck(
      (residual): Sequential(
        (0): Conv2d(24, 72, kernel_size=(1, 1), stride=(1, 1))
        (1): BatchNorm2d(72, eps=1e-05, momentum=0.1, affine=True, track_running_stats=True)
        (2): ReLU6(inplace=True)
        (3): Conv2d(72, 72, kernel_size=(3, 3), stride=(1, 1), padding=(1, 1), groups=72)
        (4): BatchNorm2d(72, eps=1e-05, momentum=0.1, affine=True, track_running_stats=True)
        (5): ReLU6(inplace=True)
        (6): Conv2d(72, 24, kernel_size=(1, 1), stride=(1, 1))
        (7): BatchNorm2d(24, eps=1e-05, momentum=0.1, affine=True, track_running_stats=True)
      )
    )
  )
  (stage3): Sequential(
    (0): LinearBottleNeck(
      (residual): Sequential(
        (0): Conv2d(24, 50, kernel_size=(1, 1), stride=(1, 1))
        (1): BatchNorm2d(50, eps=1e-05, momentum=0.1, affine=True, track_running_stats=True)
        (2): ReLU6(inplace=True)
        (3): Conv2d(50, 50, kernel_size=(3, 3), stride=(2, 2), padding=(1, 1), groups=50)
        (4): BatchNorm2d(50, eps=1e-05, momentum=0.1, affine=True, track_running_stats=True)
        (5): ReLU6(inplace=True)
        (6): Conv2d(50, 32, kernel_size=(1, 1), stride=(1, 1))
        (7): BatchNorm2d(32, eps=1e-05, momentum=0.1, affine=True, track_running_stats=True)
      )
    )
    (1): LinearBottleNeck(
      (residual): Sequential(
        (0): Conv2d(32, 66, kernel_size=(1, 1), stride=(1, 1))
        (1): BatchNorm2d(66, eps=1e-05, momentum=0.1, affine=True, track_running_stats=True)
        (2): ReLU6(inplace=True)
        (3): Conv2d(66, 66, kernel_size=(3, 3), stride=(1, 1), padding=(1, 1), groups=66)
        (4): BatchNorm2d(66, eps=1e-05, momentum=0.1, affine=True, track_running_stats=True)
        (5): ReLU6(inplace=True)
        (6): Conv2d(66, 32, kernel_size=(1, 1), stride=(1, 1))
        (7): BatchNorm2d(32, eps=1e-05, momentum=0.1, affine=True, track_running_stats=True)
      )
    )
    (2): LinearBottleNeck(
      (residual): Sequential(
        (0): Conv2d(32, 31, kernel_size=(1, 1), stride=(1, 1))
        (1): BatchNorm2d(31, eps=1e-05, momentum=0.1, affine=True, track_running_stats=True)
        (2): ReLU6(inplace=True)
        (3): Conv2d(31, 31, kernel_size=(3, 3), stride=(1, 1), padding=(1, 1), groups=31)
        (4): BatchNorm2d(31, eps=1e-05, momentum=0.1, affine=True, track_running_stats=True)
        (5): ReLU6(inplace=True)
        (6): Conv2d(31, 32, kernel_size=(1, 1), stride=(1, 1))
        (7): BatchNorm2d(32, eps=1e-05, momentum=0.1, affine=True, track_running_stats=True)
      )
    )
  )
  (stage4): Sequential(
    (0): LinearBottleNeck(
      (residual): Sequential(
        (0): Conv2d(32, 39, kernel_size=(1, 1), stride=(1, 1))
        (1): BatchNorm2d(39, eps=1e-05, momentum=0.1, affine=True, track_running_stats=True)
        (2): ReLU6(inplace=True)
        (3): Conv2d(39, 39, kernel_size=(3, 3), stride=(2, 2), padding=(1, 1), groups=39)
        (4): BatchNorm2d(39, eps=1e-05, momentum=0.1, affine=True, track_running_stats=True)
        (5): ReLU6(inplace=True)
        (6): Conv2d(39, 64, kernel_size=(1, 1), stride=(1, 1))
        (7): BatchNorm2d(64, eps=1e-05, momentum=0.1, affine=True, track_running_stats=True)
      )
    )
    (1): LinearBottleNeck(
      (residual): Sequential(
        (0): Conv2d(64, 48, kernel_size=(1, 1), stride=(1, 1))
        (1): BatchNorm2d(48, eps=1e-05, momentum=0.1, affine=True, track_running_stats=True)
        (2): ReLU6(inplace=True)
        (3): Conv2d(48, 48, kernel_size=(3, 3), stride=(1, 1), padding=(1, 1), groups=48)
        (4): BatchNorm2d(48, eps=1e-05, momentum=0.1, affine=True, track_running_stats=True)
        (5): ReLU6(inplace=True)
        (6): Conv2d(48, 64, kernel_size=(1, 1), stride=(1, 1))
        (7): BatchNorm2d(64, eps=1e-05, momentum=0.1, affine=True, track_running_stats=True)
      )
    )
    (2): LinearBottleNeck(
      (residual): Sequential(
        (0): Conv2d(64, 31, kernel_size=(1, 1), stride=(1, 1))
        (1): BatchNorm2d(31, eps=1e-05, momentum=0.1, affine=True, track_running_stats=True)
        (2): ReLU6(inplace=True)
        (3): Conv2d(31, 31, kernel_size=(3, 3), stride=(1, 1), padding=(1, 1), groups=31)
        (4): BatchNorm2d(31, eps=1e-05, momentum=0.1, affine=True, track_running_stats=True)
        (5): ReLU6(inplace=True)
        (6): Conv2d(31, 64, kernel_size=(1, 1), stride=(1, 1))
        (7): BatchNorm2d(64, eps=1e-05, momentum=0.1, affine=True, track_running_stats=True)
      )
    )
    (3): LinearBottleNeck(
      (residual): Sequential(
        (0): Conv2d(64, 11, kernel_size=(1, 1), stride=(1, 1))
        (1): BatchNorm2d(11, eps=1e-05, momentum=0.1, affine=True, track_running_stats=True)
        (2): ReLU6(inplace=True)
        (3): Conv2d(11, 11, kernel_size=(3, 3), stride=(1, 1), padding=(1, 1), groups=11)
        (4): BatchNorm2d(11, eps=1e-05, momentum=0.1, affine=True, track_running_stats=True)
        (5): ReLU6(inplace=True)
        (6): Conv2d(11, 64, kernel_size=(1, 1), stride=(1, 1))
        (7): BatchNorm2d(64, eps=1e-05, momentum=0.1, affine=True, track_running_stats=True)
      )
    )
  )
  (stage5): Sequential(
    (0): LinearBottleNeck(
      (residual): Sequential(
        (0): Conv2d(64, 72, kernel_size=(1, 1), stride=(1, 1))
        (1): BatchNorm2d(72, eps=1e-05, momentum=0.1, affine=True, track_running_stats=True)
        (2): ReLU6(inplace=True)
        (3): Conv2d(72, 72, kernel_size=(3, 3), stride=(1, 1), padding=(1, 1), groups=72)
        (4): BatchNorm2d(72, eps=1e-05, momentum=0.1, affine=True, track_running_stats=True)
        (5): ReLU6(inplace=True)
        (6): Conv2d(72, 96, kernel_size=(1, 1), stride=(1, 1))
        (7): BatchNorm2d(96, eps=1e-05, momentum=0.1, affine=True, track_running_stats=True)
      )
    )
    (1): LinearBottleNeck(
      (residual): Sequential(
        (0): Conv2d(96, 2, kernel_size=(1, 1), stride=(1, 1))
        (1): BatchNorm2d(2, eps=1e-05, momentum=0.1, affine=True, track_running_stats=True)
        (2): ReLU6(inplace=True)
        (3): Conv2d(2, 2, kernel_size=(3, 3), stride=(1, 1), padding=(1, 1), groups=2)
        (4): BatchNorm2d(2, eps=1e-05, momentum=0.1, affine=True, track_running_stats=True)
        (5): ReLU6(inplace=True)
        (6): Conv2d(2, 96, kernel_size=(1, 1), stride=(1, 1))
        (7): BatchNorm2d(96, eps=1e-05, momentum=0.1, affine=True, track_running_stats=True)
      )
    )
    (2): LinearBottleNeck(
      (residual): Sequential(
        (0): Conv2d(96, 1, kernel_size=(1, 1), stride=(1, 1))
        (1): BatchNorm2d(1, eps=1e-05, momentum=0.1, affine=True, track_running_stats=True)
        (2): ReLU6(inplace=True)
        (3): Conv2d(1, 1, kernel_size=(3, 3), stride=(1, 1), padding=(1, 1))
        (4): BatchNorm2d(1, eps=1e-05, momentum=0.1, affine=True, track_running_stats=True)
        (5): ReLU6(inplace=True)
        (6): Conv2d(1, 96, kernel_size=(1, 1), stride=(1, 1))
        (7): BatchNorm2d(96, eps=1e-05, momentum=0.1, affine=True, track_running_stats=True)
      )
    )
  )
  (stage6): Sequential(
    (0): LinearBottleNeck(
      (residual): Sequential(
        (0): Conv2d(96, 132, kernel_size=(1, 1), stride=(1, 1))
        (1): BatchNorm2d(132, eps=1e-05, momentum=0.1, affine=True, track_running_stats=True)
        (2): ReLU6(inplace=True)
        (3): Conv2d(132, 132, kernel_size=(3, 3), stride=(1, 1), padding=(1, 1), groups=132)
        (4): BatchNorm2d(132, eps=1e-05, momentum=0.1, affine=True, track_running_stats=True)
        (5): ReLU6(inplace=True)
        (6): Conv2d(132, 160, kernel_size=(1, 1), stride=(1, 1))
        (7): BatchNorm2d(160, eps=1e-05, momentum=0.1, affine=True, track_running_stats=True)
      )
    )
    (1): LinearBottleNeck(
      (residual): Sequential(
        (0): Conv2d(160, 7, kernel_size=(1, 1), stride=(1, 1))
        (1): BatchNorm2d(7, eps=1e-05, momentum=0.1, affine=True, track_running_stats=True)
        (2): ReLU6(inplace=True)
        (3): Conv2d(7, 7, kernel_size=(3, 3), stride=(1, 1), padding=(1, 1), groups=7)
        (4): BatchNorm2d(7, eps=1e-05, momentum=0.1, affine=True, track_running_stats=True)
        (5): ReLU6(inplace=True)
        (6): Conv2d(7, 160, kernel_size=(1, 1), stride=(1, 1))
        (7): BatchNorm2d(160, eps=1e-05, momentum=0.1, affine=True, track_running_stats=True)
      )
    )
    (2): LinearBottleNeck(
      (residual): Sequential(
        (0): Conv2d(160, 1, kernel_size=(1, 1), stride=(1, 1))
        (1): BatchNorm2d(1, eps=1e-05, momentum=0.1, affine=True, track_running_stats=True)
        (2): ReLU6(inplace=True)
        (3): Conv2d(1, 1, kernel_size=(3, 3), stride=(1, 1), padding=(1, 1))
        (4): BatchNorm2d(1, eps=1e-05, momentum=0.1, affine=True, track_running_stats=True)
        (5): ReLU6(inplace=True)
        (6): Conv2d(1, 160, kernel_size=(1, 1), stride=(1, 1))
        (7): BatchNorm2d(160, eps=1e-05, momentum=0.1, affine=True, track_running_stats=True)
      )
    )
  )
  (stage7): LinearBottleNeck(
    (residual): Sequential(
      (0): Conv2d(160, 378, kernel_size=(1, 1), stride=(1, 1))
      (1): BatchNorm2d(378, eps=1e-05, momentum=0.1, affine=True, track_running_stats=True)
      (2): ReLU6(inplace=True)
      (3): Conv2d(378, 378, kernel_size=(3, 3), stride=(1, 1), padding=(1, 1), groups=378)
      (4): BatchNorm2d(378, eps=1e-05, momentum=0.1, affine=True, track_running_stats=True)
      (5): ReLU6(inplace=True)
      (6): Conv2d(378, 320, kernel_size=(1, 1), stride=(1, 1))
      (7): BatchNorm2d(320, eps=1e-05, momentum=0.1, affine=True, track_running_stats=True)
    )
  )
  (conv1): Sequential(
    (0): Conv2d(320, 1258, kernel_size=(1, 1), stride=(1, 1))
    (1): BatchNorm2d(1258, eps=1e-05, momentum=0.1, affine=True, track_running_stats=True)
    (2): ReLU6(inplace=True)
  )
  (conv2): Conv2d(1258, 10, kernel_size=(1, 1), stride=(1, 1))
)
[02/26 04:07:01 cifar10-global-l2-3.0-mobilenetv2]: Params: 2.25 M => 0.70 M (31.03%)
[02/26 04:07:01 cifar10-global-l2-3.0-mobilenetv2]: FLOPs: 68.29 M => 22.58 M (33.06%, 3.02X )
[02/26 04:07:01 cifar10-global-l2-3.0-mobilenetv2]: Acc: 0.8936 => 0.8949
[02/26 04:07:01 cifar10-global-l2-3.0-mobilenetv2]: Val Loss: 0.3202 => 0.3194
[02/26 04:07:01 cifar10-global-l2-3.0-mobilenetv2]: Finetuning...
…
[02/26 04:52:17 cifar10-global-fpgm-3.0-mobilenetv2]: iterative_steps: 400
[02/26 04:52:17 cifar10-global-fpgm-3.0-mobilenetv2]: logger: <Logger cifar10-global-fpgm-3.0-mobilenetv2 (DEBUG)>
[02/26 04:52:17 cifar10-global-fpgm-3.0-mobilenetv2]: device: cuda
[02/26 04:52:17 cifar10-global-fpgm-3.0-mobilenetv2]: num_classes: 10
[02/26 04:52:17 cifar10-global-fpgm-3.0-mobilenetv2]: Loading model from run/cifar10/pretrain/cifar10_mobilenetv2.pth
[02/26 04:52:20 cifar10-global-fpgm-3.0-mobilenetv2]: Pruning...
[02/26 04:52:45 cifar10-global-fpgm-3.0-mobilenetv2]: MobileNetV2(
  (pre): Sequential(
    (0): Conv2d(3, 7, kernel_size=(1, 1), stride=(1, 1), padding=(1, 1))
    (1): BatchNorm2d(7, eps=1e-05, momentum=0.1, affine=True, track_running_stats=True)
    (2): ReLU6(inplace=True)
  )
  (stage1): LinearBottleNeck(
    (residual): Sequential(
      (0): Conv2d(7, 17, kernel_size=(1, 1), stride=(1, 1))
      (1): BatchNorm2d(17, eps=1e-05, momentum=0.1, affine=True, track_running_stats=True)
      (2): ReLU6(inplace=True)
      (3): Conv2d(17, 17, kernel_size=(3, 3), stride=(1, 1), padding=(1, 1), groups=17)
      (4): BatchNorm2d(17, eps=1e-05, momentum=0.1, affine=True, track_running_stats=True)
      (5): ReLU6(inplace=True)
      (6): Conv2d(17, 16, kernel_size=(1, 1), stride=(1, 1))
      (7): BatchNorm2d(16, eps=1e-05, momentum=0.1, affine=True, track_running_stats=True)
    )
  )
  (stage2): Sequential(
    (0): LinearBottleNeck(
      (residual): Sequential(
        (0): Conv2d(16, 96, kernel_size=(1, 1), stride=(1, 1))
        (1): BatchNorm2d(96, eps=1e-05, momentum=0.1, affine=True, track_running_stats=True)
        (2): ReLU6(inplace=True)
        (3): Conv2d(96, 96, kernel_size=(3, 3), stride=(2, 2), padding=(1, 1), groups=96)
        (4): BatchNorm2d(96, eps=1e-05, momentum=0.1, affine=True, track_running_stats=True)
        (5): ReLU6(inplace=True)
        (6): Conv2d(96, 24, kernel_size=(1, 1), stride=(1, 1))
        (7): BatchNorm2d(24, eps=1e-05, momentum=0.1, affine=True, track_running_stats=True)
      )
    )
    (1): LinearBottleNeck(
      (residual): Sequential(
        (0): Conv2d(24, 80, kernel_size=(1, 1), stride=(1, 1))
        (1): BatchNorm2d(80, eps=1e-05, momentum=0.1, affine=True, track_running_stats=True)
        (2): ReLU6(inplace=True)
        (3): Conv2d(80, 80, kernel_size=(3, 3), stride=(1, 1), padding=(1, 1), groups=80)
        (4): BatchNorm2d(80, eps=1e-05, momentum=0.1, affine=True, track_running_stats=True)
        (5): ReLU6(inplace=True)
        (6): Conv2d(80, 24, kernel_size=(1, 1), stride=(1, 1))
        (7): BatchNorm2d(24, eps=1e-05, momentum=0.1, affine=True, track_running_stats=True)
      )
    )
  )
  (stage3): Sequential(
    (0): LinearBottleNeck(
      (residual): Sequential(
        (0): Conv2d(24, 55, kernel_size=(1, 1), stride=(1, 1))
        (1): BatchNorm2d(55, eps=1e-05, momentum=0.1, affine=True, track_running_stats=True)
        (2): ReLU6(inplace=True)
        (3): Conv2d(55, 55, kernel_size=(3, 3), stride=(2, 2), padding=(1, 1), groups=55)
        (4): BatchNorm2d(55, eps=1e-05, momentum=0.1, affine=True, track_running_stats=True)
        (5): ReLU6(inplace=True)
        (6): Conv2d(55, 32, kernel_size=(1, 1), stride=(1, 1))
        (7): BatchNorm2d(32, eps=1e-05, momentum=0.1, affine=True, track_running_stats=True)
      )
    )
    (1): LinearBottleNeck(
      (residual): Sequential(
        (0): Conv2d(32, 84, kernel_size=(1, 1), stride=(1, 1))
        (1): BatchNorm2d(84, eps=1e-05, momentum=0.1, affine=True, track_running_stats=True)
        (2): ReLU6(inplace=True)
        (3): Conv2d(84, 84, kernel_size=(3, 3), stride=(1, 1), padding=(1, 1), groups=84)
        (4): BatchNorm2d(84, eps=1e-05, momentum=0.1, affine=True, track_running_stats=True)
        (5): ReLU6(inplace=True)
        (6): Conv2d(84, 32, kernel_size=(1, 1), stride=(1, 1))
        (7): BatchNorm2d(32, eps=1e-05, momentum=0.1, affine=True, track_running_stats=True)
      )
    )
    (2): LinearBottleNeck(
      (residual): Sequential(
        (0): Conv2d(32, 45, kernel_size=(1, 1), stride=(1, 1))
        (1): BatchNorm2d(45, eps=1e-05, momentum=0.1, affine=True, track_running_stats=True)
        (2): ReLU6(inplace=True)
        (3): Conv2d(45, 45, kernel_size=(3, 3), stride=(1, 1), padding=(1, 1), groups=45)
        (4): BatchNorm2d(45, eps=1e-05, momentum=0.1, affine=True, track_running_stats=True)
        (5): ReLU6(inplace=True)
        (6): Conv2d(45, 32, kernel_size=(1, 1), stride=(1, 1))
        (7): BatchNorm2d(32, eps=1e-05, momentum=0.1, affine=True, track_running_stats=True)
      )
    )
  )
  (stage4): Sequential(
    (0): LinearBottleNeck(
      (residual): Sequential(
        (0): Conv2d(32, 46, kernel_size=(1, 1), stride=(1, 1))
        (1): BatchNorm2d(46, eps=1e-05, momentum=0.1, affine=True, track_running_stats=True)
        (2): ReLU6(inplace=True)
        (3): Conv2d(46, 46, kernel_size=(3, 3), stride=(2, 2), padding=(1, 1), groups=46)
        (4): BatchNorm2d(46, eps=1e-05, momentum=0.1, affine=True, track_running_stats=True)
        (5): ReLU6(inplace=True)
        (6): Conv2d(46, 64, kernel_size=(1, 1), stride=(1, 1))
        (7): BatchNorm2d(64, eps=1e-05, momentum=0.1, affine=True, track_running_stats=True)
      )
    )
    (1): LinearBottleNeck(
      (residual): Sequential(
        (0): Conv2d(64, 51, kernel_size=(1, 1), stride=(1, 1))
        (1): BatchNorm2d(51, eps=1e-05, momentum=0.1, affine=True, track_running_stats=True)
        (2): ReLU6(inplace=True)
        (3): Conv2d(51, 51, kernel_size=(3, 3), stride=(1, 1), padding=(1, 1), groups=51)
        (4): BatchNorm2d(51, eps=1e-05, momentum=0.1, affine=True, track_running_stats=True)
        (5): ReLU6(inplace=True)
        (6): Conv2d(51, 64, kernel_size=(1, 1), stride=(1, 1))
        (7): BatchNorm2d(64, eps=1e-05, momentum=0.1, affine=True, track_running_stats=True)
      )
    )
    (2): LinearBottleNeck(
      (residual): Sequential(
        (0): Conv2d(64, 46, kernel_size=(1, 1), stride=(1, 1))
        (1): BatchNorm2d(46, eps=1e-05, momentum=0.1, affine=True, track_running_stats=True)
        (2): ReLU6(inplace=True)
        (3): Conv2d(46, 46, kernel_size=(3, 3), stride=(1, 1), padding=(1, 1), groups=46)
        (4): BatchNorm2d(46, eps=1e-05, momentum=0.1, affine=True, track_running_stats=True)
        (5): ReLU6(inplace=True)
        (6): Conv2d(46, 64, kernel_size=(1, 1), stride=(1, 1))
        (7): BatchNorm2d(64, eps=1e-05, momentum=0.1, affine=True, track_running_stats=True)
      )
    )
    (3): LinearBottleNeck(
      (residual): Sequential(
        (0): Conv2d(64, 13, kernel_size=(1, 1), stride=(1, 1))
        (1): BatchNorm2d(13, eps=1e-05, momentum=0.1, affine=True, track_running_stats=True)
        (2): ReLU6(inplace=True)
        (3): Conv2d(13, 13, kernel_size=(3, 3), stride=(1, 1), padding=(1, 1), groups=13)
        (4): BatchNorm2d(13, eps=1e-05, momentum=0.1, affine=True, track_running_stats=True)
        (5): ReLU6(inplace=True)
        (6): Conv2d(13, 64, kernel_size=(1, 1), stride=(1, 1))
        (7): BatchNorm2d(64, eps=1e-05, momentum=0.1, affine=True, track_running_stats=True)
      )
    )
  )
  (stage5): Sequential(
    (0): LinearBottleNeck(
      (residual): Sequential(
        (0): Conv2d(64, 89, kernel_size=(1, 1), stride=(1, 1))
        (1): BatchNorm2d(89, eps=1e-05, momentum=0.1, affine=True, track_running_stats=True)
        (2): ReLU6(inplace=True)
        (3): Conv2d(89, 89, kernel_size=(3, 3), stride=(1, 1), padding=(1, 1), groups=89)
        (4): BatchNorm2d(89, eps=1e-05, momentum=0.1, affine=True, track_running_stats=True)
        (5): ReLU6(inplace=True)
        (6): Conv2d(89, 96, kernel_size=(1, 1), stride=(1, 1))
        (7): BatchNorm2d(96, eps=1e-05, momentum=0.1, affine=True, track_running_stats=True)
      )
    )
    (1): LinearBottleNeck(
      (residual): Sequential(
        (0): Conv2d(96, 4, kernel_size=(1, 1), stride=(1, 1))
        (1): BatchNorm2d(4, eps=1e-05, momentum=0.1, affine=True, track_running_stats=True)
        (2): ReLU6(inplace=True)
        (3): Conv2d(4, 4, kernel_size=(3, 3), stride=(1, 1), padding=(1, 1), groups=4)
        (4): BatchNorm2d(4, eps=1e-05, momentum=0.1, affine=True, track_running_stats=True)
        (5): ReLU6(inplace=True)
        (6): Conv2d(4, 96, kernel_size=(1, 1), stride=(1, 1))
        (7): BatchNorm2d(96, eps=1e-05, momentum=0.1, affine=True, track_running_stats=True)
      )
    )
    (2): LinearBottleNeck(
      (residual): Sequential(
        (0): Conv2d(96, 2, kernel_size=(1, 1), stride=(1, 1))
        (1): BatchNorm2d(2, eps=1e-05, momentum=0.1, affine=True, track_running_stats=True)
        (2): ReLU6(inplace=True)
        (3): Conv2d(2, 2, kernel_size=(3, 3), stride=(1, 1), padding=(1, 1), groups=2)
        (4): BatchNorm2d(2, eps=1e-05, momentum=0.1, affine=True, track_running_stats=True)
        (5): ReLU6(inplace=True)
        (6): Conv2d(2, 96, kernel_size=(1, 1), stride=(1, 1))
        (7): BatchNorm2d(96, eps=1e-05, momentum=0.1, affine=True, track_running_stats=True)
      )
    )
  )
  (stage6): Sequential(
    (0): LinearBottleNeck(
      (residual): Sequential(
        (0): Conv2d(96, 162, kernel_size=(1, 1), stride=(1, 1))
        (1): BatchNorm2d(162, eps=1e-05, momentum=0.1, affine=True, track_running_stats=True)
        (2): ReLU6(inplace=True)
        (3): Conv2d(162, 162, kernel_size=(3, 3), stride=(1, 1), padding=(1, 1), groups=162)
        (4): BatchNorm2d(162, eps=1e-05, momentum=0.1, affine=True, track_running_stats=True)
        (5): ReLU6(inplace=True)
        (6): Conv2d(162, 160, kernel_size=(1, 1), stride=(1, 1))
        (7): BatchNorm2d(160, eps=1e-05, momentum=0.1, affine=True, track_running_stats=True)
      )
    )
    (1): LinearBottleNeck(
      (residual): Sequential(
        (0): Conv2d(160, 7, kernel_size=(1, 1), stride=(1, 1))
        (1): BatchNorm2d(7, eps=1e-05, momentum=0.1, affine=True, track_running_stats=True)
        (2): ReLU6(inplace=True)
        (3): Conv2d(7, 7, kernel_size=(3, 3), stride=(1, 1), padding=(1, 1), groups=7)
        (4): BatchNorm2d(7, eps=1e-05, momentum=0.1, affine=True, track_running_stats=True)
        (5): ReLU6(inplace=True)
        (6): Conv2d(7, 160, kernel_size=(1, 1), stride=(1, 1))
        (7): BatchNorm2d(160, eps=1e-05, momentum=0.1, affine=True, track_running_stats=True)
      )
    )
    (2): LinearBottleNeck(
      (residual): Sequential(
        (0): Conv2d(160, 3, kernel_size=(1, 1), stride=(1, 1))
        (1): BatchNorm2d(3, eps=1e-05, momentum=0.1, affine=True, track_running_stats=True)
        (2): ReLU6(inplace=True)
        (3): Conv2d(3, 3, kernel_size=(3, 3), stride=(1, 1), padding=(1, 1), groups=3)
        (4): BatchNorm2d(3, eps=1e-05, momentum=0.1, affine=True, track_running_stats=True)
        (5): ReLU6(inplace=True)
        (6): Conv2d(3, 160, kernel_size=(1, 1), stride=(1, 1))
        (7): BatchNorm2d(160, eps=1e-05, momentum=0.1, affine=True, track_running_stats=True)
      )
    )
  )
  (stage7): LinearBottleNeck(
    (residual): Sequential(
      (0): Conv2d(160, 393, kernel_size=(1, 1), stride=(1, 1))
      (1): BatchNorm2d(393, eps=1e-05, momentum=0.1, affine=True, track_running_stats=True)
      (2): ReLU6(inplace=True)
      (3): Conv2d(393, 393, kernel_size=(3, 3), stride=(1, 1), padding=(1, 1), groups=393)
      (4): BatchNorm2d(393, eps=1e-05, momentum=0.1, affine=True, track_running_stats=True)
      (5): ReLU6(inplace=True)
      (6): Conv2d(393, 320, kernel_size=(1, 1), stride=(1, 1))
      (7): BatchNorm2d(320, eps=1e-05, momentum=0.1, affine=True, track_running_stats=True)
    )
  )
  (conv1): Sequential(
    (0): Conv2d(320, 1019, kernel_size=(1, 1), stride=(1, 1))
    (1): BatchNorm2d(1019, eps=1e-05, momentum=0.1, affine=True, track_running_stats=True)
    (2): ReLU6(inplace=True)
  )
  (conv2): Conv2d(1019, 10, kernel_size=(1, 1), stride=(1, 1))
)
[02/26 04:52:48 cifar10-global-fpgm-3.0-mobilenetv2]: Params: 2.25 M => 0.65 M (28.77%)
[02/26 04:52:48 cifar10-global-fpgm-3.0-mobilenetv2]: FLOPs: 68.29 M => 22.69 M (33.23%, 3.01X )
[02/26 04:52:48 cifar10-global-fpgm-3.0-mobilenetv2]: Acc: 0.8936 => 0.8916
[02/26 04:52:48 cifar10-global-fpgm-3.0-mobilenetv2]: Val Loss: 0.3202 => 0.3225
[02/26 04:52:48 cifar10-global-fpgm-3.0-mobilenetv2]: Finetuning...
…
[02/26 05:38:38 cifar10-global-lamp-3.0-mobilenetv2]: iterative_steps: 400
[02/26 05:38:38 cifar10-global-lamp-3.0-mobilenetv2]: logger: <Logger cifar10-global-lamp-3.0-mobilenetv2 (DEBUG)>
[02/26 05:38:38 cifar10-global-lamp-3.0-mobilenetv2]: device: cuda
[02/26 05:38:38 cifar10-global-lamp-3.0-mobilenetv2]: num_classes: 10
[02/26 05:38:38 cifar10-global-lamp-3.0-mobilenetv2]: Loading model from run/cifar10/pretrain/cifar10_mobilenetv2.pth
[02/26 05:38:42 cifar10-global-lamp-3.0-mobilenetv2]: Pruning...
[02/26 05:39:14 cifar10-global-lamp-3.0-mobilenetv2]: MobileNetV2(
  (pre): Sequential(
    (0): Conv2d(3, 7, kernel_size=(1, 1), stride=(1, 1), padding=(1, 1))
    (1): BatchNorm2d(7, eps=1e-05, momentum=0.1, affine=True, track_running_stats=True)
    (2): ReLU6(inplace=True)
  )
  (stage1): LinearBottleNeck(
    (residual): Sequential(
      (0): Conv2d(7, 17, kernel_size=(1, 1), stride=(1, 1))
      (1): BatchNorm2d(17, eps=1e-05, momentum=0.1, affine=True, track_running_stats=True)
      (2): ReLU6(inplace=True)
      (3): Conv2d(17, 17, kernel_size=(3, 3), stride=(1, 1), padding=(1, 1), groups=17)
      (4): BatchNorm2d(17, eps=1e-05, momentum=0.1, affine=True, track_running_stats=True)
      (5): ReLU6(inplace=True)
      (6): Conv2d(17, 16, kernel_size=(1, 1), stride=(1, 1))
      (7): BatchNorm2d(16, eps=1e-05, momentum=0.1, affine=True, track_running_stats=True)
    )
  )
  (stage2): Sequential(
    (0): LinearBottleNeck(
      (residual): Sequential(
        (0): Conv2d(16, 68, kernel_size=(1, 1), stride=(1, 1))
        (1): BatchNorm2d(68, eps=1e-05, momentum=0.1, affine=True, track_running_stats=True)
        (2): ReLU6(inplace=True)
        (3): Conv2d(68, 68, kernel_size=(3, 3), stride=(2, 2), padding=(1, 1), groups=68)
        (4): BatchNorm2d(68, eps=1e-05, momentum=0.1, affine=True, track_running_stats=True)
        (5): ReLU6(inplace=True)
        (6): Conv2d(68, 24, kernel_size=(1, 1), stride=(1, 1))
        (7): BatchNorm2d(24, eps=1e-05, momentum=0.1, affine=True, track_running_stats=True)
      )
    )
    (1): LinearBottleNeck(
      (residual): Sequential(
        (0): Conv2d(24, 73, kernel_size=(1, 1), stride=(1, 1))
        (1): BatchNorm2d(73, eps=1e-05, momentum=0.1, affine=True, track_running_stats=True)
        (2): ReLU6(inplace=True)
        (3): Conv2d(73, 73, kernel_size=(3, 3), stride=(1, 1), padding=(1, 1), groups=73)
        (4): BatchNorm2d(73, eps=1e-05, momentum=0.1, affine=True, track_running_stats=True)
        (5): ReLU6(inplace=True)
        (6): Conv2d(73, 24, kernel_size=(1, 1), stride=(1, 1))
        (7): BatchNorm2d(24, eps=1e-05, momentum=0.1, affine=True, track_running_stats=True)
      )
    )
  )
  (stage3): Sequential(
    (0): LinearBottleNeck(
      (residual): Sequential(
        (0): Conv2d(24, 50, kernel_size=(1, 1), stride=(1, 1))
        (1): BatchNorm2d(50, eps=1e-05, momentum=0.1, affine=True, track_running_stats=True)
        (2): ReLU6(inplace=True)
        (3): Conv2d(50, 50, kernel_size=(3, 3), stride=(2, 2), padding=(1, 1), groups=50)
        (4): BatchNorm2d(50, eps=1e-05, momentum=0.1, affine=True, track_running_stats=True)
        (5): ReLU6(inplace=True)
        (6): Conv2d(50, 32, kernel_size=(1, 1), stride=(1, 1))
        (7): BatchNorm2d(32, eps=1e-05, momentum=0.1, affine=True, track_running_stats=True)
      )
    )
    (1): LinearBottleNeck(
      (residual): Sequential(
        (0): Conv2d(32, 70, kernel_size=(1, 1), stride=(1, 1))
        (1): BatchNorm2d(70, eps=1e-05, momentum=0.1, affine=True, track_running_stats=True)
        (2): ReLU6(inplace=True)
        (3): Conv2d(70, 70, kernel_size=(3, 3), stride=(1, 1), padding=(1, 1), groups=70)
        (4): BatchNorm2d(70, eps=1e-05, momentum=0.1, affine=True, track_running_stats=True)
        (5): ReLU6(inplace=True)
        (6): Conv2d(70, 32, kernel_size=(1, 1), stride=(1, 1))
        (7): BatchNorm2d(32, eps=1e-05, momentum=0.1, affine=True, track_running_stats=True)
      )
    )
    (2): LinearBottleNeck(
      (residual): Sequential(
        (0): Conv2d(32, 33, kernel_size=(1, 1), stride=(1, 1))
        (1): BatchNorm2d(33, eps=1e-05, momentum=0.1, affine=True, track_running_stats=True)
        (2): ReLU6(inplace=True)
        (3): Conv2d(33, 33, kernel_size=(3, 3), stride=(1, 1), padding=(1, 1), groups=33)
        (4): BatchNorm2d(33, eps=1e-05, momentum=0.1, affine=True, track_running_stats=True)
        (5): ReLU6(inplace=True)
        (6): Conv2d(33, 32, kernel_size=(1, 1), stride=(1, 1))
        (7): BatchNorm2d(32, eps=1e-05, momentum=0.1, affine=True, track_running_stats=True)
      )
    )
  )
  (stage4): Sequential(
    (0): LinearBottleNeck(
      (residual): Sequential(
        (0): Conv2d(32, 40, kernel_size=(1, 1), stride=(1, 1))
        (1): BatchNorm2d(40, eps=1e-05, momentum=0.1, affine=True, track_running_stats=True)
        (2): ReLU6(inplace=True)
        (3): Conv2d(40, 40, kernel_size=(3, 3), stride=(2, 2), padding=(1, 1), groups=40)
        (4): BatchNorm2d(40, eps=1e-05, momentum=0.1, affine=True, track_running_stats=True)
        (5): ReLU6(inplace=True)
        (6): Conv2d(40, 64, kernel_size=(1, 1), stride=(1, 1))
        (7): BatchNorm2d(64, eps=1e-05, momentum=0.1, affine=True, track_running_stats=True)
      )
    )
    (1): LinearBottleNeck(
      (residual): Sequential(
        (0): Conv2d(64, 51, kernel_size=(1, 1), stride=(1, 1))
        (1): BatchNorm2d(51, eps=1e-05, momentum=0.1, affine=True, track_running_stats=True)
        (2): ReLU6(inplace=True)
        (3): Conv2d(51, 51, kernel_size=(3, 3), stride=(1, 1), padding=(1, 1), groups=51)
        (4): BatchNorm2d(51, eps=1e-05, momentum=0.1, affine=True, track_running_stats=True)
        (5): ReLU6(inplace=True)
        (6): Conv2d(51, 64, kernel_size=(1, 1), stride=(1, 1))
        (7): BatchNorm2d(64, eps=1e-05, momentum=0.1, affine=True, track_running_stats=True)
      )
    )
    (2): LinearBottleNeck(
      (residual): Sequential(
        (0): Conv2d(64, 33, kernel_size=(1, 1), stride=(1, 1))
        (1): BatchNorm2d(33, eps=1e-05, momentum=0.1, affine=True, track_running_stats=True)
        (2): ReLU6(inplace=True)
        (3): Conv2d(33, 33, kernel_size=(3, 3), stride=(1, 1), padding=(1, 1), groups=33)
        (4): BatchNorm2d(33, eps=1e-05, momentum=0.1, affine=True, track_running_stats=True)
        (5): ReLU6(inplace=True)
        (6): Conv2d(33, 64, kernel_size=(1, 1), stride=(1, 1))
        (7): BatchNorm2d(64, eps=1e-05, momentum=0.1, affine=True, track_running_stats=True)
      )
    )
    (3): LinearBottleNeck(
      (residual): Sequential(
        (0): Conv2d(64, 14, kernel_size=(1, 1), stride=(1, 1))
        (1): BatchNorm2d(14, eps=1e-05, momentum=0.1, affine=True, track_running_stats=True)
        (2): ReLU6(inplace=True)
        (3): Conv2d(14, 14, kernel_size=(3, 3), stride=(1, 1), padding=(1, 1), groups=14)
        (4): BatchNorm2d(14, eps=1e-05, momentum=0.1, affine=True, track_running_stats=True)
        (5): ReLU6(inplace=True)
        (6): Conv2d(14, 64, kernel_size=(1, 1), stride=(1, 1))
        (7): BatchNorm2d(64, eps=1e-05, momentum=0.1, affine=True, track_running_stats=True)
      )
    )
  )
  (stage5): Sequential(
    (0): LinearBottleNeck(
      (residual): Sequential(
        (0): Conv2d(64, 73, kernel_size=(1, 1), stride=(1, 1))
        (1): BatchNorm2d(73, eps=1e-05, momentum=0.1, affine=True, track_running_stats=True)
        (2): ReLU6(inplace=True)
        (3): Conv2d(73, 73, kernel_size=(3, 3), stride=(1, 1), padding=(1, 1), groups=73)
        (4): BatchNorm2d(73, eps=1e-05, momentum=0.1, affine=True, track_running_stats=True)
        (5): ReLU6(inplace=True)
        (6): Conv2d(73, 96, kernel_size=(1, 1), stride=(1, 1))
        (7): BatchNorm2d(96, eps=1e-05, momentum=0.1, affine=True, track_running_stats=True)
      )
    )
    (1): LinearBottleNeck(
      (residual): Sequential(
        (0): Conv2d(96, 17, kernel_size=(1, 1), stride=(1, 1))
        (1): BatchNorm2d(17, eps=1e-05, momentum=0.1, affine=True, track_running_stats=True)
        (2): ReLU6(inplace=True)
        (3): Conv2d(17, 17, kernel_size=(3, 3), stride=(1, 1), padding=(1, 1), groups=17)
        (4): BatchNorm2d(17, eps=1e-05, momentum=0.1, affine=True, track_running_stats=True)
        (5): ReLU6(inplace=True)
        (6): Conv2d(17, 96, kernel_size=(1, 1), stride=(1, 1))
        (7): BatchNorm2d(96, eps=1e-05, momentum=0.1, affine=True, track_running_stats=True)
      )
    )
    (2): LinearBottleNeck(
      (residual): Sequential(
        (0): Conv2d(96, 3, kernel_size=(1, 1), stride=(1, 1))
        (1): BatchNorm2d(3, eps=1e-05, momentum=0.1, affine=True, track_running_stats=True)
        (2): ReLU6(inplace=True)
        (3): Conv2d(3, 3, kernel_size=(3, 3), stride=(1, 1), padding=(1, 1), groups=3)
        (4): BatchNorm2d(3, eps=1e-05, momentum=0.1, affine=True, track_running_stats=True)
        (5): ReLU6(inplace=True)
        (6): Conv2d(3, 96, kernel_size=(1, 1), stride=(1, 1))
        (7): BatchNorm2d(96, eps=1e-05, momentum=0.1, affine=True, track_running_stats=True)
      )
    )
  )
  (stage6): Sequential(
    (0): LinearBottleNeck(
      (residual): Sequential(
        (0): Conv2d(96, 142, kernel_size=(1, 1), stride=(1, 1))
        (1): BatchNorm2d(142, eps=1e-05, momentum=0.1, affine=True, track_running_stats=True)
        (2): ReLU6(inplace=True)
        (3): Conv2d(142, 142, kernel_size=(3, 3), stride=(1, 1), padding=(1, 1), groups=142)
        (4): BatchNorm2d(142, eps=1e-05, momentum=0.1, affine=True, track_running_stats=True)
        (5): ReLU6(inplace=True)
        (6): Conv2d(142, 160, kernel_size=(1, 1), stride=(1, 1))
        (7): BatchNorm2d(160, eps=1e-05, momentum=0.1, affine=True, track_running_stats=True)
      )
    )
    (1): LinearBottleNeck(
      (residual): Sequential(
        (0): Conv2d(160, 7, kernel_size=(1, 1), stride=(1, 1))
        (1): BatchNorm2d(7, eps=1e-05, momentum=0.1, affine=True, track_running_stats=True)
        (2): ReLU6(inplace=True)
        (3): Conv2d(7, 7, kernel_size=(3, 3), stride=(1, 1), padding=(1, 1), groups=7)
        (4): BatchNorm2d(7, eps=1e-05, momentum=0.1, affine=True, track_running_stats=True)
        (5): ReLU6(inplace=True)
        (6): Conv2d(7, 160, kernel_size=(1, 1), stride=(1, 1))
        (7): BatchNorm2d(160, eps=1e-05, momentum=0.1, affine=True, track_running_stats=True)
      )
    )
    (2): LinearBottleNeck(
      (residual): Sequential(
        (0): Conv2d(160, 4, kernel_size=(1, 1), stride=(1, 1))
        (1): BatchNorm2d(4, eps=1e-05, momentum=0.1, affine=True, track_running_stats=True)
        (2): ReLU6(inplace=True)
        (3): Conv2d(4, 4, kernel_size=(3, 3), stride=(1, 1), padding=(1, 1), groups=4)
        (4): BatchNorm2d(4, eps=1e-05, momentum=0.1, affine=True, track_running_stats=True)
        (5): ReLU6(inplace=True)
        (6): Conv2d(4, 160, kernel_size=(1, 1), stride=(1, 1))
        (7): BatchNorm2d(160, eps=1e-05, momentum=0.1, affine=True, track_running_stats=True)
      )
    )
  )
  (stage7): LinearBottleNeck(
    (residual): Sequential(
      (0): Conv2d(160, 404, kernel_size=(1, 1), stride=(1, 1))
      (1): BatchNorm2d(404, eps=1e-05, momentum=0.1, affine=True, track_running_stats=True)
      (2): ReLU6(inplace=True)
      (3): Conv2d(404, 404, kernel_size=(3, 3), stride=(1, 1), padding=(1, 1), groups=404)
      (4): BatchNorm2d(404, eps=1e-05, momentum=0.1, affine=True, track_running_stats=True)
      (5): ReLU6(inplace=True)
      (6): Conv2d(404, 320, kernel_size=(1, 1), stride=(1, 1))
      (7): BatchNorm2d(320, eps=1e-05, momentum=0.1, affine=True, track_running_stats=True)
    )
  )
  (conv1): Sequential(
    (0): Conv2d(320, 1181, kernel_size=(1, 1), stride=(1, 1))
    (1): BatchNorm2d(1181, eps=1e-05, momentum=0.1, affine=True, track_running_stats=True)
    (2): ReLU6(inplace=True)
  )
  (conv2): Conv2d(1181, 10, kernel_size=(1, 1), stride=(1, 1))
)
[02/26 05:39:17 cifar10-global-lamp-3.0-mobilenetv2]: Params: 2.25 M => 0.70 M (30.88%)
[02/26 05:39:17 cifar10-global-lamp-3.0-mobilenetv2]: FLOPs: 68.29 M => 22.63 M (33.14%, 3.02X )
[02/26 05:39:17 cifar10-global-lamp-3.0-mobilenetv2]: Acc: 0.8936 => 0.8936
[02/26 05:39:17 cifar10-global-lamp-3.0-mobilenetv2]: Val Loss: 0.3202 => 0.3194
[02/26 05:39:17 cifar10-global-lamp-3.0-mobilenetv2]: Finetuning...
…
[02/26 07:10:24 cifar10-global-slim-3.0-mobilenetv2]: Epoch 98/100, Acc=0.8992, Val Loss=0.3194, lr=0.0001
[02/26 07:10:52 cifar10-global-slim-3.0-mobilenetv2]: Epoch 99/100, Acc=0.8989, Val Loss=0.3196, lr=0.0001
[02/26 07:10:52 cifar10-global-slim-3.0-mobilenetv2]: Best Acc=0.9005
[02/26 07:10:52 cifar10-global-slim-3.0-mobilenetv2]: Loading the sparse model from run/cifar10/prune/cifar10-global-slim-3.0-mobilenetv2/reg_cifar10_mobilenetv2_slim_1e-05.pth...
[02/26 07:10:55 cifar10-global-slim-3.0-mobilenetv2]: Pruning...
[02/26 07:11:18 cifar10-global-slim-3.0-mobilenetv2]: MobileNetV2(
  (pre): Sequential(
    (0): Conv2d(3, 7, kernel_size=(1, 1), stride=(1, 1), padding=(1, 1))
    (1): BatchNorm2d(7, eps=1e-05, momentum=0.1, affine=True, track_running_stats=True)
    (2): ReLU6(inplace=True)
  )
  (stage1): LinearBottleNeck(
    (residual): Sequential(
      (0): Conv2d(7, 16, kernel_size=(1, 1), stride=(1, 1))
      (1): BatchNorm2d(16, eps=1e-05, momentum=0.1, affine=True, track_running_stats=True)
      (2): ReLU6(inplace=True)
      (3): Conv2d(16, 16, kernel_size=(3, 3), stride=(1, 1), padding=(1, 1), groups=16)
      (4): BatchNorm2d(16, eps=1e-05, momentum=0.1, affine=True, track_running_stats=True)
      (5): ReLU6(inplace=True)
      (6): Conv2d(16, 16, kernel_size=(1, 1), stride=(1, 1))
      (7): BatchNorm2d(16, eps=1e-05, momentum=0.1, affine=True, track_running_stats=True)
    )
  )
  (stage2): Sequential(
    (0): LinearBottleNeck(
      (residual): Sequential(
        (0): Conv2d(16, 67, kernel_size=(1, 1), stride=(1, 1))
        (1): BatchNorm2d(67, eps=1e-05, momentum=0.1, affine=True, track_running_stats=True)
        (2): ReLU6(inplace=True)
        (3): Conv2d(67, 67, kernel_size=(3, 3), stride=(2, 2), padding=(1, 1), groups=67)
        (4): BatchNorm2d(67, eps=1e-05, momentum=0.1, affine=True, track_running_stats=True)
        (5): ReLU6(inplace=True)
        (6): Conv2d(67, 24, kernel_size=(1, 1), stride=(1, 1))
        (7): BatchNorm2d(24, eps=1e-05, momentum=0.1, affine=True, track_running_stats=True)
      )
    )
    (1): LinearBottleNeck(
      (residual): Sequential(
        (0): Conv2d(24, 72, kernel_size=(1, 1), stride=(1, 1))
        (1): BatchNorm2d(72, eps=1e-05, momentum=0.1, affine=True, track_running_stats=True)
        (2): ReLU6(inplace=True)
        (3): Conv2d(72, 72, kernel_size=(3, 3), stride=(1, 1), padding=(1, 1), groups=72)
        (4): BatchNorm2d(72, eps=1e-05, momentum=0.1, affine=True, track_running_stats=True)
        (5): ReLU6(inplace=True)
        (6): Conv2d(72, 24, kernel_size=(1, 1), stride=(1, 1))
        (7): BatchNorm2d(24, eps=1e-05, momentum=0.1, affine=True, track_running_stats=True)
      )
    )
  )
  (stage3): Sequential(
    (0): LinearBottleNeck(
      (residual): Sequential(
        (0): Conv2d(24, 50, kernel_size=(1, 1), stride=(1, 1))
        (1): BatchNorm2d(50, eps=1e-05, momentum=0.1, affine=True, track_running_stats=True)
        (2): ReLU6(inplace=True)
        (3): Conv2d(50, 50, kernel_size=(3, 3), stride=(2, 2), padding=(1, 1), groups=50)
        (4): BatchNorm2d(50, eps=1e-05, momentum=0.1, affine=True, track_running_stats=True)
        (5): ReLU6(inplace=True)
        (6): Conv2d(50, 32, kernel_size=(1, 1), stride=(1, 1))
        (7): BatchNorm2d(32, eps=1e-05, momentum=0.1, affine=True, track_running_stats=True)
      )
    )
    (1): LinearBottleNeck(
      (residual): Sequential(
        (0): Conv2d(32, 65, kernel_size=(1, 1), stride=(1, 1))
        (1): BatchNorm2d(65, eps=1e-05, momentum=0.1, affine=True, track_running_stats=True)
        (2): ReLU6(inplace=True)
        (3): Conv2d(65, 65, kernel_size=(3, 3), stride=(1, 1), padding=(1, 1), groups=65)
        (4): BatchNorm2d(65, eps=1e-05, momentum=0.1, affine=True, track_running_stats=True)
        (5): ReLU6(inplace=True)
        (6): Conv2d(65, 32, kernel_size=(1, 1), stride=(1, 1))
        (7): BatchNorm2d(32, eps=1e-05, momentum=0.1, affine=True, track_running_stats=True)
      )
    )
    (2): LinearBottleNeck(
      (residual): Sequential(
        (0): Conv2d(32, 31, kernel_size=(1, 1), stride=(1, 1))
        (1): BatchNorm2d(31, eps=1e-05, momentum=0.1, affine=True, track_running_stats=True)
        (2): ReLU6(inplace=True)
        (3): Conv2d(31, 31, kernel_size=(3, 3), stride=(1, 1), padding=(1, 1), groups=31)
        (4): BatchNorm2d(31, eps=1e-05, momentum=0.1, affine=True, track_running_stats=True)
        (5): ReLU6(inplace=True)
        (6): Conv2d(31, 32, kernel_size=(1, 1), stride=(1, 1))
        (7): BatchNorm2d(32, eps=1e-05, momentum=0.1, affine=True, track_running_stats=True)
      )
    )
  )
  (stage4): Sequential(
    (0): LinearBottleNeck(
      (residual): Sequential(
        (0): Conv2d(32, 39, kernel_size=(1, 1), stride=(1, 1))
        (1): BatchNorm2d(39, eps=1e-05, momentum=0.1, affine=True, track_running_stats=True)
        (2): ReLU6(inplace=True)
        (3): Conv2d(39, 39, kernel_size=(3, 3), stride=(2, 2), padding=(1, 1), groups=39)
        (4): BatchNorm2d(39, eps=1e-05, momentum=0.1, affine=True, track_running_stats=True)
        (5): ReLU6(inplace=True)
        (6): Conv2d(39, 62, kernel_size=(1, 1), stride=(1, 1))
        (7): BatchNorm2d(62, eps=1e-05, momentum=0.1, affine=True, track_running_stats=True)
      )
    )
    (1): LinearBottleNeck(
      (residual): Sequential(
        (0): Conv2d(62, 47, kernel_size=(1, 1), stride=(1, 1))
        (1): BatchNorm2d(47, eps=1e-05, momentum=0.1, affine=True, track_running_stats=True)
        (2): ReLU6(inplace=True)
        (3): Conv2d(47, 47, kernel_size=(3, 3), stride=(1, 1), padding=(1, 1), groups=47)
        (4): BatchNorm2d(47, eps=1e-05, momentum=0.1, affine=True, track_running_stats=True)
        (5): ReLU6(inplace=True)
        (6): Conv2d(47, 62, kernel_size=(1, 1), stride=(1, 1))
        (7): BatchNorm2d(62, eps=1e-05, momentum=0.1, affine=True, track_running_stats=True)
      )
    )
    (2): LinearBottleNeck(
      (residual): Sequential(
        (0): Conv2d(62, 31, kernel_size=(1, 1), stride=(1, 1))
        (1): BatchNorm2d(31, eps=1e-05, momentum=0.1, affine=True, track_running_stats=True)
        (2): ReLU6(inplace=True)
        (3): Conv2d(31, 31, kernel_size=(3, 3), stride=(1, 1), padding=(1, 1), groups=31)
        (4): BatchNorm2d(31, eps=1e-05, momentum=0.1, affine=True, track_running_stats=True)
        (5): ReLU6(inplace=True)
        (6): Conv2d(31, 62, kernel_size=(1, 1), stride=(1, 1))
        (7): BatchNorm2d(62, eps=1e-05, momentum=0.1, affine=True, track_running_stats=True)
      )
    )
    (3): LinearBottleNeck(
      (residual): Sequential(
        (0): Conv2d(62, 11, kernel_size=(1, 1), stride=(1, 1))
        (1): BatchNorm2d(11, eps=1e-05, momentum=0.1, affine=True, track_running_stats=True)
        (2): ReLU6(inplace=True)
        (3): Conv2d(11, 11, kernel_size=(3, 3), stride=(1, 1), padding=(1, 1), groups=11)
        (4): BatchNorm2d(11, eps=1e-05, momentum=0.1, affine=True, track_running_stats=True)
        (5): ReLU6(inplace=True)
        (6): Conv2d(11, 62, kernel_size=(1, 1), stride=(1, 1))
        (7): BatchNorm2d(62, eps=1e-05, momentum=0.1, affine=True, track_running_stats=True)
      )
    )
  )
  (stage5): Sequential(
    (0): LinearBottleNeck(
      (residual): Sequential(
        (0): Conv2d(62, 71, kernel_size=(1, 1), stride=(1, 1))
        (1): BatchNorm2d(71, eps=1e-05, momentum=0.1, affine=True, track_running_stats=True)
        (2): ReLU6(inplace=True)
        (3): Conv2d(71, 71, kernel_size=(3, 3), stride=(1, 1), padding=(1, 1), groups=71)
        (4): BatchNorm2d(71, eps=1e-05, momentum=0.1, affine=True, track_running_stats=True)
        (5): ReLU6(inplace=True)
        (6): Conv2d(71, 89, kernel_size=(1, 1), stride=(1, 1))
        (7): BatchNorm2d(89, eps=1e-05, momentum=0.1, affine=True, track_running_stats=True)
      )
    )
    (1): LinearBottleNeck(
      (residual): Sequential(
        (0): Conv2d(89, 428, kernel_size=(1, 1), stride=(1, 1))
        (1): BatchNorm2d(428, eps=1e-05, momentum=0.1, affine=True, track_running_stats=True)
        (2): ReLU6(inplace=True)
        (3): Conv2d(428, 428, kernel_size=(3, 3), stride=(1, 1), padding=(1, 1), groups=428)
        (4): BatchNorm2d(428, eps=1e-05, momentum=0.1, affine=True, track_running_stats=True)
        (5): ReLU6(inplace=True)
        (6): Conv2d(428, 89, kernel_size=(1, 1), stride=(1, 1))
        (7): BatchNorm2d(89, eps=1e-05, momentum=0.1, affine=True, track_running_stats=True)
      )
    )
    (2): LinearBottleNeck(
      (residual): Sequential(
        (0): Conv2d(89, 550, kernel_size=(1, 1), stride=(1, 1))
        (1): BatchNorm2d(550, eps=1e-05, momentum=0.1, affine=True, track_running_stats=True)
        (2): ReLU6(inplace=True)
        (3): Conv2d(550, 550, kernel_size=(3, 3), stride=(1, 1), padding=(1, 1), groups=550)
        (4): BatchNorm2d(550, eps=1e-05, momentum=0.1, affine=True, track_running_stats=True)
        (5): ReLU6(inplace=True)
        (6): Conv2d(550, 89, kernel_size=(1, 1), stride=(1, 1))
        (7): BatchNorm2d(89, eps=1e-05, momentum=0.1, affine=True, track_running_stats=True)
      )
    )
  )
  (stage6): Sequential(
    (0): LinearBottleNeck(
      (residual): Sequential(
        (0): Conv2d(89, 119, kernel_size=(1, 1), stride=(1, 1))
        (1): BatchNorm2d(119, eps=1e-05, momentum=0.1, affine=True, track_running_stats=True)
        (2): ReLU6(inplace=True)
        (3): Conv2d(119, 119, kernel_size=(3, 3), stride=(1, 1), padding=(1, 1), groups=119)
        (4): BatchNorm2d(119, eps=1e-05, momentum=0.1, affine=True, track_running_stats=True)
        (5): ReLU6(inplace=True)
        (6): Conv2d(119, 130, kernel_size=(1, 1), stride=(1, 1))
        (7): BatchNorm2d(130, eps=1e-05, momentum=0.1, affine=True, track_running_stats=True)
      )
    )
    (1): LinearBottleNeck(
      (residual): Sequential(
        (0): Conv2d(130, 7, kernel_size=(1, 1), stride=(1, 1))
        (1): BatchNorm2d(7, eps=1e-05, momentum=0.1, affine=True, track_running_stats=True)
        (2): ReLU6(inplace=True)
        (3): Conv2d(7, 7, kernel_size=(3, 3), stride=(1, 1), padding=(1, 1), groups=7)
        (4): BatchNorm2d(7, eps=1e-05, momentum=0.1, affine=True, track_running_stats=True)
        (5): ReLU6(inplace=True)
        (6): Conv2d(7, 130, kernel_size=(1, 1), stride=(1, 1))
        (7): BatchNorm2d(130, eps=1e-05, momentum=0.1, affine=True, track_running_stats=True)
      )
    )
    (2): LinearBottleNeck(
      (residual): Sequential(
        (0): Conv2d(130, 1, kernel_size=(1, 1), stride=(1, 1))
        (1): BatchNorm2d(1, eps=1e-05, momentum=0.1, affine=True, track_running_stats=True)
        (2): ReLU6(inplace=True)
        (3): Conv2d(1, 1, kernel_size=(3, 3), stride=(1, 1), padding=(1, 1))
        (4): BatchNorm2d(1, eps=1e-05, momentum=0.1, affine=True, track_running_stats=True)
        (5): ReLU6(inplace=True)
        (6): Conv2d(1, 130, kernel_size=(1, 1), stride=(1, 1))
        (7): BatchNorm2d(130, eps=1e-05, momentum=0.1, affine=True, track_running_stats=True)
      )
    )
  )
  (stage7): LinearBottleNeck(
    (residual): Sequential(
      (0): Conv2d(130, 295, kernel_size=(1, 1), stride=(1, 1))
      (1): BatchNorm2d(295, eps=1e-05, momentum=0.1, affine=True, track_running_stats=True)
      (2): ReLU6(inplace=True)
      (3): Conv2d(295, 295, kernel_size=(3, 3), stride=(1, 1), padding=(1, 1), groups=295)
      (4): BatchNorm2d(295, eps=1e-05, momentum=0.1, affine=True, track_running_stats=True)
      (5): ReLU6(inplace=True)
      (6): Conv2d(295, 281, kernel_size=(1, 1), stride=(1, 1))
      (7): BatchNorm2d(281, eps=1e-05, momentum=0.1, affine=True, track_running_stats=True)
    )
  )
  (conv1): Sequential(
    (0): Conv2d(281, 1032, kernel_size=(1, 1), stride=(1, 1))
    (1): BatchNorm2d(1032, eps=1e-05, momentum=0.1, affine=True, track_running_stats=True)
    (2): ReLU6(inplace=True)
  )
  (conv2): Conv2d(1032, 10, kernel_size=(1, 1), stride=(1, 1))
)
[02/26 07:11:21 cifar10-global-slim-3.0-mobilenetv2]: Params: 2.25 M => 0.70 M (31.07%)
[02/26 07:11:21 cifar10-global-slim-3.0-mobilenetv2]: FLOPs: 68.29 M => 22.68 M (33.22%, 3.01X )
[02/26 07:11:21 cifar10-global-slim-3.0-mobilenetv2]: Acc: 0.9005 => 0.8499
[02/26 07:11:21 cifar10-global-slim-3.0-mobilenetv2]: Val Loss: 0.3179 => 0.4730
[02/26 07:11:21 cifar10-global-slim-3.0-mobilenetv2]: Finetuning...
…
