…
[02/23 04:25:35] modelnet40-global-proj-3.0-pointnet INFO: iterative_steps: 400
[02/23 04:25:35] modelnet40-global-proj-3.0-pointnet INFO: logger: <Logger modelnet40-global-proj-3.0-pointnet (DEBUG)>
[02/23 04:25:35] modelnet40-global-proj-3.0-pointnet INFO: device: cuda
[02/23 04:25:35] modelnet40-global-proj-3.0-pointnet INFO: num_classes: 40
[02/23 04:25:35] modelnet40-global-proj-3.0-pointnet INFO: Loading model from run/modelnet40/pretrain/modelnet40_pointnet.pth
[02/23 04:25:36] modelnet40-global-proj-3.0-pointnet INFO: Pruning...
[02/23 04:28:59] modelnet40-global-proj-3.0-pointnet INFO: PointNet(
  (conv1): Conv1d(3, 43, kernel_size=(1,), stride=(1,), bias=False)
  (conv2): Conv1d(43, 46, kernel_size=(1,), stride=(1,), bias=False)
  (conv3): Conv1d(46, 35, kernel_size=(1,), stride=(1,), bias=False)
  (conv4): Conv1d(35, 96, kernel_size=(1,), stride=(1,), bias=False)
  (conv5): Conv1d(96, 882, kernel_size=(1,), stride=(1,), bias=False)
  (bn1): BatchNorm1d(43, eps=1e-05, momentum=0.1, affine=True, track_running_stats=True)
  (bn2): BatchNorm1d(46, eps=1e-05, momentum=0.1, affine=True, track_running_stats=True)
  (bn3): BatchNorm1d(35, eps=1e-05, momentum=0.1, affine=True, track_running_stats=True)
  (bn4): BatchNorm1d(96, eps=1e-05, momentum=0.1, affine=True, track_running_stats=True)
  (bn5): BatchNorm1d(882, eps=1e-05, momentum=0.1, affine=True, track_running_stats=True)
  (linear1): Linear(in_features=882, out_features=186, bias=False)
  (bn6): BatchNorm1d(186, eps=1e-05, momentum=0.1, affine=True, track_running_stats=True)
  (dp1): Dropout(p=0.5, inplace=False)
  (linear2): Linear(in_features=186, out_features=40, bias=True)
)
[02/23 04:29:00] modelnet40-global-proj-3.0-pointnet INFO: Params: 1.35 M => 0.27 M (19.64%)
[02/23 04:29:00] modelnet40-global-proj-3.0-pointnet INFO: FLOPs: 291.33 M => 96.38 M (33.08%, 3.02X )
[02/23 04:29:00] modelnet40-global-proj-3.0-pointnet INFO: Acc: 0.8861 => 0.2690
[02/23 04:29:00] modelnet40-global-proj-3.0-pointnet INFO: Val Loss: 0.3951 => 3.5568
…
