…
[02/23 02:58:19] modelnet40-global-slim-3.0-pointnet INFO: Epoch 98/100, Acc=0.8918, Val Loss=0.3681, lr=0.0001
[02/23 02:58:31] modelnet40-global-slim-3.0-pointnet INFO: Epoch 99/100, Acc=0.8930, Val Loss=0.3668, lr=0.0001
[02/23 02:58:31] modelnet40-global-slim-3.0-pointnet INFO: Best Acc=0.8930
[02/23 02:58:31] modelnet40-global-slim-3.0-pointnet INFO: Loading the sparse model from run/modelnet40/prune/modelnet40-global-slim-3.0-pointnet/reg_modelnet40_pointnet_slim_1e-05.pth...
[02/23 02:58:31] modelnet40-global-slim-3.0-pointnet INFO: Pruning...
[02/23 02:58:35] modelnet40-global-slim-3.0-pointnet INFO: PointNet(
  (conv1): Conv1d(3, 41, kernel_size=(1,), stride=(1,), bias=False)
  (conv2): Conv1d(41, 46, kernel_size=(1,), stride=(1,), bias=False)
  (conv3): Conv1d(46, 33, kernel_size=(1,), stride=(1,), bias=False)
  (conv4): Conv1d(33, 98, kernel_size=(1,), stride=(1,), bias=False)
  (conv5): Conv1d(98, 863, kernel_size=(1,), stride=(1,), bias=False)
  (bn1): BatchNorm1d(41, eps=1e-05, momentum=0.1, affine=True, track_running_stats=True)
  (bn2): BatchNorm1d(46, eps=1e-05, momentum=0.1, affine=True, track_running_stats=True)
  (bn3): BatchNorm1d(33, eps=1e-05, momentum=0.1, affine=True, track_running_stats=True)
  (bn4): BatchNorm1d(98, eps=1e-05, momentum=0.1, affine=True, track_running_stats=True)
  (bn5): BatchNorm1d(863, eps=1e-05, momentum=0.1, affine=True, track_running_stats=True)
  (linear1): Linear(in_features=863, out_features=186, bias=False)
  (bn6): BatchNorm1d(186, eps=1e-05, momentum=0.1, affine=True, track_running_stats=True)
  (dp1): Dropout(p=0.5, inplace=False)
  (linear2): Linear(in_features=186, out_features=40, bias=True)
)
[02/23 02:58:35] modelnet40-global-slim-3.0-pointnet INFO: Params: 1.35 M => 0.26 M (19.35%)
[02/23 02:58:35] modelnet40-global-slim-3.0-pointnet INFO: FLOPs: 291.33 M => 95.91 M (32.92%, 3.04X )
[02/23 02:58:35] modelnet40-global-slim-3.0-pointnet INFO: Acc: 0.8930 => 0.2257
[02/23 02:58:35] modelnet40-global-slim-3.0-pointnet INFO: Val Loss: 0.3693 => 4.2157
…
