…
[02/24 08:15:48] cifar100-global-proj-3.0-mobilenetv2 INFO: iterative_steps: 400
[02/24 08:15:48] cifar100-global-proj-3.0-mobilenetv2 INFO: logger: <Logger cifar100-global-proj-3.0-mobilenetv2 (DEBUG)>
[02/24 08:15:48] cifar100-global-proj-3.0-mobilenetv2 INFO: device: cuda
[02/24 08:15:48] cifar100-global-proj-3.0-mobilenetv2 INFO: num_classes: 100
[02/24 08:15:48] cifar100-global-proj-3.0-mobilenetv2 INFO: Loading model from run/cifar100/pretrain/cifar100_mobilenetv2.pth
[02/24 08:15:52] cifar100-global-proj-3.0-mobilenetv2 INFO: Pruning...
[02/24 08:28:31] cifar100-global-proj-3.0-mobilenetv2 INFO: MobileNetV2(
  (pre): Sequential(
    (0): Conv2d(3, 13, kernel_size=(1, 1), stride=(1, 1), padding=(1, 1))
    (1): BatchNorm2d(13, eps=1e-05, momentum=0.1, affine=True, track_running_stats=True)
    (2): ReLU6(inplace=True)
  )
  (stage1): LinearBottleNeck(
    (residual): Sequential(
      (0): Conv2d(13, 15, kernel_size=(1, 1), stride=(1, 1))
      (1): BatchNorm2d(15, eps=1e-05, momentum=0.1, affine=True, track_running_stats=True)
      (2): ReLU6(inplace=True)
      (3): Conv2d(15, 15, kernel_size=(3, 3), stride=(1, 1), padding=(1, 1), groups=15)
      (4): BatchNorm2d(15, eps=1e-05, momentum=0.1, affine=True, track_running_stats=True)
      (5): ReLU6(inplace=True)
      (6): Conv2d(15, 16, kernel_size=(1, 1), stride=(1, 1))
      (7): BatchNorm2d(16, eps=1e-05, momentum=0.1, affine=True, track_running_stats=True)
    )
  )
  (stage2): Sequential(
    (0): LinearBottleNeck(
      (residual): Sequential(
        (0): Conv2d(16, 78, kernel_size=(1, 1), stride=(1, 1))
        (1): BatchNorm2d(78, eps=1e-05, momentum=0.1, affine=True, track_running_stats=True)
        (2): ReLU6(inplace=True)
        (3): Conv2d(78, 78, kernel_size=(3, 3), stride=(2, 2), padding=(1, 1), groups=78)
        (4): BatchNorm2d(78, eps=1e-05, momentum=0.1, affine=True, track_running_stats=True)
        (5): ReLU6(inplace=True)
        (6): Conv2d(78, 24, kernel_size=(1, 1), stride=(1, 1))
        (7): BatchNorm2d(24, eps=1e-05, momentum=0.1, affine=True, track_running_stats=True)
      )
    )
    (1): LinearBottleNeck(
      (residual): Sequential(
        (0): Conv2d(24, 107, kernel_size=(1, 1), stride=(1, 1))
        (1): BatchNorm2d(107, eps=1e-05, momentum=0.1, affine=True, track_running_stats=True)
        (2): ReLU6(inplace=True)
        (3): Conv2d(107, 107, kernel_size=(3, 3), stride=(1, 1), padding=(1, 1), groups=107)
        (4): BatchNorm2d(107, eps=1e-05, momentum=0.1, affine=True, track_running_stats=True)
        (5): ReLU6(inplace=True)
        (6): Conv2d(107, 24, kernel_size=(1, 1), stride=(1, 1))
        (7): BatchNorm2d(24, eps=1e-05, momentum=0.1, affine=True, track_running_stats=True)
      )
    )
  )
  (stage3): Sequential(
    (0): LinearBottleNeck(
      (residual): Sequential(
        (0): Conv2d(24, 87, kernel_size=(1, 1), stride=(1, 1))
        (1): BatchNorm2d(87, eps=1e-05, momentum=0.1, affine=True, track_running_stats=True)
        (2): ReLU6(inplace=True)
        (3): Conv2d(87, 87, kernel_size=(3, 3), stride=(2, 2), padding=(1, 1), groups=87)
        (4): BatchNorm2d(87, eps=1e-05, momentum=0.1, affine=True, track_running_stats=True)
        (5): ReLU6(inplace=True)
        (6): Conv2d(87, 32, kernel_size=(1, 1), stride=(1, 1))
        (7): BatchNorm2d(32, eps=1e-05, momentum=0.1, affine=True, track_running_stats=True)
      )
    )
    (1): LinearBottleNeck(
      (residual): Sequential(
        (0): Conv2d(32, 107, kernel_size=(1, 1), stride=(1, 1))
        (1): BatchNorm2d(107, eps=1e-05, momentum=0.1, affine=True, track_running_stats=True)
        (2): ReLU6(inplace=True)
        (3): Conv2d(107, 107, kernel_size=(3, 3), stride=(1, 1), padding=(1, 1), groups=107)
        (4): BatchNorm2d(107, eps=1e-05, momentum=0.1, affine=True, track_running_stats=True)
        (5): ReLU6(inplace=True)
        (6): Conv2d(107, 32, kernel_size=(1, 1), stride=(1, 1))
        (7): BatchNorm2d(32, eps=1e-05, momentum=0.1, affine=True, track_running_stats=True)
      )
    )
    (2): LinearBottleNeck(
      (residual): Sequential(
        (0): Conv2d(32, 85, kernel_size=(1, 1), stride=(1, 1))
        (1): BatchNorm2d(85, eps=1e-05, momentum=0.1, affine=True, track_running_stats=True)
        (2): ReLU6(inplace=True)
        (3): Conv2d(85, 85, kernel_size=(3, 3), stride=(1, 1), padding=(1, 1), groups=85)
        (4): BatchNorm2d(85, eps=1e-05, momentum=0.1, affine=True, track_running_stats=True)
        (5): ReLU6(inplace=True)
        (6): Conv2d(85, 32, kernel_size=(1, 1), stride=(1, 1))
        (7): BatchNorm2d(32, eps=1e-05, momentum=0.1, affine=True, track_running_stats=True)
      )
    )
  )
  (stage4): Sequential(
    (0): LinearBottleNeck(
      (residual): Sequential(
        (0): Conv2d(32, 106, kernel_size=(1, 1), stride=(1, 1))
        (1): BatchNorm2d(106, eps=1e-05, momentum=0.1, affine=True, track_running_stats=True)
        (2): ReLU6(inplace=True)
        (3): Conv2d(106, 106, kernel_size=(3, 3), stride=(2, 2), padding=(1, 1), groups=106)
        (4): BatchNorm2d(106, eps=1e-05, momentum=0.1, affine=True, track_running_stats=True)
        (5): ReLU6(inplace=True)
        (6): Conv2d(106, 64, kernel_size=(1, 1), stride=(1, 1))
        (7): BatchNorm2d(64, eps=1e-05, momentum=0.1, affine=True, track_running_stats=True)
      )
    )
    (1): LinearBottleNeck(
      (residual): Sequential(
        (0): Conv2d(64, 146, kernel_size=(1, 1), stride=(1, 1))
        (1): BatchNorm2d(146, eps=1e-05, momentum=0.1, affine=True, track_running_stats=True)
        (2): ReLU6(inplace=True)
        (3): Conv2d(146, 146, kernel_size=(3, 3), stride=(1, 1), padding=(1, 1), groups=146)
        (4): BatchNorm2d(146, eps=1e-05, momentum=0.1, affine=True, track_running_stats=True)
        (5): ReLU6(inplace=True)
        (6): Conv2d(146, 64, kernel_size=(1, 1), stride=(1, 1))
        (7): BatchNorm2d(64, eps=1e-05, momentum=0.1, affine=True, track_running_stats=True)
      )
    )
    (2): LinearBottleNeck(
      (residual): Sequential(
        (0): Conv2d(64, 153, kernel_size=(1, 1), stride=(1, 1))
        (1): BatchNorm2d(153, eps=1e-05, momentum=0.1, affine=True, track_running_stats=True)
        (2): ReLU6(inplace=True)
        (3): Conv2d(153, 153, kernel_size=(3, 3), stride=(1, 1), padding=(1, 1), groups=153)
        (4): BatchNorm2d(153, eps=1e-05, momentum=0.1, affine=True, track_running_stats=True)
        (5): ReLU6(inplace=True)
        (6): Conv2d(153, 64, kernel_size=(1, 1), stride=(1, 1))
        (7): BatchNorm2d(64, eps=1e-05, momentum=0.1, affine=True, track_running_stats=True)
      )
    )
    (3): LinearBottleNeck(
      (residual): Sequential(
        (0): Conv2d(64, 114, kernel_size=(1, 1), stride=(1, 1))
        (1): BatchNorm2d(114, eps=1e-05, momentum=0.1, affine=True, track_running_stats=True)
        (2): ReLU6(inplace=True)
        (3): Conv2d(114, 114, kernel_size=(3, 3), stride=(1, 1), padding=(1, 1), groups=114)
        (4): BatchNorm2d(114, eps=1e-05, momentum=0.1, affine=True, track_running_stats=True)
        (5): ReLU6(inplace=True)
        (6): Conv2d(114, 64, kernel_size=(1, 1), stride=(1, 1))
        (7): BatchNorm2d(64, eps=1e-05, momentum=0.1, affine=True, track_running_stats=True)
      )
    )
  )
  (stage5): Sequential(
    (0): LinearBottleNeck(
      (residual): Sequential(
        (0): Conv2d(64, 229, kernel_size=(1, 1), stride=(1, 1))
        (1): BatchNorm2d(229, eps=1e-05, momentum=0.1, affine=True, track_running_stats=True)
        (2): ReLU6(inplace=True)
        (3): Conv2d(229, 229, kernel_size=(3, 3), stride=(1, 1), padding=(1, 1), groups=229)
        (4): BatchNorm2d(229, eps=1e-05, momentum=0.1, affine=True, track_running_stats=True)
        (5): ReLU6(inplace=True)
        (6): Conv2d(229, 96, kernel_size=(1, 1), stride=(1, 1))
        (7): BatchNorm2d(96, eps=1e-05, momentum=0.1, affine=True, track_running_stats=True)
      )
    )
    (1): LinearBottleNeck(
      (residual): Sequential(
        (0): Conv2d(96, 190, kernel_size=(1, 1), stride=(1, 1))
        (1): BatchNorm2d(190, eps=1e-05, momentum=0.1, affine=True, track_running_stats=True)
        (2): ReLU6(inplace=True)
        (3): Conv2d(190, 190, kernel_size=(3, 3), stride=(1, 1), padding=(1, 1), groups=190)
        (4): BatchNorm2d(190, eps=1e-05, momentum=0.1, affine=True, track_running_stats=True)
        (5): ReLU6(inplace=True)
        (6): Conv2d(190, 96, kernel_size=(1, 1), stride=(1, 1))
        (7): BatchNorm2d(96, eps=1e-05, momentum=0.1, affine=True, track_running_stats=True)
      )
    )
    (2): LinearBottleNeck(
      (residual): Sequential(
        (0): Conv2d(96, 123, kernel_size=(1, 1), stride=(1, 1))
        (1): BatchNorm2d(123, eps=1e-05, momentum=0.1, affine=True, track_running_stats=True)
        (2): ReLU6(inplace=True)
        (3): Conv2d(123, 123, kernel_size=(3, 3), stride=(1, 1), padding=(1, 1), groups=123)
        (4): BatchNorm2d(123, eps=1e-05, momentum=0.1, affine=True, track_running_stats=True)
        (5): ReLU6(inplace=True)
        (6): Conv2d(123, 96, kernel_size=(1, 1), stride=(1, 1))
        (7): BatchNorm2d(96, eps=1e-05, momentum=0.1, affine=True, track_running_stats=True)
      )
    )
  )
  (stage6): Sequential(
    (0): LinearBottleNeck(
      (residual): Sequential(
        (0): Conv2d(96, 260, kernel_size=(1, 1), stride=(1, 1))
        (1): BatchNorm2d(260, eps=1e-05, momentum=0.1, affine=True, track_running_stats=True)
        (2): ReLU6(inplace=True)
        (3): Conv2d(260, 260, kernel_size=(3, 3), stride=(1, 1), padding=(1, 1), groups=260)
        (4): BatchNorm2d(260, eps=1e-05, momentum=0.1, affine=True, track_running_stats=True)
        (5): ReLU6(inplace=True)
        (6): Conv2d(260, 160, kernel_size=(1, 1), stride=(1, 1))
        (7): BatchNorm2d(160, eps=1e-05, momentum=0.1, affine=True, track_running_stats=True)
      )
    )
    (1): LinearBottleNeck(
      (residual): Sequential(
        (0): Conv2d(160, 383, kernel_size=(1, 1), stride=(1, 1))
        (1): BatchNorm2d(383, eps=1e-05, momentum=0.1, affine=True, track_running_stats=True)
        (2): ReLU6(inplace=True)
        (3): Conv2d(383, 383, kernel_size=(3, 3), stride=(1, 1), padding=(1, 1), groups=383)
        (4): BatchNorm2d(383, eps=1e-05, momentum=0.1, affine=True, track_running_stats=True)
        (5): ReLU6(inplace=True)
        (6): Conv2d(383, 160, kernel_size=(1, 1), stride=(1, 1))
        (7): BatchNorm2d(160, eps=1e-05, momentum=0.1, affine=True, track_running_stats=True)
      )
    )
    (2): LinearBottleNeck(
      (residual): Sequential(
        (0): Conv2d(160, 448, kernel_size=(1, 1), stride=(1, 1))
        (1): BatchNorm2d(448, eps=1e-05, momentum=0.1, affine=True, track_running_stats=True)
        (2): ReLU6(inplace=True)
        (3): Conv2d(448, 448, kernel_size=(3, 3), stride=(1, 1), padding=(1, 1), groups=448)
        (4): BatchNorm2d(448, eps=1e-05, momentum=0.1, affine=True, track_running_stats=True)
        (5): ReLU6(inplace=True)
        (6): Conv2d(448, 160, kernel_size=(1, 1), stride=(1, 1))
        (7): BatchNorm2d(160, eps=1e-05, momentum=0.1, affine=True, track_running_stats=True)
      )
    )
  )
  (stage7): LinearBottleNeck(
    (residual): Sequential(
      (0): Conv2d(160, 173, kernel_size=(1, 1), stride=(1, 1))
      (1): BatchNorm2d(173, eps=1e-05, momentum=0.1, affine=True, track_running_stats=True)
      (2): ReLU6(inplace=True)
      (3): Conv2d(173, 173, kernel_size=(3, 3), stride=(1, 1), padding=(1, 1), groups=173)
      (4): BatchNorm2d(173, eps=1e-05, momentum=0.1, affine=True, track_running_stats=True)
      (5): ReLU6(inplace=True)
      (6): Conv2d(173, 320, kernel_size=(1, 1), stride=(1, 1))
      (7): BatchNorm2d(320, eps=1e-05, momentum=0.1, affine=True, track_running_stats=True)
    )
  )
  (conv1): Sequential(
    (0): Conv2d(320, 1280, kernel_size=(1, 1), stride=(1, 1))
    (1): BatchNorm2d(1280, eps=1e-05, momentum=0.1, affine=True, track_running_stats=True)
    (2): ReLU6(inplace=True)
  )
  (conv2): Conv2d(1280, 100, kernel_size=(1, 1), stride=(1, 1))
)
[02/24 08:28:35] cifar100-global-proj-3.0-mobilenetv2 INFO: Params: 2.37 M => 1.19 M (50.20%)
[02/24 08:28:35] cifar100-global-proj-3.0-mobilenetv2 INFO: FLOPs: 68.40 M => 34.13 M (49.90%, 3.00X )
[02/24 08:28:35] cifar100-global-proj-3.0-mobilenetv2 INFO: Acc: 0.6699 => 0.6699
[02/24 08:28:35] cifar100-global-proj-3.0-mobilenetv2 INFO: Val Loss: 1.1637 => 1.1637
…
