…
[02/23 20:30:46] cifar10-global-obdc-2.0-mobilenetv2 INFO: iterative_steps: 400
[02/23 20:30:46] cifar10-global-obdc-2.0-mobilenetv2 INFO: logger: <Logger cifar10-global-obdc-2.0-mobilenetv2 (DEBUG)>
[02/23 20:30:46] cifar10-global-obdc-2.0-mobilenetv2 INFO: device: cuda
[02/23 20:30:46] cifar10-global-obdc-2.0-mobilenetv2 INFO: num_classes: 10
[02/23 20:30:46] cifar10-global-obdc-2.0-mobilenetv2 INFO: Loading model from run/cifar10/pretrain/cifar10_mobilenetv2.pth
[02/23 20:30:50] cifar10-global-obdc-2.0-mobilenetv2 INFO: Pruning...
[02/23 20:31:36] cifar10-global-obdc-2.0-mobilenetv2 INFO: MobileNetV2(
  (pre): Sequential(
    (0): Conv2d(3, 8, kernel_size=(1, 1), stride=(1, 1), padding=(1, 1))
    (1): BatchNorm2d(8, eps=1e-05, momentum=0.1, affine=True, track_running_stats=True)
    (2): ReLU6(inplace=True)
  )
  (stage1): LinearBottleNeck(
    (residual): Sequential(
      (0): Conv2d(8, 17, kernel_size=(1, 1), stride=(1, 1))
      (1): BatchNorm2d(17, eps=1e-05, momentum=0.1, affine=True, track_running_stats=True)
      (2): ReLU6(inplace=True)
      (3): Conv2d(17, 17, kernel_size=(3, 3), stride=(1, 1), padding=(1, 1), groups=17)
      (4): BatchNorm2d(17, eps=1e-05, momentum=0.1, affine=True, track_running_stats=True)
      (5): ReLU6(inplace=True)
      (6): Conv2d(17, 16, kernel_size=(1, 1), stride=(1, 1))
      (7): BatchNorm2d(16, eps=1e-05, momentum=0.1, affine=True, track_running_stats=True)
    )
  )
  (stage2): Sequential(
    (0): LinearBottleNeck(
      (residual): Sequential(
        (0): Conv2d(16, 73, kernel_size=(1, 1), stride=(1, 1))
        (1): BatchNorm2d(73, eps=1e-05, momentum=0.1, affine=True, track_running_stats=True)
        (2): ReLU6(inplace=True)
        (3): Conv2d(73, 73, kernel_size=(3, 3), stride=(2, 2), padding=(1, 1), groups=73)
        (4): BatchNorm2d(73, eps=1e-05, momentum=0.1, affine=True, track_running_stats=True)
        (5): ReLU6(inplace=True)
        (6): Conv2d(73, 24, kernel_size=(1, 1), stride=(1, 1))
        (7): BatchNorm2d(24, eps=1e-05, momentum=0.1, affine=True, track_running_stats=True)
      )
    )
    (1): LinearBottleNeck(
      (residual): Sequential(
        (0): Conv2d(24, 86, kernel_size=(1, 1), stride=(1, 1))
        (1): BatchNorm2d(86, eps=1e-05, momentum=0.1, affine=True, track_running_stats=True)
        (2): ReLU6(inplace=True)
        (3): Conv2d(86, 86, kernel_size=(3, 3), stride=(1, 1), padding=(1, 1), groups=86)
        (4): BatchNorm2d(86, eps=1e-05, momentum=0.1, affine=True, track_running_stats=True)
        (5): ReLU6(inplace=True)
        (6): Conv2d(86, 24, kernel_size=(1, 1), stride=(1, 1))
        (7): BatchNorm2d(24, eps=1e-05, momentum=0.1, affine=True, track_running_stats=True)
      )
    )
  )
  (stage3): Sequential(
    (0): LinearBottleNeck(
      (residual): Sequential(
        (0): Conv2d(24, 62, kernel_size=(1, 1), stride=(1, 1))
        (1): BatchNorm2d(62, eps=1e-05, momentum=0.1, affine=True, track_running_stats=True)
        (2): ReLU6(inplace=True)
        (3): Conv2d(62, 62, kernel_size=(3, 3), stride=(2, 2), padding=(1, 1), groups=62)
        (4): BatchNorm2d(62, eps=1e-05, momentum=0.1, affine=True, track_running_stats=True)
        (5): ReLU6(inplace=True)
        (6): Conv2d(62, 32, kernel_size=(1, 1), stride=(1, 1))
        (7): BatchNorm2d(32, eps=1e-05, momentum=0.1, affine=True, track_running_stats=True)
      )
    )
    (1): LinearBottleNeck(
      (residual): Sequential(
        (0): Conv2d(32, 88, kernel_size=(1, 1), stride=(1, 1))
        (1): BatchNorm2d(88, eps=1e-05, momentum=0.1, affine=True, track_running_stats=True)
        (2): ReLU6(inplace=True)
        (3): Conv2d(88, 88, kernel_size=(3, 3), stride=(1, 1), padding=(1, 1), groups=88)
        (4): BatchNorm2d(88, eps=1e-05, momentum=0.1, affine=True, track_running_stats=True)
        (5): ReLU6(inplace=True)
        (6): Conv2d(88, 32, kernel_size=(1, 1), stride=(1, 1))
        (7): BatchNorm2d(32, eps=1e-05, momentum=0.1, affine=True, track_running_stats=True)
      )
    )
    (2): LinearBottleNeck(
      (residual): Sequential(
        (0): Conv2d(32, 55, kernel_size=(1, 1), stride=(1, 1))
        (1): BatchNorm2d(55, eps=1e-05, momentum=0.1, affine=True, track_running_stats=True)
        (2): ReLU6(inplace=True)
        (3): Conv2d(55, 55, kernel_size=(3, 3), stride=(1, 1), padding=(1, 1), groups=55)
        (4): BatchNorm2d(55, eps=1e-05, momentum=0.1, affine=True, track_running_stats=True)
        (5): ReLU6(inplace=True)
        (6): Conv2d(55, 32, kernel_size=(1, 1), stride=(1, 1))
        (7): BatchNorm2d(32, eps=1e-05, momentum=0.1, affine=True, track_running_stats=True)
      )
    )
  )
  (stage4): Sequential(
    (0): LinearBottleNeck(
      (residual): Sequential(
        (0): Conv2d(32, 51, kernel_size=(1, 1), stride=(1, 1))
        (1): BatchNorm2d(51, eps=1e-05, momentum=0.1, affine=True, track_running_stats=True)
        (2): ReLU6(inplace=True)
        (3): Conv2d(51, 51, kernel_size=(3, 3), stride=(2, 2), padding=(1, 1), groups=51)
        (4): BatchNorm2d(51, eps=1e-05, momentum=0.1, affine=True, track_running_stats=True)
        (5): ReLU6(inplace=True)
        (6): Conv2d(51, 64, kernel_size=(1, 1), stride=(1, 1))
        (7): BatchNorm2d(64, eps=1e-05, momentum=0.1, affine=True, track_running_stats=True)
      )
    )
    (1): LinearBottleNeck(
      (residual): Sequential(
        (0): Conv2d(64, 99, kernel_size=(1, 1), stride=(1, 1))
        (1): BatchNorm2d(99, eps=1e-05, momentum=0.1, affine=True, track_running_stats=True)
        (2): ReLU6(inplace=True)
        (3): Conv2d(99, 99, kernel_size=(3, 3), stride=(1, 1), padding=(1, 1), groups=99)
        (4): BatchNorm2d(99, eps=1e-05, momentum=0.1, affine=True, track_running_stats=True)
        (5): ReLU6(inplace=True)
        (6): Conv2d(99, 64, kernel_size=(1, 1), stride=(1, 1))
        (7): BatchNorm2d(64, eps=1e-05, momentum=0.1, affine=True, track_running_stats=True)
      )
    )
    (2): LinearBottleNeck(
      (residual): Sequential(
        (0): Conv2d(64, 61, kernel_size=(1, 1), stride=(1, 1))
        (1): BatchNorm2d(61, eps=1e-05, momentum=0.1, affine=True, track_running_stats=True)
        (2): ReLU6(inplace=True)
        (3): Conv2d(61, 61, kernel_size=(3, 3), stride=(1, 1), padding=(1, 1), groups=61)
        (4): BatchNorm2d(61, eps=1e-05, momentum=0.1, affine=True, track_running_stats=True)
        (5): ReLU6(inplace=True)
        (6): Conv2d(61, 64, kernel_size=(1, 1), stride=(1, 1))
        (7): BatchNorm2d(64, eps=1e-05, momentum=0.1, affine=True, track_running_stats=True)
      )
    )
    (3): LinearBottleNeck(
      (residual): Sequential(
        (0): Conv2d(64, 40, kernel_size=(1, 1), stride=(1, 1))
        (1): BatchNorm2d(40, eps=1e-05, momentum=0.1, affine=True, track_running_stats=True)
        (2): ReLU6(inplace=True)
        (3): Conv2d(40, 40, kernel_size=(3, 3), stride=(1, 1), padding=(1, 1), groups=40)
        (4): BatchNorm2d(40, eps=1e-05, momentum=0.1, affine=True, track_running_stats=True)
        (5): ReLU6(inplace=True)
        (6): Conv2d(40, 64, kernel_size=(1, 1), stride=(1, 1))
        (7): BatchNorm2d(64, eps=1e-05, momentum=0.1, affine=True, track_running_stats=True)
      )
    )
  )
  (stage5): Sequential(
    (0): LinearBottleNeck(
      (residual): Sequential(
        (0): Conv2d(64, 97, kernel_size=(1, 1), stride=(1, 1))
        (1): BatchNorm2d(97, eps=1e-05, momentum=0.1, affine=True, track_running_stats=True)
        (2): ReLU6(inplace=True)
        (3): Conv2d(97, 97, kernel_size=(3, 3), stride=(1, 1), padding=(1, 1), groups=97)
        (4): BatchNorm2d(97, eps=1e-05, momentum=0.1, affine=True, track_running_stats=True)
        (5): ReLU6(inplace=True)
        (6): Conv2d(97, 96, kernel_size=(1, 1), stride=(1, 1))
        (7): BatchNorm2d(96, eps=1e-05, momentum=0.1, affine=True, track_running_stats=True)
      )
    )
    (1): LinearBottleNeck(
      (residual): Sequential(
        (0): Conv2d(96, 576, kernel_size=(1, 1), stride=(1, 1))
        (1): BatchNorm2d(576, eps=1e-05, momentum=0.1, affine=True, track_running_stats=True)
        (2): ReLU6(inplace=True)
        (3): Conv2d(576, 576, kernel_size=(3, 3), stride=(1, 1), padding=(1, 1), groups=576)
        (4): BatchNorm2d(576, eps=1e-05, momentum=0.1, affine=True, track_running_stats=True)
        (5): ReLU6(inplace=True)
        (6): Conv2d(576, 96, kernel_size=(1, 1), stride=(1, 1))
        (7): BatchNorm2d(96, eps=1e-05, momentum=0.1, affine=True, track_running_stats=True)
      )
    )
    (2): LinearBottleNeck(
      (residual): Sequential(
        (0): Conv2d(96, 568, kernel_size=(1, 1), stride=(1, 1))
        (1): BatchNorm2d(568, eps=1e-05, momentum=0.1, affine=True, track_running_stats=True)
        (2): ReLU6(inplace=True)
        (3): Conv2d(568, 568, kernel_size=(3, 3), stride=(1, 1), padding=(1, 1), groups=568)
        (4): BatchNorm2d(568, eps=1e-05, momentum=0.1, affine=True, track_running_stats=True)
        (5): ReLU6(inplace=True)
        (6): Conv2d(568, 96, kernel_size=(1, 1), stride=(1, 1))
        (7): BatchNorm2d(96, eps=1e-05, momentum=0.1, affine=True, track_running_stats=True)
      )
    )
  )
  (stage6): Sequential(
    (0): LinearBottleNeck(
      (residual): Sequential(
        (0): Conv2d(96, 231, kernel_size=(1, 1), stride=(1, 1))
        (1): BatchNorm2d(231, eps=1e-05, momentum=0.1, affine=True, track_running_stats=True)
        (2): ReLU6(inplace=True)
        (3): Conv2d(231, 231, kernel_size=(3, 3), stride=(1, 1), padding=(1, 1), groups=231)
        (4): BatchNorm2d(231, eps=1e-05, momentum=0.1, affine=True, track_running_stats=True)
        (5): ReLU6(inplace=True)
        (6): Conv2d(231, 160, kernel_size=(1, 1), stride=(1, 1))
        (7): BatchNorm2d(160, eps=1e-05, momentum=0.1, affine=True, track_running_stats=True)
      )
    )
    (1): LinearBottleNeck(
      (residual): Sequential(
        (0): Conv2d(160, 16, kernel_size=(1, 1), stride=(1, 1))
        (1): BatchNorm2d(16, eps=1e-05, momentum=0.1, affine=True, track_running_stats=True)
        (2): ReLU6(inplace=True)
        (3): Conv2d(16, 16, kernel_size=(3, 3), stride=(1, 1), padding=(1, 1), groups=16)
        (4): BatchNorm2d(16, eps=1e-05, momentum=0.1, affine=True, track_running_stats=True)
        (5): ReLU6(inplace=True)
        (6): Conv2d(16, 160, kernel_size=(1, 1), stride=(1, 1))
        (7): BatchNorm2d(160, eps=1e-05, momentum=0.1, affine=True, track_running_stats=True)
      )
    )
    (2): LinearBottleNeck(
      (residual): Sequential(
        (0): Conv2d(160, 5, kernel_size=(1, 1), stride=(1, 1))
        (1): BatchNorm2d(5, eps=1e-05, momentum=0.1, affine=True, track_running_stats=True)
        (2): ReLU6(inplace=True)
        (3): Conv2d(5, 5, kernel_size=(3, 3), stride=(1, 1), padding=(1, 1), groups=5)
        (4): BatchNorm2d(5, eps=1e-05, momentum=0.1, affine=True, track_running_stats=True)
        (5): ReLU6(inplace=True)
        (6): Conv2d(5, 160, kernel_size=(1, 1), stride=(1, 1))
        (7): BatchNorm2d(160, eps=1e-05, momentum=0.1, affine=True, track_running_stats=True)
      )
    )
  )
  (stage7): LinearBottleNeck(
    (residual): Sequential(
      (0): Conv2d(160, 615, kernel_size=(1, 1), stride=(1, 1))
      (1): BatchNorm2d(615, eps=1e-05, momentum=0.1, affine=True, track_running_stats=True)
      (2): ReLU6(inplace=True)
      (3): Conv2d(615, 615, kernel_size=(3, 3), stride=(1, 1), padding=(1, 1), groups=615)
      (4): BatchNorm2d(615, eps=1e-05, momentum=0.1, affine=True, track_running_stats=True)
      (5): ReLU6(inplace=True)
      (6): Conv2d(615, 320, kernel_size=(1, 1), stride=(1, 1))
      (7): BatchNorm2d(320, eps=1e-05, momentum=0.1, affine=True, track_running_stats=True)
    )
  )
  (conv1): Sequential(
    (0): Conv2d(320, 1280, kernel_size=(1, 1), stride=(1, 1))
    (1): BatchNorm2d(1280, eps=1e-05, momentum=0.1, affine=True, track_running_stats=True)
    (2): ReLU6(inplace=True)
  )
  (conv2): Conv2d(1280, 10, kernel_size=(1, 1), stride=(1, 1))
)
[02/23 20:32:50] cifar10-global-obdc-2.0-mobilenetv2 INFO: Params: 2.25 M => 1.12 M (49.63%)
[02/23 20:32:50] cifar10-global-obdc-2.0-mobilenetv2 INFO: FLOPs: 68.29 M => 34.00 M (49.78%, 2.01X )
[02/23 20:32:50] cifar10-global-obdc-2.0-mobilenetv2 INFO: Acc: 0.8936 => 0.8936
[02/23 20:32:50] cifar10-global-obdc-2.0-mobilenetv2 INFO: Val Loss: 0.3202 => 0.3202
…
