…
[02/23 15:49:27] modelnet40-global-proj_sl-3.0-pointnet INFO: Epoch 98/100, Acc=0.8922, Val Loss=0.3697, lr=0.0001
[02/23 15:56:04] modelnet40-global-proj_sl-3.0-pointnet INFO: Epoch 99/100, Acc=0.8886, Val Loss=0.3691, lr=0.0001
[02/23 15:56:04] modelnet40-global-proj_sl-3.0-pointnet INFO: Best Acc=0.8930
[02/23 15:56:04] modelnet40-global-proj_sl-3.0-pointnet INFO: Loading the sparse model from run/modelnet40/prune/modelnet40-global-proj_sl-3.0-pointnet/reg_modelnet40_pointnet_proj_sl_1e-05.pth...
[02/23 15:56:05] modelnet40-global-proj_sl-3.0-pointnet INFO: Pruning...
[02/23 15:59:24] modelnet40-global-proj_sl-3.0-pointnet INFO: PointNet(
  (conv1): Conv1d(3, 49, kernel_size=(1,), stride=(1,), bias=False)
  (conv2): Conv1d(49, 58, kernel_size=(1,), stride=(1,), bias=False)
  (conv3): Conv1d(58, 40, kernel_size=(1,), stride=(1,), bias=False)
  (conv4): Conv1d(40, 92, kernel_size=(1,), stride=(1,), bias=False)
  (conv5): Conv1d(92, 899, kernel_size=(1,), stride=(1,), bias=False)
  (bn1): BatchNorm1d(49, eps=1e-05, momentum=0.1, affine=True, track_running_stats=True)
  (bn2): BatchNorm1d(58, eps=1e-05, momentum=0.1, affine=True, track_running_stats=True)
  (bn3): BatchNorm1d(40, eps=1e-05, momentum=0.1, affine=True, track_running_stats=True)
  (bn4): BatchNorm1d(92, eps=1e-05, momentum=0.1, affine=True, track_running_stats=True)
  (bn5): BatchNorm1d(899, eps=1e-05, momentum=0.1, affine=True, track_running_stats=True)
  (linear1): Linear(in_features=899, out_features=186, bias=False)
  (bn6): BatchNorm1d(186, eps=1e-05, momentum=0.1, affine=True, track_running_stats=True)
  (dp1): Dropout(p=0.5, inplace=False)
  (linear2): Linear(in_features=186, out_features=40, bias=True)
)
[02/23 15:59:25] modelnet40-global-proj_sl-3.0-pointnet INFO: Params: 1.35 M => 0.27 M (19.88%)
[02/23 15:59:25] modelnet40-global-proj_sl-3.0-pointnet INFO: FLOPs: 291.33 M => 96.40 M (33.09%, 3.02X )
[02/23 15:59:25] modelnet40-global-proj_sl-3.0-pointnet INFO: Acc: 0.8930 => 0.4125
[02/23 15:59:25] modelnet40-global-proj_sl-3.0-pointnet INFO: Val Loss: 0.3711 => 2.7870
…
