…
[02/22 15:22:43] modelnet40-global-proj-2.0-pointnet INFO: iterative_steps: 400
[02/22 15:22:43] modelnet40-global-proj-2.0-pointnet INFO: logger: <Logger modelnet40-global-proj-2.0-pointnet (DEBUG)>
[02/22 15:22:43] modelnet40-global-proj-2.0-pointnet INFO: device: cuda
[02/22 15:22:43] modelnet40-global-proj-2.0-pointnet INFO: num_classes: 40
[02/22 15:22:43] modelnet40-global-proj-2.0-pointnet INFO: Loading model from run/modelnet40/pretrain/modelnet40_pointnet.pth
[02/22 15:22:45] modelnet40-global-proj-2.0-pointnet INFO: Pruning...
[02/22 15:26:57] modelnet40-global-proj-2.0-pointnet INFO: PointNet(
  (conv1): Conv1d(3, 45, kernel_size=(1,), stride=(1,), bias=False)
  (conv2): Conv1d(45, 56, kernel_size=(1,), stride=(1,), bias=False)
  (conv3): Conv1d(56, 40, kernel_size=(1,), stride=(1,), bias=False)
  (conv4): Conv1d(40, 110, kernel_size=(1,), stride=(1,), bias=False)
  (conv5): Conv1d(110, 1161, kernel_size=(1,), stride=(1,), bias=False)
  (bn1): BatchNorm1d(45, eps=1e-05, momentum=0.1, affine=True, track_running_stats=True)
  (bn2): BatchNorm1d(56, eps=1e-05, momentum=0.1, affine=True, track_running_stats=True)
  (bn3): BatchNorm1d(40, eps=1e-05, momentum=0.1, affine=True, track_running_stats=True)
  (bn4): BatchNorm1d(110, eps=1e-05, momentum=0.1, affine=True, track_running_stats=True)
  (bn5): BatchNorm1d(1161, eps=1e-05, momentum=0.1, affine=True, track_running_stats=True)
  (linear1): Linear(in_features=1161, out_features=186, bias=False)
  (bn6): BatchNorm1d(186, eps=1e-05, momentum=0.1, affine=True, track_running_stats=True)
  (dp1): Dropout(p=0.5, inplace=False)
  (linear2): Linear(in_features=186, out_features=40, bias=True)
)
[02/22 15:26:58] modelnet40-global-proj-2.0-pointnet INFO: Params: 1.35 M => 0.36 M (26.86%)
[02/22 15:26:58] modelnet40-global-proj-2.0-pointnet INFO: FLOPs: 291.33 M => 143.41 M (49.23%, 2.03X )
[02/22 15:26:58] modelnet40-global-proj-2.0-pointnet INFO: Acc: 0.8861 => 0.6503
[02/22 15:26:58] modelnet40-global-proj-2.0-pointnet INFO: Val Loss: 0.3951 => 1.1891
…
