…
[02/26 18:13:49] cifar100-global-obdc-3.0-mobilenetv2 INFO: iterative_steps: 400
[02/26 18:13:49] cifar100-global-obdc-3.0-mobilenetv2 INFO: logger: <Logger cifar100-global-obdc-3.0-mobilenetv2 (DEBUG)>
[02/26 18:13:49] cifar100-global-obdc-3.0-mobilenetv2 INFO: device: cuda
[02/26 18:13:49] cifar100-global-obdc-3.0-mobilenetv2 INFO: num_classes: 100
[02/26 18:13:49] cifar100-global-obdc-3.0-mobilenetv2 INFO: Loading model from run/cifar100/pretrain/cifar100_mobilenetv2.pth
[02/26 18:13:53] cifar100-global-obdc-3.0-mobilenetv2 INFO: Pruning...
[02/26 18:14:22] cifar100-global-obdc-3.0-mobilenetv2 INFO: MobileNetV2(
  (pre): Sequential(
    (0): Conv2d(3, 9, kernel_size=(1, 1), stride=(1, 1), padding=(1, 1))
    (1): BatchNorm2d(9, eps=1e-05, momentum=0.1, affine=True, track_running_stats=True)
    (2): ReLU6(inplace=True)
  )
  (stage1): LinearBottleNeck(
    (residual): Sequential(
      (0): Conv2d(9, 15, kernel_size=(1, 1), stride=(1, 1))
      (1): BatchNorm2d(15, eps=1e-05, momentum=0.1, affine=True, track_running_stats=True)
      (2): ReLU6(inplace=True)
      (3): Conv2d(15, 15, kernel_size=(3, 3), stride=(1, 1), padding=(1, 1), groups=15)
      (4): BatchNorm2d(15, eps=1e-05, momentum=0.1, affine=True, track_running_stats=True)
      (5): ReLU6(inplace=True)
      (6): Conv2d(15, 16, kernel_size=(1, 1), stride=(1, 1))
      (7): BatchNorm2d(16, eps=1e-05, momentum=0.1, affine=True, track_running_stats=True)
    )
  )
  (stage2): Sequential(
    (0): LinearBottleNeck(
      (residual): Sequential(
        (0): Conv2d(16, 72, kernel_size=(1, 1), stride=(1, 1))
        (1): BatchNorm2d(72, eps=1e-05, momentum=0.1, affine=True, track_running_stats=True)
        (2): ReLU6(inplace=True)
        (3): Conv2d(72, 72, kernel_size=(3, 3), stride=(2, 2), padding=(1, 1), groups=72)
        (4): BatchNorm2d(72, eps=1e-05, momentum=0.1, affine=True, track_running_stats=True)
        (5): ReLU6(inplace=True)
        (6): Conv2d(72, 24, kernel_size=(1, 1), stride=(1, 1))
        (7): BatchNorm2d(24, eps=1e-05, momentum=0.1, affine=True, track_running_stats=True)
      )
    )
    (1): LinearBottleNeck(
      (residual): Sequential(
        (0): Conv2d(24, 78, kernel_size=(1, 1), stride=(1, 1))
        (1): BatchNorm2d(78, eps=1e-05, momentum=0.1, affine=True, track_running_stats=True)
        (2): ReLU6(inplace=True)
        (3): Conv2d(78, 78, kernel_size=(3, 3), stride=(1, 1), padding=(1, 1), groups=78)
        (4): BatchNorm2d(78, eps=1e-05, momentum=0.1, affine=True, track_running_stats=True)
        (5): ReLU6(inplace=True)
        (6): Conv2d(78, 24, kernel_size=(1, 1), stride=(1, 1))
        (7): BatchNorm2d(24, eps=1e-05, momentum=0.1, affine=True, track_running_stats=True)
      )
    )
  )
  (stage3): Sequential(
    (0): LinearBottleNeck(
      (residual): Sequential(
        (0): Conv2d(24, 71, kernel_size=(1, 1), stride=(1, 1))
        (1): BatchNorm2d(71, eps=1e-05, momentum=0.1, affine=True, track_running_stats=True)
        (2): ReLU6(inplace=True)
        (3): Conv2d(71, 71, kernel_size=(3, 3), stride=(2, 2), padding=(1, 1), groups=71)
        (4): BatchNorm2d(71, eps=1e-05, momentum=0.1, affine=True, track_running_stats=True)
        (5): ReLU6(inplace=True)
        (6): Conv2d(71, 32, kernel_size=(1, 1), stride=(1, 1))
        (7): BatchNorm2d(32, eps=1e-05, momentum=0.1, affine=True, track_running_stats=True)
      )
    )
    (1): LinearBottleNeck(
      (residual): Sequential(
        (0): Conv2d(32, 82, kernel_size=(1, 1), stride=(1, 1))
        (1): BatchNorm2d(82, eps=1e-05, momentum=0.1, affine=True, track_running_stats=True)
        (2): ReLU6(inplace=True)
        (3): Conv2d(82, 82, kernel_size=(3, 3), stride=(1, 1), padding=(1, 1), groups=82)
        (4): BatchNorm2d(82, eps=1e-05, momentum=0.1, affine=True, track_running_stats=True)
        (5): ReLU6(inplace=True)
        (6): Conv2d(82, 32, kernel_size=(1, 1), stride=(1, 1))
        (7): BatchNorm2d(32, eps=1e-05, momentum=0.1, affine=True, track_running_stats=True)
      )
    )
    (2): LinearBottleNeck(
      (residual): Sequential(
        (0): Conv2d(32, 55, kernel_size=(1, 1), stride=(1, 1))
        (1): BatchNorm2d(55, eps=1e-05, momentum=0.1, affine=True, track_running_stats=True)
        (2): ReLU6(inplace=True)
        (3): Conv2d(55, 55, kernel_size=(3, 3), stride=(1, 1), padding=(1, 1), groups=55)
        (4): BatchNorm2d(55, eps=1e-05, momentum=0.1, affine=True, track_running_stats=True)
        (5): ReLU6(inplace=True)
        (6): Conv2d(55, 32, kernel_size=(1, 1), stride=(1, 1))
        (7): BatchNorm2d(32, eps=1e-05, momentum=0.1, affine=True, track_running_stats=True)
      )
    )
  )
  (stage4): Sequential(
    (0): LinearBottleNeck(
      (residual): Sequential(
        (0): Conv2d(32, 81, kernel_size=(1, 1), stride=(1, 1))
        (1): BatchNorm2d(81, eps=1e-05, momentum=0.1, affine=True, track_running_stats=True)
        (2): ReLU6(inplace=True)
        (3): Conv2d(81, 81, kernel_size=(3, 3), stride=(2, 2), padding=(1, 1), groups=81)
        (4): BatchNorm2d(81, eps=1e-05, momentum=0.1, affine=True, track_running_stats=True)
        (5): ReLU6(inplace=True)
        (6): Conv2d(81, 64, kernel_size=(1, 1), stride=(1, 1))
        (7): BatchNorm2d(64, eps=1e-05, momentum=0.1, affine=True, track_running_stats=True)
      )
    )
    (1): LinearBottleNeck(
      (residual): Sequential(
        (0): Conv2d(64, 35, kernel_size=(1, 1), stride=(1, 1))
        (1): BatchNorm2d(35, eps=1e-05, momentum=0.1, affine=True, track_running_stats=True)
        (2): ReLU6(inplace=True)
        (3): Conv2d(35, 35, kernel_size=(3, 3), stride=(1, 1), padding=(1, 1), groups=35)
        (4): BatchNorm2d(35, eps=1e-05, momentum=0.1, affine=True, track_running_stats=True)
        (5): ReLU6(inplace=True)
        (6): Conv2d(35, 64, kernel_size=(1, 1), stride=(1, 1))
        (7): BatchNorm2d(64, eps=1e-05, momentum=0.1, affine=True, track_running_stats=True)
      )
    )
    (2): LinearBottleNeck(
      (residual): Sequential(
        (0): Conv2d(64, 21, kernel_size=(1, 1), stride=(1, 1))
        (1): BatchNorm2d(21, eps=1e-05, momentum=0.1, affine=True, track_running_stats=True)
        (2): ReLU6(inplace=True)
        (3): Conv2d(21, 21, kernel_size=(3, 3), stride=(1, 1), padding=(1, 1), groups=21)
        (4): BatchNorm2d(21, eps=1e-05, momentum=0.1, affine=True, track_running_stats=True)
        (5): ReLU6(inplace=True)
        (6): Conv2d(21, 64, kernel_size=(1, 1), stride=(1, 1))
        (7): BatchNorm2d(64, eps=1e-05, momentum=0.1, affine=True, track_running_stats=True)
      )
    )
    (3): LinearBottleNeck(
      (residual): Sequential(
        (0): Conv2d(64, 22, kernel_size=(1, 1), stride=(1, 1))
        (1): BatchNorm2d(22, eps=1e-05, momentum=0.1, affine=True, track_running_stats=True)
        (2): ReLU6(inplace=True)
        (3): Conv2d(22, 22, kernel_size=(3, 3), stride=(1, 1), padding=(1, 1), groups=22)
        (4): BatchNorm2d(22, eps=1e-05, momentum=0.1, affine=True, track_running_stats=True)
        (5): ReLU6(inplace=True)
        (6): Conv2d(22, 64, kernel_size=(1, 1), stride=(1, 1))
        (7): BatchNorm2d(64, eps=1e-05, momentum=0.1, affine=True, track_running_stats=True)
      )
    )
  )
  (stage5): Sequential(
    (0): LinearBottleNeck(
      (residual): Sequential(
        (0): Conv2d(64, 174, kernel_size=(1, 1), stride=(1, 1))
        (1): BatchNorm2d(174, eps=1e-05, momentum=0.1, affine=True, track_running_stats=True)
        (2): ReLU6(inplace=True)
        (3): Conv2d(174, 174, kernel_size=(3, 3), stride=(1, 1), padding=(1, 1), groups=174)
        (4): BatchNorm2d(174, eps=1e-05, momentum=0.1, affine=True, track_running_stats=True)
        (5): ReLU6(inplace=True)
        (6): Conv2d(174, 96, kernel_size=(1, 1), stride=(1, 1))
        (7): BatchNorm2d(96, eps=1e-05, momentum=0.1, affine=True, track_running_stats=True)
      )
    )
    (1): LinearBottleNeck(
      (residual): Sequential(
        (0): Conv2d(96, 43, kernel_size=(1, 1), stride=(1, 1))
        (1): BatchNorm2d(43, eps=1e-05, momentum=0.1, affine=True, track_running_stats=True)
        (2): ReLU6(inplace=True)
        (3): Conv2d(43, 43, kernel_size=(3, 3), stride=(1, 1), padding=(1, 1), groups=43)
        (4): BatchNorm2d(43, eps=1e-05, momentum=0.1, affine=True, track_running_stats=True)
        (5): ReLU6(inplace=True)
        (6): Conv2d(43, 96, kernel_size=(1, 1), stride=(1, 1))
        (7): BatchNorm2d(96, eps=1e-05, momentum=0.1, affine=True, track_running_stats=True)
      )
    )
    (2): LinearBottleNeck(
      (residual): Sequential(
        (0): Conv2d(96, 30, kernel_size=(1, 1), stride=(1, 1))
        (1): BatchNorm2d(30, eps=1e-05, momentum=0.1, affine=True, track_running_stats=True)
        (2): ReLU6(inplace=True)
        (3): Conv2d(30, 30, kernel_size=(3, 3), stride=(1, 1), padding=(1, 1), groups=30)
        (4): BatchNorm2d(30, eps=1e-05, momentum=0.1, affine=True, track_running_stats=True)
        (5): ReLU6(inplace=True)
        (6): Conv2d(30, 96, kernel_size=(1, 1), stride=(1, 1))
        (7): BatchNorm2d(96, eps=1e-05, momentum=0.1, affine=True, track_running_stats=True)
      )
    )
  )
  (stage6): Sequential(
    (0): LinearBottleNeck(
      (residual): Sequential(
        (0): Conv2d(96, 167, kernel_size=(1, 1), stride=(1, 1))
        (1): BatchNorm2d(167, eps=1e-05, momentum=0.1, affine=True, track_running_stats=True)
        (2): ReLU6(inplace=True)
        (3): Conv2d(167, 167, kernel_size=(3, 3), stride=(1, 1), padding=(1, 1), groups=167)
        (4): BatchNorm2d(167, eps=1e-05, momentum=0.1, affine=True, track_running_stats=True)
        (5): ReLU6(inplace=True)
        (6): Conv2d(167, 160, kernel_size=(1, 1), stride=(1, 1))
        (7): BatchNorm2d(160, eps=1e-05, momentum=0.1, affine=True, track_running_stats=True)
      )
    )
    (1): LinearBottleNeck(
      (residual): Sequential(
        (0): Conv2d(160, 90, kernel_size=(1, 1), stride=(1, 1))
        (1): BatchNorm2d(90, eps=1e-05, momentum=0.1, affine=True, track_running_stats=True)
        (2): ReLU6(inplace=True)
        (3): Conv2d(90, 90, kernel_size=(3, 3), stride=(1, 1), padding=(1, 1), groups=90)
        (4): BatchNorm2d(90, eps=1e-05, momentum=0.1, affine=True, track_running_stats=True)
        (5): ReLU6(inplace=True)
        (6): Conv2d(90, 160, kernel_size=(1, 1), stride=(1, 1))
        (7): BatchNorm2d(160, eps=1e-05, momentum=0.1, affine=True, track_running_stats=True)
      )
    )
    (2): LinearBottleNeck(
      (residual): Sequential(
        (0): Conv2d(160, 67, kernel_size=(1, 1), stride=(1, 1))
        (1): BatchNorm2d(67, eps=1e-05, momentum=0.1, affine=True, track_running_stats=True)
        (2): ReLU6(inplace=True)
        (3): Conv2d(67, 67, kernel_size=(3, 3), stride=(1, 1), padding=(1, 1), groups=67)
        (4): BatchNorm2d(67, eps=1e-05, momentum=0.1, affine=True, track_running_stats=True)
        (5): ReLU6(inplace=True)
        (6): Conv2d(67, 160, kernel_size=(1, 1), stride=(1, 1))
        (7): BatchNorm2d(160, eps=1e-05, momentum=0.1, affine=True, track_running_stats=True)
      )
    )
  )
  (stage7): LinearBottleNeck(
    (residual): Sequential(
      (0): Conv2d(160, 102, kernel_size=(1, 1), stride=(1, 1))
      (1): BatchNorm2d(102, eps=1e-05, momentum=0.1, affine=True, track_running_stats=True)
      (2): ReLU6(inplace=True)
      (3): Conv2d(102, 102, kernel_size=(3, 3), stride=(1, 1), padding=(1, 1), groups=102)
      (4): BatchNorm2d(102, eps=1e-05, momentum=0.1, affine=True, track_running_stats=True)
      (5): ReLU6(inplace=True)
      (6): Conv2d(102, 320, kernel_size=(1, 1), stride=(1, 1))
      (7): BatchNorm2d(320, eps=1e-05, momentum=0.1, affine=True, track_running_stats=True)
    )
  )
  (conv1): Sequential(
    (0): Conv2d(320, 1280, kernel_size=(1, 1), stride=(1, 1))
    (1): BatchNorm2d(1280, eps=1e-05, momentum=0.1, affine=True, track_running_stats=True)
    (2): ReLU6(inplace=True)
  )
  (conv2): Conv2d(1280, 100, kernel_size=(1, 1), stride=(1, 1))
)
[02/26 18:14:37] cifar100-global-obdc-3.0-mobilenetv2 INFO: Params: 2.37 M => 0.79 M (33.15%)
[02/26 18:14:37] cifar100-global-obdc-3.0-mobilenetv2 INFO: FLOPs: 68.40 M => 22.71 M (33.20%, 3.01X )
[02/26 18:14:37] cifar100-global-obdc-3.0-mobilenetv2 INFO: Acc: 0.6699 => 0.6699
[02/26 18:14:37] cifar100-global-obdc-3.0-mobilenetv2 INFO: Val Loss: 1.1637 => 1.1637
…
