…
[02/22 12:37:32] modelnet40-global-fpgm-2.0-pointnet INFO: iterative_steps: 400
[02/22 12:37:32] modelnet40-global-fpgm-2.0-pointnet INFO: logger: <Logger modelnet40-global-fpgm-2.0-pointnet (DEBUG)>
[02/22 12:37:32] modelnet40-global-fpgm-2.0-pointnet INFO: device: cuda
[02/22 12:37:32] modelnet40-global-fpgm-2.0-pointnet INFO: num_classes: 40
[02/22 12:37:32] modelnet40-global-fpgm-2.0-pointnet INFO: Loading model from run/modelnet40/pretrain/modelnet40_pointnet.pth
[02/22 12:37:33] modelnet40-global-fpgm-2.0-pointnet INFO: Pruning...
[02/22 12:37:37] modelnet40-global-fpgm-2.0-pointnet INFO: PointNet(
  (conv1): Conv1d(3, 64, kernel_size=(1,), stride=(1,), bias=False)
  (conv2): Conv1d(64, 64, kernel_size=(1,), stride=(1,), bias=False)
  (conv3): Conv1d(64, 61, kernel_size=(1,), stride=(1,), bias=False)
  (conv4): Conv1d(61, 113, kernel_size=(1,), stride=(1,), bias=False)
  (conv5): Conv1d(113, 1088, kernel_size=(1,), stride=(1,), bias=False)
  (bn1): BatchNorm1d(64, eps=1e-05, momentum=0.1, affine=True, track_running_stats=True)
  (bn2): BatchNorm1d(64, eps=1e-05, momentum=0.1, affine=True, track_running_stats=True)
  (bn3): BatchNorm1d(61, eps=1e-05, momentum=0.1, affine=True, track_running_stats=True)
  (bn4): BatchNorm1d(113, eps=1e-05, momentum=0.1, affine=True, track_running_stats=True)
  (bn5): BatchNorm1d(1088, eps=1e-05, momentum=0.1, affine=True, track_running_stats=True)
  (linear1): Linear(in_features=1088, out_features=230, bias=False)
  (bn6): BatchNorm1d(230, eps=1e-05, momentum=0.1, affine=True, track_running_stats=True)
  (dp1): Dropout(p=0.5, inplace=False)
  (linear2): Linear(in_features=230, out_features=40, bias=True)
)
[02/22 12:37:38] modelnet40-global-fpgm-2.0-pointnet INFO: Params: 1.35 M => 0.40 M (29.61%)
[02/22 12:37:38] modelnet40-global-fpgm-2.0-pointnet INFO: FLOPs: 291.33 M => 144.45 M (49.58%, 2.02X )
[02/22 12:37:38] modelnet40-global-fpgm-2.0-pointnet INFO: Acc: 0.8861 => 0.4003
[02/22 12:37:38] modelnet40-global-fpgm-2.0-pointnet INFO: Val Loss: 0.3951 => 2.9519
…
